src/models/saved_models/user_collab_filtering_v1.pth (torch, 980418 bytes, 12 tensors)

u_weight.weight f4 [2322, 5]
000000 6d bd e4 bb 25 d1 d3 bb 9f 73 ae 3b f9 3a e4 bb
       -0.006980589 -0.006464141 0.0053238417 -0.006965038
000010 82 0c 9e 3b 8a b8 54 3d 13 32 4e 3e 48 03 5a 3e
       0.0048232684 0.051933803 0.2013629 0.21290314
000020 55 9c 00 bc 88 3c 60 be 94 53 94 be 29 86 aa be
       -0.007849772 -0.21898091 -0.28970015 -0.3330548
000030 a1 a7 eb 3e 91 8a cd be 74 45 e5 be c3 74 37 bf
       0.46026328 -0.4014478 -0.4477955 -0.7166254
000040 53 c6 2a bf 9a af 02 bf 56 8f a8 3e 9c 4a 09 3f
       -0.6670887 -0.51049197 0.32921857 0.5362947
000050 2b 96 02 bf 43 c3 f8 be 58 0b 06 3f 4e 5e b6 bc
       -0.5101039 -0.48586473 0.5236106 -0.022261765
000060 19 87 f5 be 28 51 6a bd 2b 17 76 be 6b 7b 38 3f
       -0.47954634 -0.057206303 -0.24032275 0.7206332
000070 e8 0e 36 bf b1 a3 2e bf cd 4f a7 3f c6 59 b3 3f
       -0.71116495 -0.68218523 1.3071228 1.4011772
000080 1e b9 89 3f 5a ce c7 bf fd 1b a9 3f 07 38 91 bd
       1.0759618 -1.5609848 1.3211666 -0.070907645
000090 39 80 f8 3d 81 8f 7b 3d 6c 78 a7 bc 12 ff 19 3e
       0.121338315 0.061416153 -0.020443164 0.15038708
0000a0 b1 00 d5 3d f5 7c 94 be d3 ee 9d be c0 e6 84 be
       0.104005225 -0.29001585 -0.3084627 -0.25957298
0000b0 af df 97 3e 5c dc 30 be 17 d7 78 bd 35 80 55 be
       0.29662845 -0.1727156 -0.060752 -0.20849688
0000c0 55 fa 2e be fc b4 8a be 78 d3 b0 bf d7 64 80 bf
       -0.17087682 -0.27091205 -1.3814535 -1.0030774
0000d0 f5 e0 6d 3f e7 e9 d1 bf 30 f7 e6 bf 50 4f ec be
       0.9292138 -1.6399506 -1.8044186 -0.4615426
0000e0 42 72 00 bf 7a f3 c4 3e bd 77 8c 3e e1 6a 26 bf
       -0.50174344 0.38467008 0.27435103 -0.65006834
0000f0 57 11 6f bf a2 3d 68 bf c7 5c 85 3f 83 5c b8 3e
       -0.93385834 -0.90719044 1.0418938 0.3600808
000100 f9 a6 66 bf 93 d2 19 3e e8 86 7e 3e a1 2f 38 3e
       -0.9009853 0.15021734 0.2485615 0.17986919
000110 2a 30 aa be 4a b9 3c be c1 f4 f7 be 55 0f 63 bf
       -0.3323987 -0.18430057 -0.4842892 -0.8869527
000120 5e 47 99 be 94 cc 87 bf 0e b0 18 3f ad 61 c9 3e
       -0.2993726 -1.0609307 0.5964364 0.39332333
000130 fe 8c d3 be 5c f2 c8 3e 5e e7 a4 3e f9 2b da 3e
       -0.41318506 0.39247406 0.3220777 0.42611673
000140 12 73 9c bd 7e ce 30 3d 42 86 85 bd fe fc c2 3d
       -0.076391354 0.043165676 -0.06519748 0.09520911
000150 e5 1c a8 bd 88 e1 8e be 74 be 93 be d1 2f 96 3e
       -0.08208636 -0.27906442 -0.28856242 0.29333356
000160 59 2e 4d 3e a1 9f 89 be 23 55 a4 bf 66 f1 9f bf
       0.20037211 -0.268796 -1.2838482 -1.2495544
000170 08 c1 87 3f f2 ca ae bf 8f 3e b9 bf 7b 29 01 3f
       1.0605783 -1.3655684 -1.4472216 0.5045392
000180 78 6c ea 3e 91 32 71 be 0d c8 e9 be 97 38 e5 be
       0.4578588 -0.23554446 -0.4566044 -0.44769737
000190 ce 04 08 bf c2 36 ad be 0b f1 00 3f 5f e8 d3 3e
       -0.5313233 -0.3383084 0.503678 0.41388223
0001a0 cd 1d 27 bf d6 7a e9 bd 95 9f 86 3d 34 05 0d 3e
       -0.6527985 -0.11400382 0.065734066 0.13771516
0001b0 14 b6 f5 bd 0f cb 91 3d 23 0d 0e be f9 c2 d8 bd
       -0.11997619 0.071188085 -0.13872199 -0.10584063
0001c0 7e c5 0b 3e 5c 94 01 be 9d e4 b2 bd 3b 99 87 3e
       0.13649556 -0.12654251 -0.08735011 0.26484093
0001d0 c9 f3 4b 3e c0 70 87 be dc 63 90 3e cb d5 8f 3e
       0.19917215 -0.2645321 0.28201187 0.280928
0001e0 85 11 02 3e 6d f3 b2 3d 06 3f 28 3d fe 30 15 3e
       0.12701996 0.08737836 0.04107573 0.1456947
0001f0 d2 e7 f6 bd 3d c9 5b be 97 7d 82 be be a1 86 3e
       -0.12055935 -0.21463485 -0.25486442 0.26295274
000200 a0 5d 57 be 84 6a 7f be bd 77 88 3f 47 7e 84 bf
       -0.21031809 -0.24942976 1.0661541 -1.0351037
000210 be f7 85 bf 53 bb 58 bf eb e5 86 bf bb 2c 9e be
       -1.046623 -0.84660834 -1.0538915 -0.30893502
000220 55 b5 a9 be 2e f9 9d 3e 63 6e ac 3e e9 06 81 3d
       -0.33146158 0.30854172 0.33677968 0.06300146
000230 44 e7 6e be 90 15 69 be b1 de 74 3e 04 c8 c1 bd
       -0.23330408 -0.22762132 0.23913075 -0.09461978
000240 13 d1 6e be dc ed ed be b2 dd b0 be e7 a3 e0 3e
       -0.23321943 -0.46470535 -0.3454414 0.43875048
000250 b7 c7 de 3e 99 25 d9 be bc 95 b6 3e f2 91 15 be
       0.43511745 -0.42411497 0.35661113 -0.14606455
000260 da 34 64 be 3f 3c 29 be 09 cd a1 3e 52 19 2c 3d
       -0.22285786 -0.16526888 0.31601742 0.042016335
000270 43 f3 a1 3d 1d d5 92 bd 8a 5e b9 bd b0 e8 84 bd
       0.079077266 -0.071695544 -0.09051235 -0.06489694
000280 57 25 09 3f 61 f5 50 bf a9 71 50 3f 27 ca b6 be
       0.535726 -0.8162442 0.8142343 -0.35701105
000290 18 a6 26 bf 41 74 26 3f 34 6f 31 3f 8f 21 23 3f
       -0.6509719 0.6502114 0.6931031 0.6372308
0002a0 1f 90 55 bf b8 97 35 3f b5 6d 02 bf 82 f7 e3 be
       -0.83423036 0.7093463 -0.5094865 -0.4452477
0002b0 0c ff 04 3f 19 7f 7f be 10 f8 0b bf 94 17 b9 be
       0.5195167 -0.24950828 -0.5467539 -0.361508
0002c0 60 95 8b be 10 78 b9 3e 17 1c 53 be 23 b4 bf be
       -0.27262402 0.36224413 -0.20616184 -0.3744212
0002d0 97 27 18 bf 28 24 0a bf a9 57 23 3f a7 91 00 bf
       -0.5943541 -0.5396142 0.63805634 -0.5022225
0002e0 68 d4 22 bf 15 c4 8a be d8 95 9f be f9 8b 9f 3e
       -0.63605356 -0.27102724 -0.3116901 0.31161478
0002f0 30 01 8d be 17 29 8f be 9c f4 6e bf 29 d4 8d bf
       -0.27539968 -0.27961037 -0.93341994 -1.1080371
000300 c1 e8 98 3f b5 c5 7c bf e1 be 9a bf 12 2e c3 3e
       1.1946031 -0.98739177 -1.2089502 0.38121086
000310 2c c8 df be bd 60 76 3e bd 77 c4 3e f4 41 b5 3e
       -0.43707407 0.2406034 0.38372603 0.3540188
000320 03 4e a9 be 80 e0 88 be cd e8 91 3e 86 83 95 3e
       -0.3306733 -0.2673378 0.28497925 0.29201907
000330 16 cf 43 3e d0 c6 37 bf 58 18 81 bf 7e 6c 71 3f
       0.19121966 -0.7178774 -1.0085554 0.9430617
000340 b5 d5 66 3f 7f 6a 1b bf 56 34 23 3d 90 d9 03 bc
       0.9016984 -0.60709375 0.039844833 -0.008047476
000350 f3 3d 15 bd 96 6f 0c bd ad af ab bd c2 4a 80 be
       -0.036436033 -0.034286104 -0.08383117 -0.25057036
000360 48 a3 4c be 8b 31 7d 3e e2 28 7f 3e bd 4b 42 be
       -0.19984162 0.2472593 0.2491794 -0.18974204
000370 80 79 ad bf d6 4d 89 3e 1c c7 9c 3f b0 cd 55 3f
       -1.3552704 0.26817197 1.2248263 0.8351698
000380 63 7b aa bf c0 b3 46 be 98 9c 49 be 00 9e 5f 3e
       -1.3318905 -0.19404507 -0.19688642 0.21837616
000390 41 23 22 be ed 70 66 be 8f c8 b6 3d 59 c6 26 be
       -0.15833761 -0.22504015 0.08924972 -0.16286601
0003a0 a8 48 ba bd b3 d4 fb bd 8a c6 df 3d ef 7f 4b be
       -0.09095889 -0.122964285 0.1092654 -0.19873022
0003b0 30 1b 84 be fa bc 8b 3e 47 b4 71 be 9d b3 81 be
       -0.25801992 0.27292615 -0.23603927 -0.25332347
0003c0 0e 53 68 be 56 b9 1d 3e f5 de 2d 3e 22 e2 22 3e
       -0.22687933 0.15402731 0.16979583 0.15906575
0003d0 d2 87 32 be ae ba 8e 3e 69 de cd 3e 39 6c be be
       -0.17434624 0.278768 0.40208748 -0.37191942
0003e0 44 43 d4 be 60 c0 d2 be 13 ac 6b 3c 0b e4 72 bf
       -0.4145757 -0.41162395 0.014384287 -0.94879216
0003f0 ef 22 84 3f 76 b0 6b bf 42 87 f3 be 50 eb 6a bf
       1.0323161 -0.92066133 -0.4756413 -0.9176531

i_weight.weight f4 [11231, 5]
000000 18 3f d3 bb 9a f9 a2 bb 68 2e 36 3c 75 2d cc ba
       -0.0064467303 -0.0049736025 0.011119463 -0.0015577512
000010 a9 16 71 bc 70 12 95 bd da f2 24 be 36 93 2d be
       -0.014714875 -0.07278907 -0.16108266 -0.16950688
000020 82 da 88 3d 12 44 bf bd 67 65 4a 3e f9 5f 55 be
       0.06682302 -0.09339155 0.19765244 -0.20837392
000030 3e 6d 29 be 8c df 2e be bb 3b f8 3d 1d 2c 8c be
       -0.16545579 -0.17077464 0.12120768 -0.27377406
000040 15 57 7d 3e a4 c5 82 3e c1 26 9b be 94 90 95 be
       0.2474025 0.25541413 -0.30303004 -0.29211867
000050 49 93 8f be 61 13 7e 3e de 11 84 3e bf 05 94 be
       -0.28042057 0.2481208 0.25794882 -0.28910634
000060 25 2e 99 be f6 16 87 be 7d 71 83 be 1f 11 81 3e
       -0.29918018 -0.26384705 -0.25672522 0.25208375
000070 78 7f 80 3e 95 c1 8a be 25 fd 70 be fb 5b 94 3e
       0.2509725 -0.27100816 -0.23534067 0.28976426
000080 4c 11 8d 3e 9f d7 89 be 4d fc 9b 3e 62 8a 2c be
       0.2755226 -0.26922318 0.30465928 -0.16849664
000090 d1 99 07 3e da 1c 2b be f7 ec 3f be a4 65 0e 3e
       0.1324227 -0.16710225 -0.18742739 0.1390596
0000a0 51 26 6a 3e dc 61 7f be 93 88 59 be 20 eb 63 be
       0.22866179 -0.24939674 -0.21243505 -0.22257662
0000b0 c4 49 14 3e 42 62 92 be dc 7b 91 be 87 3e 9a 3e
       0.14481264 -0.2859059 -0.2841481 0.3012583
0000c0 d5 b3 93 be 41 12 87 be 8e d8 55 be fb 6b 2b be
       -0.28848138 -0.26381114 -0.2088339 -0.1674041
0000d0 af 68 01 3e ae c9 16 be 7a 04 37 be a8 a7 cc 3c
       0.1263759 -0.14725372 -0.17872801 0.024982288
0000e0 a0 c0 b5 3c d3 3b f1 bc cc 21 4d 3d 44 f5 ca 3d
       0.022186577 -0.029447472 0.05008106 0.09910062
0000f0 bd 52 31 3e bd 76 2f be 26 a8 24 3e 5e 4a 35 be
       0.17316718 -0.17135139 0.16079769 -0.1770415
000100 ec c5 18 be f1 20 2c 3e 90 cf 32 be 68 4d 2d 3e
       -0.14919251 0.16809441 -0.17461991 0.1692406
000110 3f d7 34 be bc 69 2c be 5d e5 71 3e 21 69 66 be
       -0.17660235 -0.1683721 0.23622651 -0.22501041
000120 96 9a 6b 3e c9 f6 70 be 7c e2 65 be ab 68 59 3e
       0.23008189 -0.23531641 -0.22449678 0.21231334
000130 d1 24 6d be 0f e7 69 3e 75 63 75 be 1d 9c 5f be
       -0.23158576 0.22842048 -0.23963721 -0.21836896
000140 d4 06 63 3e 99 f8 58 be fa cb 63 3e fc 35 51 be
       0.22170573 -0.21188582 0.2224578 -0.2043075
000150 4e cc 55 be a9 62 25 3e a2 a4 32 be c6 d6 49 3e
       -0.20878717 0.16150917 -0.17445615 0.19710836
000160 52 9c 3d be 45 2f 3c be 64 f8 80 3e 7d 8a 86 be
       -0.18516663 -0.18377407 0.25189507 -0.26277533
000170 46 98 89 3e 7a fc 88 be 6b 1a 7c be d9 d7 03 3e
       0.26873988 -0.26755124 -0.24619453 0.12875308
000180 30 d1 00 3e d9 a9 f7 3d e3 ad d0 bd 23 8c 01 be
       0.12579799 0.12092943 -0.10189416 -0.12651114
000190 95 3c 38 3e ea 68 3f be 7b d0 43 3e 76 05 42 be
       0.1799186 -0.18692365 0.19122498 -0.18947396
0001a0 cc b6 2c be da ff 57 3e e3 d3 5f be 80 2c 68 3e
       -0.16866606 0.21093693 -0.21858172 0.22673225
0001b0 95 90 64 be aa 74 5f be 39 1a 13 3e 21 5f 0d be
       -0.22320779 -0.21821848 0.14365472 -0.1380582
0001c0 9d 1d 1c 3e 21 e4 08 be d7 9a 05 be de a1 4d 3e
       0.15245672 -0.13368274 -0.13047348 0.20081279
0001d0 60 33 55 be be be 65 3e d0 cd 6b be 4b 31 4a be
       -0.2082038 0.22436044 -0.2302773 -0.19745366
0001e0 81 6d 67 3e 62 34 75 be 5c cd 73 3e bd 59 78 be
       0.22600366 -0.23945764 0.23808807 -0.24252982
0001f0 da f7 55 be e0 f5 25 3e 4f 91 3c be ca 71 39 3e
       -0.20895329 0.16207075 -0.18414806 0.18109813
000200 99 d6 3c be 9d db 26 be 17 95 74 3d 90 29 99 3d
       -0.18441238 -0.16294713 0.059712496 0.074786305
000210 6f 42 c3 bd ce 69 89 3d df 82 8c bd e6 21 1d 3e
       -0.095341556 0.06709634 -0.06860899 0.15344962
000220 75 1d 59 be 32 24 81 3e ca c9 69 be b3 fb 7e 3e
       -0.21202643 0.25222927 -0.22830883 0.24900703
000230 4f bc 9c 3e 1c 63 9e be 6d 8e 9a 3e fa ed 83 3e
       0.30612418 -0.3093499 0.30186787 0.257675
000240 5a ef 5b 3e 0e 5c 33 be 09 54 4d 3e 45 90 bd bd
       0.21478024 -0.17515585 0.20051588 -0.09256033
000250 f3 fe 53 be 83 c3 50 3e 7a a5 35 be fe 88 37 3e
       -0.20702724 0.20387082 -0.17738906 0.17923352
000260 d0 dd c4 bd 8d 85 3e be 93 0b 44 3e 82 99 0d 3e
       -0.0961262 -0.18605633 0.1914504 0.1382809
000270 76 93 58 3d b1 4e f6 3d 4a cd ed 3d 6a 53 dd bd
       0.052875005 0.12026728 0.116114214 -0.108069256
000280 fe c8 58 be 70 8d 80 be fc cc 67 3e 8f ce 70 3e
       -0.21170422 -0.25107908 0.22636789 0.23516296
000290 65 7d 66 3e 4b 5d 51 3e 44 3a 60 3e ea 5c 38 3e
       0.22508772 0.20445745 0.21897227 0.18004194
0002a0 05 74 56 be 69 ea 2d be e2 9e 30 3e 38 34 46 3e
       -0.20942695 -0.16983952 0.17248109 0.19355857
0002b0 4f 07 28 3e 85 e7 6c be 12 30 03 be ae 30 13 3e
       0.16409038 -0.23135193 -0.12811306 0.14374039
0002c0 b5 dc 1c 3e d8 55 0f 3e 49 53 24 be 97 79 03 be
       0.15318568 0.1399759 -0.16047396 -0.12839352
0002d0 9e fe 5a 3e 6b 5f 7d 3e 4c c2 48 3e 46 2f 81 be
       0.21386191 0.2474343 0.19605368 -0.2523138
0002e0 67 da 42 be 66 51 cd 3d 1d 00 05 be d5 e8 0b be
       -0.19028626 0.10025291 -0.12988324 -0.13663037
0002f0 8e 5e f7 3d 99 e1 f2 3d 9e 64 2c 3e 3b 36 6f be
       0.12078582 0.118594356 0.16835257 -0.23360531
000300 0b 6b 79 be 24 8c 69 3e b5 c4 51 3e 04 37 8c be
       -0.2435724 0.22807366 0.20485194 -0.27385724
000310 41 d5 92 3e c6 fc 8e be a9 72 a0 3e 0f 0b 42 3e
       0.28678325 -0.27927226 0.3133748 0.18949531
000320 1d 41 d7 3d 27 e9 2d be 8d 19 24 be ca f6 21 3e
       0.10510466 -0.16983472 -0.16025372 0.15816799
000330 7d 3a 04 3e 7f a4 92 3e 04 e5 8c be d9 27 93 3e
       0.12912937 0.28641126 -0.27518475 0.2874134
000340 f1 51 91 be b1 98 8a be 73 d5 37 3e 45 6a 43 be
       -0.2838283 -0.2706962 0.17952518 -0.19083507
000350 1b 24 48 3e 7f 80 41 be 4d 9d 23 be 9f 64 4f 3e
       0.19545023 -0.18896674 -0.15977974 0.20253228
000360 e7 ae 46 be 4e 71 63 3e cf ef 54 be 32 71 59 be
       -0.19402657 0.22211191 -0.20794605 -0.21234587
000370 fb 9e fd 3d 92 b4 fd bd 04 32 07 3e 6c ad 04 be
       0.12383839 -0.12387957 0.13202673 -0.1295678
000380 11 21 01 be a3 a8 e4 3d 05 f2 d7 bd 7e 5a f3 3d
       -0.1261027 0.111649774 -0.105442084 0.118824944
000390 d0 c6 e6 bd 5d 42 b1 bd 69 3e 59 be 00 97 93 bc
       -0.11268389 -0.08655236 -0.21215214 -0.018016338
0003a0 5b 96 5f bd c4 74 e5 bd 2a 9a 44 3e e2 8b f6 3a
       -0.05458675 -0.11203912 0.19199434 0.0018809999
0003b0 68 0e 83 bd d0 ab ef 3d 89 67 03 bd 6e 49 ac bd
       -0.06399232 0.117026925 -0.03208116 -0.08412443
0003c0 e5 e4 b4 3e 14 ca 01 bf d8 8f f8 be cf e0 fe 3e
       0.35330883 -0.5069897 -0.48547244 0.4978089
0003d0 62 9f 0f bf c3 60 15 be 74 4c 0f 3e 58 9a 14 3e
       -0.56102574 -0.14587693 0.13994008 0.14512002
0003e0 3a d4 2a be a8 a0 26 be cd af 2d be 21 a3 e7 3d
       -0.1668252 -0.16272223 -0.16961594 0.11310411
0003f0 89 a9 1a 3e 17 4d 16 be 44 9a 22 be e8 d1 63 be
       0.15103735 -0.14677845 -0.1587916 -0.22248042

u_bias.weight f4 [2322, 1]
000000 a8 6c 14 38 42 4b 90 3e 42 3d 22 3f ba fe 92 3f
       3.5387144e-05 0.28182417 0.6337472 1.1483986
000010 fe da 19 3f 2f a9 6d 3f e9 57 21 40 95 29 ad 3e
       0.6009978 0.9283628 2.5209906 0.33820787
000020 0e a2 ff 3e 4b b1 fc 3e 50 50 11 40 08 53 89 3f
       0.49928325 0.49354014 2.270527 1.0728464
000030 90 4f ae 3f be 36 0a 3f 6b 45 d8 3f c7 7a 5a 3f
       1.361803 0.5398978 1.6896185 0.85343593
000040 68 63 81 3e c4 57 a5 3e 4d 43 f0 3f d3 f6 3b 3f
       0.25271153 0.32293522 1.8770539 0.734235
000050 69 ba 8f 3f a6 40 9f 3e ac fd 98 3e b7 30 00 3f
       1.1228763 0.3110401 0.29881036 0.5007433
000060 81 cd 0a 3f 9b 11 b8 3e 3f b5 b5 3f f2 6f 3f 3f
       0.54219824 0.35950932 1.4195937 0.7478019
000070 69 ce d9 3e fb b9 07 3f fc ac 12 3f d4 33 98 3d
       0.4254029 0.5301816 0.57295203 0.074317604
000080 73 d9 b3 3f 43 65 c5 3f 89 c4 4e 3f 2a 93 b0 3e
       1.4050735 1.5421528 0.8076864 0.34487277
000090 37 50 42 3f f3 b0 a6 3e 94 2d bb 3f d1 e1 0d 3f
       0.7590365 0.32556877 1.4623284 0.55422693
0000a0 38 66 05 3f ea ee b9 3f b7 3e 68 3e 24 b9 8c 3e
       0.521091 1.4526036 0.22680174 0.27485
0000b0 10 93 bc 3f bd 0b c6 3e 83 ec c1 3e 67 e2 97 3e
       1.473238 0.3868083 0.37875757 0.2966492
0000c0 e6 17 2b 3f d9 bd da 3e 01 78 94 3f c1 e9 9a 3f
       0.6683334 0.42722967 1.1599122 1.2102586
0000d0 d7 72 3e 3f 8e c3 28 3f 6f f7 9e 3e cc 00 c0 3f
       0.7439398 0.6592339 0.31048152 1.5000243
0000e0 ca f5 0b 40 02 90 a1 3f cf ce 64 3e fc 9d 43 3f
       2.1868768 1.2622073 0.22344516 0.7641294
0000f0 af 37 db 3e 36 c9 05 40 09 e1 fd 3e 87 47 97 3e
       0.4281592 2.090406 0.4958575 0.2954676
000100 d9 c6 b6 3f 07 17 bb 3f 86 df 03 40 7d 82 b3 3f
       1.4279433 1.4616402 2.0605178 1.4024197
000110 ca f1 be 3e b9 bf d1 3f 32 29 91 3f 2f 80 46 3f
       0.37293845 1.6386634 1.1340697 0.7753934
000120 80 62 63 3e 73 53 35 40 14 96 2d 40 3c f1 04 40
       0.22205544 2.8332183 2.712285 2.0772238
000130 86 04 ef 3f 00 2e 01 40 ae 56 b3 3e f2 b5 77 3f
       1.8673255 2.0184326 0.3502707 0.96762
000140 65 02 9c 3e c9 45 21 3f 2e 02 47 3e ac 74 01 40
       0.30470577 0.6299711 0.19434425 2.022746
000150 a2 1b 31 3f f4 d8 3b 3f 10 ca 4b 3e 8b bc 07 40
       0.6918279 0.7337792 0.199013 2.1208827
000160 65 e0 47 40 77 5a af 3e bf 39 24 3f fe 20 99 3f
       3.123071 0.34248707 0.64150614 1.1963193
000170 cd e8 3a 3f 8e b9 ca 3e 8b 0d 93 3e 02 d0 03 3f
       0.73011476 0.39594692 0.2872127 0.5148927
000180 fb 23 83 3e 2b 03 b8 3e cb 73 61 3e 58 17 4e 40
       0.25613388 0.35939917 0.22016828 3.2201748
000190 a1 b6 54 3e 75 6f d0 3e a0 75 87 3f fb e1 d9 3e
       0.20772792 0.40710035 1.0582771 0.42555222
0001a0 40 06 6e 3e 0f 0a 90 3e b2 f6 99 3f c2 56 ec 3f
       0.23244572 0.28132674 1.202841 1.8463976
0001b0 91 da 8e 3f f0 94 54 3f a4 d8 b7 3e 1e 6d a2 3f
       1.1160451 0.8303976 0.3590747 1.268955
0001c0 2d f6 1c 40 23 b5 6d 3f ca 4a de 3f e0 6b 8b 3e
       2.4525254 0.9285452 1.7366574 0.2723074
0001d0 f1 00 f0 3f 25 9b d5 3f 5a 28 b9 3f d9 7e 82 3f
       1.8750287 1.6687971 1.4465439 1.0194961
0001e0 f4 b9 4a 3f f8 2f 89 3e 28 7e 98 3e a0 7e 9c 3f
       0.7918999 0.2679441 0.2978375 1.2226143
0001f0 fc 43 23 3e 2c ea bf 3f 4a a1 8c 40 31 4c e3 3f
       0.15943903 1.4993339 4.3946886 1.7757627
000200 8a b2 fd 3e 09 f2 7e 3e a5 52 a8 3f e3 af 29 3f
       0.49550277 0.24897017 1.3150221 0.66284007
000210 83 fe 25 3f bf be 5f 3e f8 8e 0c 40 44 9f 03 40
       0.6484148 0.21850108 2.1962261 2.0565958
000220 74 0e c1 3e 6c 04 5e 3e 0e 34 b8 3f 14 48 ed 3f
       0.3770634 0.21681374 1.4390886 1.8537621
000230 fb 4e 08 3f b6 ec eb 3d 7a 2a 79 3e c1 04 61 3f
       0.53245515 0.115197584 0.2433261 0.8789788
000240 6f 1c 93 3e 82 aa 08 40 eb 98 aa 3e c8 df 92 3e
       0.2873263 2.135407 0.33319792 0.28686357
000250 92 3e 98 3f 6b 7d 5b 3e 60 e9 f0 3f 08 2c 03 40
       1.1894095 0.21434562 1.882122 2.0495625
000260 4a fb 0c 3f 8d d4 15 40 00 0f 0a 40 e9 36 d9 3e
       0.55070937 2.341098 2.1571655 0.42424706
000270 de d8 24 3f 2f be a2 3e d6 ae 5e 3f 43 8c 9a 3f
       0.64393413 0.31785724 0.8698553 1.2074054
000280 ae b8 93 3e 61 07 ee 3d 6e a1 a1 3e 26 51 81 3f
       0.28851837 0.11622501 0.31568474 1.010289
000290 87 e8 1c 40 bc 52 11 3f 73 f8 34 3f 37 a7 a2 3f
       2.4516923 0.5676687 0.70691603 1.270728
0002a0 48 4d 08 3f ff 79 c0 3f 7b 9c 60 3f ef 0d 24 3f
       0.5324292 1.503723 0.8773877 0.6408376
0002b0 b4 5e 30 3f 33 2d 94 3e a4 4b 52 40 32 cc 9c 3f
       0.68894506 0.28940734 3.2858667 1.2249815
0002c0 0f a8 52 3f ea 9e 0e 3f 3d 88 29 3e 88 4f 93 3f
       0.8228769 0.55711234 0.16555877 1.1508646
0002d0 44 f9 7e 3e 4e 71 b0 3e 0f 04 e4 3e 85 3e 32 40
       0.24899775 0.34461445 0.44534346 2.785066
0002e0 a0 33 d0 3e 3a 5b 39 3f a4 e7 a8 3e 8f 20 1d 3f
       0.40664387 0.72404826 0.32989228 0.61377805
0002f0 ea 55 4b 3f b0 eb c7 3f f2 9d 2c 3f d3 c3 bd 3f
       0.7942797 1.5618801 0.67428505 1.4825386
000300 36 9c 30 3f 4e 46 74 3e 8c e8 87 3f f4 c2 a3 3f
       0.6898836 0.23854944 1.0617843 1.279387
000310 76 50 00 3f fa 40 9d 3f b6 92 19 3f 0d a8 53 3e
       0.50122774 1.2285454 0.5998949 0.20669575
000320 c0 b7 b9 3f f7 a6 e3 3e 32 50 f4 3f a2 2a f1 3e
       1.4509201 0.44463322 1.9086974 0.4710284
000330 ba 58 06 40 11 22 ef 3f 7b 64 cc 3f 57 42 5c 40
       2.0991654 1.8682271 1.5968164 3.441549
000340 07 39 44 3e 8d 92 02 40 45 a7 95 3e 49 a0 bb 3f
       0.19162379 2.0401947 0.2922918 1.465829
000350 39 2d 19 3f af 76 76 3e 28 48 32 40 d0 56 85 3f
       0.5983463 0.24068712 2.785654 1.0417118
000360 5d 52 79 3e e0 ce b1 3e 58 95 93 3e 51 9e 17 3e
       0.24347825 0.34728146 0.28824878 0.14806487
000370 dc 92 cf 3e 30 64 cc 3e e9 cb d5 3f e5 7b 75 3e
       0.40541732 0.39920187 1.6702853 0.23973043
000380 40 b0 4b 3f b3 57 72 3f d7 13 ca 3e d6 64 0f 3e
       0.7956581 0.9466507 0.39468262 0.1400331
000390 2e ae 92 3e ec 50 22 3f b8 5a b4 3f 3b 90 ec 3e
       0.28648514 0.63404727 1.4090185 0.4620379
0003a0 ef 3f c9 3f bf ff 4f 3e 96 2f 01 3f bb 81 5c 3f
       1.5722636 0.20312403 0.50463235 0.86135453
0003b0 a7 55 88 3f 79 1f 09 3f 61 16 cf 3f 76 0d ae 3f
       1.0651139 0.5356365 1.6178705 1.3597858
0003c0 f8 2d ec 3f 7f 1b 6a 3e b2 87 96 3f 86 96 5a 3f
       1.8451529 0.22862051 1.1760161 0.8538593
0003d0 35 ae bf 3e 3f da 58 3e 24 d3 f1 3e 1a 34 51 3e
       0.37437597 0.21177004 0.472314 0.20430031
0003e0 c1 4f c2 3e 70 e2 b7 3e d4 df 95 3e 9d c2 0e 3f
       0.37951472 0.35914946 0.2927233 0.55765706
0003f0 4d 10 96 3e cc b1 92 3e 2c f0 91 3f 88 1e 73 3f
       0.29309312 0.28651273 1.140142 0.9496846

i_bias.weight f4 [11231, 1]
000000 c5 de 4f ba 7e 6c 8e 3e 56 db 87 3e c4 00 ac 3e
       -0.00079296186 0.27817148 0.26534528 0.33594334
000010 8b 8c 95 3e fe d6 93 3e bd 27 21 3f 15 78 60 3e
       0.29208788 0.28874964 0.6295126 0.21920808
000020 65 8a 87 3e 7e c8 bc 3e c9 38 69 3e 19 65 4f 3e
       0.26472774 0.36871713 0.22775568 0.2025341
000030 20 0d 7a 3e 34 16 78 3e 09 ef 8c 3e 21 d3 89 3e
       0.2441907 0.2422722 0.2752612 0.2691889
000040 64 eb 62 3e c6 e9 4c 3e b5 d2 ab 3e d9 3a 86 3e
       0.22160107 0.20011052 0.33559194 0.26216772
000050 4c 87 66 3e 0c ce 85 3e 20 70 18 3e 00 57 91 3e
       0.22512549 0.26133764 0.14886522 0.28386688
000060 87 c1 9b 3e 4b 90 81 3e 51 76 a1 3e e7 6b b8 3e
       0.30421087 0.253054 0.3153558 0.36019823
000070 21 2f c6 3e 17 c5 9c 3e 68 a9 8a 3e ff d5 94 3e
       0.38707832 0.30619118 0.27082372 0.29069516
000080 16 1d c1 3e 9c b9 92 3e 06 2d be 3e eb 1e 5b 3e
       0.37717503 0.28657234 0.37143725 0.21398513
000090 db c6 b4 3e 34 32 fc 3d 41 a0 77 3e 78 6a ce 3e
       0.35307965 0.12314263 0.24182226 0.40315604
0000a0 16 cf 39 3e a3 6d c6 3e a6 ff 89 3e 85 d2 6a 3e
       0.18145403 0.3875552 0.26952857 0.2293187
0000b0 4f 66 2b 3e 7b bd 33 3e 3d 6b c1 3e 49 bb aa 3e
       0.16738246 0.1755275 0.3777713 0.33346012
0000c0 d8 5c 28 3f 2d 61 27 3e 70 ef f2 3d df 43 be 3e
       0.6576667 0.16345663 0.11862075 0.37161157
0000d0 d2 26 d8 3e 45 91 81 3e e3 ea 40 3e 08 d0 41 3e
       0.42217118 0.25306144 0.18839602 0.18927014
0000e0 d7 55 b3 3e ec 23 4c 3e c8 c1 29 3f ea 65 ba 3e
       0.35026428 0.19935578 0.6631131 0.3640588
0000f0 22 d8 6d 3e 6e 80 83 3e e4 fe 3c 3e d1 66 78 3e
       0.2322698 0.25683922 0.18456608 0.24257971
000100 c6 dd 2d 3f 73 24 ae 3e f7 08 92 3e 75 5b e3 3e
       0.67916524 0.34012184 0.28522465 0.44405714
000110 a2 aa e6 3e f4 fc d7 3e cd b4 7d 3e e5 00 bc 3e
       0.45052058 0.42185175 0.24776001 0.36719432
000120 5b ec 80 3e f7 5d 14 3e b3 42 ea 3e 2e 07 50 3f
       0.25180325 0.1448897 0.45754012 0.81260955
000130 12 f2 b3 3e 5c e4 7d 3e fd 17 ac 3e 81 fe a5 3d
       0.35145622 0.24794143 0.33612052 0.081051834
000140 a5 69 b1 3e dd d4 be 3e 2c 8c 15 3e 5a 83 55 3e
       0.34650913 0.37271777 0.14604253 0.20850888
000150 b2 6d 8d 3e 34 2e 10 3f a0 9a b0 3e 31 cc 83 3e
       0.27622753 0.563205 0.3449297 0.25741723
000160 cb 2d 86 3e e4 fc d1 3e ab 75 4a 3d 0c bc d8 3e
       0.26206812 0.41013253 0.049428623 0.42330968
000170 e4 4c 0a 3f 55 f7 8f 3e 92 7f af 3e 25 2e 42 3e
       0.54023576 0.28118387 0.34277016 0.18962915
000180 fc f3 02 3f dd 1c 9a 3e 18 6f 97 3e 11 46 b2 3e
       0.5115354 0.30100146 0.29576945 0.3481908
000190 08 f0 85 3e 0a 52 42 3e 58 94 6f 3e ae 63 63 3e
       0.26159692 0.18976608 0.23396432 0.22205994
0001a0 b8 12 02 3f c2 01 e4 3e 52 c8 20 3e bc cc 8a 3e
       0.5080981 0.4453259 0.15701416 0.27109325
0001b0 be e8 bb 3e bc cd 48 3e a4 d5 60 3e 89 2a 7d 3e
       0.36701006 0.19609731 0.21956497 0.24723257
0001c0 b8 8e be 3e 3e ae 81 3e 37 20 8d 3e 6f 04 a3 3e
       0.3721826 0.2532825 0.2756364 0.3183932
0001d0 8c 1c 41 3e 46 0a 23 3e ab b9 d5 3e 78 a6 7f 3e
       0.18858546 0.15921888 0.41743216 0.24965847
0001e0 85 e6 81 3e 59 93 df 3e 10 f9 b9 3e a2 d0 48 3e
       0.25371185 0.43667105 0.36322832 0.19610837
0001f0 74 df e7 3e 5f 51 8d 3e f8 ab 95 3e 9f fb 52 3e
       0.4528767 0.27601144 0.29232764 0.20603798
000200 eb 0d 97 3e 50 27 14 3e f8 50 65 3f f7 96 16 3f
       0.29502806 0.14468122 0.89576674 0.58824104
000210 1a b6 0b 3e ad 94 4d 3e cb 8d a9 3e 63 8f 7e 3e
       0.13643685 0.20076247 0.33115992 0.24859385
000220 2a 9b 96 3e c9 65 86 3e 45 03 75 3e 34 4f 18 3e
       0.29415256 0.2624953 0.23927028 0.14873964
000230 f1 c0 23 3e c6 4e 8b 3e 52 d6 69 3e 3c 9b 5f 3e
       0.1599157 0.27208537 0.22835663 0.21836561
000240 d0 22 9c 3e 75 bd 4b 3e 4c 32 86 3e 5c 12 9c 3e
       0.3049531 0.19896491 0.26210248 0.30482757
000250 3f 68 8b 3e e1 01 95 3e ee b0 71 3e e6 c1 5d 3e
       0.2722797 0.29102996 0.2360265 0.21655998
000260 5c da 33 3e 72 97 36 3e ef 96 30 3e 2c 83 79 3e
       0.17563766 0.1783121 0.17245077 0.24366444
000270 fd c1 cf 3e 54 22 9f 3e 6b d5 c9 3e d1 69 5e 3e
       0.4057769 0.31080878 0.39420637 0.21720053
000280 7f 9a 80 3e b1 46 91 3e 3e 2c a3 3e cc 0f 96 3e
       0.2511787 0.28374246 0.31869692 0.29308927
000290 58 6a a7 3e f1 64 2a 3f aa e7 35 3e 3e e5 5e 3e
       0.3269832 0.66560274 0.17764154 0.21767136
0002a0 5e 8e 58 3e 9e 12 98 3e 58 11 bc 3e 6b 2b 23 3e
       0.21148059 0.29701704 0.36731982 0.15934531
0002b0 1b 5b c3 3e e8 b8 02 3f ec 7f e1 3e a9 9f 81 3e
       0.38155445 0.51063395 0.4404291 0.25317124
0002c0 87 e6 ce 3e 2a 4c cf 3e 44 28 d3 3e 0b 62 15 3e
       0.40410253 0.40487796 0.41241658 0.14588182
0002d0 b8 fe f8 3d aa 9e 0f 3e 01 c8 5a 3e 0f 7f c1 3e
       0.12157959 0.1402537 0.21365358 0.3779225
0002e0 54 48 22 3e 9a 57 76 3e 1e ae 1c 3e f9 20 9f 3e
       0.15847903 0.24056855 0.15300795 0.31079844
0002f0 43 a4 24 3e 62 36 3c 3e 57 18 20 3e c2 86 8e 3e
       0.16078286 0.1838012 0.15634285 0.27837187
000300 4e 86 99 3e 56 df 01 3e 5d d7 5c 3e 20 54 6a 3e
       0.2998528 0.12682852 0.2156653 0.22883654
000310 20 dc 25 3f 89 b4 7c 3e 73 2d 2d 3e 33 f8 36 3f
       0.6478901 0.24678244 0.16911869 0.7147247
000320 14 48 65 3e bd 49 a2 3e 9f f6 36 3e 23 8f a7 3e
       0.22390777 0.31696883 0.17867516 0.32726392
000330 48 8b c1 3e 9a 6c e6 3e 6e 58 4a 3e 0b c6 ae 3e
       0.37801576 0.4500473 0.19760296 0.3413547
000340 06 be 02 3f e6 54 94 3e f1 8f 59 3f 9a c3 b7 3e
       0.510712 0.28971022 0.8498526 0.3589142
000350 d8 ea 8b 3e 4f 83 52 3f f8 7b 29 3e 80 00 b6 3e
       0.2732761 0.8223161 0.16551197 0.35547256
000360 fa 97 e5 3e 2e a8 5d 3e f9 18 b8 3e b6 4d 73 3e
       0.4484251 0.21646187 0.35956553 0.23760113
000370 d4 23 00 3f 13 d4 84 3e 36 26 bf 3e 01 e3 14 3f
       0.5005467 0.2594305 0.3733384 0.5815888
000380 d9 0f 99 3e 73 ea 34 3e 05 b4 99 3e ad c4 5c 3f
       0.29894903 0.1766756 0.30020157 0.86237603
000390 50 82 0f 3f 2d 77 88 3e b6 fc bd 3e 56 6f 9b 3e
       0.56058216 0.26653424 0.37106866 0.3035838
0003a0 cf 33 fa 3d d1 54 a0 3e 19 3d 8c 3e 37 7c c2 3e
       0.12216913 0.3131471 0.27390364 0.37985393
0003b0 ac 3a 8f 3e 1d d1 a9 3e cb 4d bf 3e c4 0a a3 3e
       0.2797445 0.33167353 0.3736404 0.3184415
0003c0 c2 73 fd 3e 41 e4 99 3e 39 cf 53 3e 98 7c ae 3e
       0.4950238 0.30056956 0.20684518 0.34079432
0003d0 d4 f7 3a 3e e5 c8 fb 3d 36 c9 75 3e 6f 6e 93 3e
       0.18258601 0.12294177 0.24002537 0.28795192
0003e0 29 1a 7b 3e c7 d1 b0 3e d5 23 8b 3e 61 18 98 3e
       0.24521698 0.34535047 0.27175775 0.297061
0003f0 c6 48 5d 3e 7e ca 02 3f bd 35 85 3e ac ea 0a 3f
       0.21609792 0.5109023 0.26017562 0.5426433

grad_avg f4 [2322, 5]
000000 00 00 00 00 00 00 00 00 00 00 00 00 00 00 00 00
       0.0 0.0 0.0 0.0
000010 00 00 00 00 a3 29 40 2c 65 87 af ac 8f 8b d7 ad
       0.0 2.7307954e-12 -4.988831e-12 -2.4504647e-11
000020 f9 5b b1 2c b5 95 d9 2d 95 02 0f 36 a3 3f 1c 36
       5.0408536e-12 2.4736527e-11 2.1310163e-06 2.3282853e-06
000030 bc 21 51 b6 24 cf 43 36 1c ba 4b 36 5d 7a 3f 2e
       -3.1163063e-06 2.9177836e-06 3.0357687e-06 4.3537052e-11
000040 38 a6 2c 2e 07 79 26 2e e4 df 13 ae 4d 36 35 ae
       3.9255904e-11 3.7851524e-11 -3.3622785e-11 -4.1202864e-11
000050 50 80 25 32 9c be 1f 32 be 39 2c b2 ff e6 67 af
       9.633439e-09 9.298358e-09 -1.0024847e-08 -2.1091394e-10
000060 9a 02 12 32 7b 15 bb 33 b2 f3 3c 34 d5 ec 88 b4
       8.49891e-09 8.711773e-08 1.759752e-07 -2.5504292e-07
000070 cb b2 8a 34 ef 09 8c 34 3d ec 0c b6 b4 55 b2 b5
       2.5834592e-07 2.608426e-07 -2.0999134e-06 -1.3286976e-06
000080 d9 73 de b5 2d 53 1a 36 62 bc 93 b5 a1 8e 8f 1c
       -1.6574005e-06 2.2996203e-06 -1.100718e-06 9.499815e-22
000090 bf a0 f6 9c e2 75 78 9c 7e ce a3 1b 41 5c 1a 9d
       -1.6320466e-21 -8.2208677e-22 2.709953e-22 -2.0429424e-21
0000a0 4d 8a 31 ad 5d 56 f8 2d 70 03 04 2e 31 23 dd 2d
       -1.0091994e-11 2.8232689e-11 3.001638e-11 2.514042e-11
0000b0 62 d4 fc ad 90 73 96 30 f4 25 60 30 24 e6 6d 30
       -2.87434e-11 1.0946781e-09 8.154466e-10 8.654715e-10
0000c0 ad 76 9b 30 d5 51 18 31 ac 8a d0 b3 47 2a 30 b5
       1.1311464e-09 2.2165427e-09 -9.710979e-08 -6.562663e-07
0000d0 b6 13 0f 35 80 e7 df 35 1c fb da 35 3a 4e 37 2f
       5.3300334e-07 1.668217e-06 1.6315348e-06 1.6671545e-10
0000e0 1a c6 2a 2f 4c a5 06 af b5 55 01 af 84 5d 63 2f
       1.553179e-10 -1.2245954e-10 -1.1762931e-10 2.0678753e-10
0000f0 be 91 42 34 c1 56 3e 34 77 c0 4a b4 a6 84 59 b2
       1.8120679e-07 1.772669e-07 -1.8882734e-07 -1.2661223e-08
000100 15 99 39 34 57 1a 4b b1 bf e3 40 b1 7a a0 d1 b0
       1.7285159e-07 -2.955536e-09 -2.8069136e-09 -1.5252362e-09
000110 7f b2 81 31 27 73 f8 30 7d 2f ca 35 e7 d4 13 36
       3.774687e-09 1.8077103e-09 1.5063994e-06 2.2028632e-06
000120 e3 c4 b7 35 5b ad 29 36 a1 f5 e2 b2 dd ed d5 b5
       1.3691864e-06 2.5283869e-06 -2.6421562e-08 -1.5938964e-06
000130 85 9d d9 35 88 68 d8 b5 db 25 b4 b5 d4 8b db b5
       1.6213604e-06 -1.6123677e-06 -1.3422062e-06 -1.6357467e-06
000140 c6 68 0c 30 27 b8 9e af f3 44 ed 2f b5 e2 2d b0
       5.1080595e-10 -2.887088e-10 4.315904e-10 -6.3259203e-10
000150 23 c3 17 30 00 c3 09 31 72 37 11 31 6e 5d 17 b1
       5.5210786e-10 2.0046969e-09 2.1131794e-09 -2.20265e-09
000160 53 35 45 b0 f4 75 11 31 d6 cf db 34 a0 6b d3 34
       -7.174396e-10 2.1167326e-09 4.094315e-07 3.938012e-07
000170 5a 83 bc b4 70 d7 cf 34 ba 71 f3 34 a3 81 bd b5
       -3.51133e-07 3.8713506e-07 4.5345024e-07 -1.4119327e-06
000180 fc 3f ab b5 ea 9a 49 35 ff ac ad 35 b2 92 a9 35
       -1.2759115e-06 7.5103765e-07 1.2939853e-06 1.2634175e-06
000190 43 f8 80 35 33 00 26 35 4b e9 78 b5 00 f4 8a b5
       9.608997e-07 6.184011e-07 -9.2726685e-07 -1.0352815e-06
0001a0 93 5b a1 35 f8 84 5d 2b 7d 79 ff aa b5 78 85 ab
       1.2022086e-06 7.8699504e-13 -4.53814e-13 -9.483721e-13
0001b0 d5 5f 68 2b fc 46 0a ab 44 a4 92 35 ed 33 22 35
       8.255595e-13 -4.912596e-13 1.0925655e-06 6.0425265e-07
0001c0 0a d6 89 b5 e5 19 4b 35 33 fe 25 35 6c 51 aa ad
       -1.0269589e-06 7.5661075e-07 6.18372e-07 -1.9362921e-11
0001d0 69 bf 7f ad 89 e7 a9 2d eb df b4 ad 7c 06 b4 ad
       -1.4537573e-11 1.9315898e-11 -2.056307e-11 -2.046651e-11
0001e0 f3 a0 16 b0 bd c4 e0 af ae 45 49 af 1e 14 30 b0
       -5.4798405e-10 -4.0885154e-10 -1.8305599e-10 -6.4057015e-10
0001f0 0d 3a 0f 30 7c 23 a3 32 90 75 e9 32 f5 d0 fb b2
       5.210559e-10 1.8991834e-08 2.7178231e-08 -2.9315268e-08
000200 53 4f 67 31 57 8a ed 32 42 75 7d b5 5b 8d 7c 35
       3.3660015e-09 2.7653341e-08 -9.4420477e-07 9.4083015e-07
000210 a9 63 7d 35 36 de 5c 35 fe 7f 75 35 78 33 31 31
       9.439487e-07 8.2279746e-07 9.1455865e-07 2.5786147e-09
000220 86 43 29 31 1a 24 35 b1 de 17 65 b1 f6 cd 12 b1
       2.463112e-09 -2.6359488e-09 -3.3337453e-09 -2.1362871e-09
000230 4c 02 96 26 1b 70 81 26 ca 45 92 a6 77 3f 97 25
       1.0408963e-15 8.981559e-16 -1.0149701e-15 2.623733e-16
000240 a1 3d 91 26 e0 04 5a 30 25 70 18 30 35 6e 56 b0
       1.0078101e-15 7.9314866e-10 5.5456645e-10 -7.800936e-10
000250 d4 51 15 b0 09 0a 41 30 dd 2f 64 b5 5b 93 f8 34
       -5.432217e-10 7.022725e-10 -8.500627e-07 4.6300815e-07
000260 85 3e 0c 35 cf 97 20 35 52 a0 4d b5 33 c2 d7 9b
       5.224504e-07 5.9825555e-07 -7.660175e-07 -3.5694265e-22
000270 e6 20 d8 9c 05 c5 ae 1c e1 26 1b 1d f2 43 0c 1d
       -1.4302185e-21 1.1565282e-21 2.053418e-21 1.8563973e-21
000280 a8 33 b0 b5 fb 12 ba 36 37 d4 be b6 17 af 3d 35
       -1.3128056e-06 5.5454416e-06 -5.6871463e-06 7.0662776e-07
000290 14 9a 03 36 8a af 5f b5 78 ff 92 b5 24 a7 8b b5
       1.9610206e-06 -8.3329417e-07 -1.0952199e-06 -1.0404951e-06
0002a0 8a c0 91 35 e7 bf 8f b5 b2 68 ea 33 54 6d ca 33
       1.0859378e-06 -1.0710181e-06 1.0915518e-07 9.426245e-08
0002b0 d9 9c e4 b3 6c a0 ee 32 86 ff e2 33 05 e9 27 34
       -1.0645608e-07 2.7779798e-08 1.05704245e-07 1.5637859e-07
0002c0 5c 15 f1 33 44 23 29 b4 da 30 bf 33 d8 84 28 34
       1.1226322e-07 -1.5752181e-07 8.9030166e-08 1.5694548e-07
0002d0 30 c1 8d 32 6f c4 82 32 7e 39 a7 b2 c7 75 7c 32
       1.6502412e-08 1.522332e-08 -1.9467503e-08 1.469511e-08
0002e0 fb 45 8d 32 e1 70 16 1b 68 85 2a 1b 9b 48 33 9b
       1.6446384e-08 1.2444182e-22 1.4105176e-22 -1.4829993e-22
0002f0 ee 61 19 1b 38 b3 1b 1b e2 f0 57 32 54 0f b2 32
       1.2687506e-22 1.2879208e-22 1.25694175e-08 2.0728898e-08
000300 b8 56 e4 b2 2d 04 81 32 0f 6a ef 32 d5 27 93 b5
       -2.6582128e-08 1.5019475e-08 2.7871492e-08 -1.0963946e-06
000310 eb ca 24 36 62 20 a1 b5 d0 6c ce b5 75 5b 85 b5
       2.4556018e-06 -1.2004859e-06 -1.5379865e-06 -9.93589e-07
000320 21 c2 0a 34 07 65 e0 33 01 30 f0 b3 62 5c f5 b3
       1.2922875e-07 1.04491896e-07 -1.1184603e-07 -1.1425506e-07
000330 a6 c2 a0 b3 c4 8a 23 2f 64 69 70 2f 8b e1 6a af
       -7.485987e-08 1.4874063e-10 2.1865315e-10 -2.1362305e-10
000340 b0 d3 64 af 04 6f 06 2f 29 9f b4 a7 eb 5e 90 26
       -2.0811686e-10 1.222667e-10 -5.01326e-15 1.0017735e-15
000350 61 dc a5 27 17 4e 9b 27 65 ae 3e 28 bc a5 06 2f
       4.6035635e-15 4.3105807e-15 1.05849345e-14 1.224611e-10
000360 73 19 de 2e e5 d1 0d af 61 dd e0 ae 18 5c c3 2e
       1.0099912e-10 -1.2898445e-10 -1.02256655e-10 8.8839325e-11
000370 cf 24 32 35 65 82 d0 33 58 bc 25 b5 71 a4 43 b3
       6.636373e-07 9.7094734e-08 -6.1741366e-07 -4.5551534e-08
000380 d2 da 32 35 2a 01 b5 20 64 05 b9 20 d7 0c c9 a0
       6.662859e-07 3.0663363e-19 3.1343786e-19 -3.405922e-19
000390 02 d8 9a 20 89 d3 cd 20 fa 77 ca b5 ca 10 38 36
       2.6231557e-19 3.4868333e-19 -1.5085091e-06 2.742791e-06
0003a0 c2 2a ce 35 66 72 0b 36 2e bd f6 b5 53 e8 d0 04
       1.536064e-06 2.0779203e-06 -1.8383487e-06 4.911392e-36
0003b0 81 d0 f3 04 24 f4 02 85 9b 7a d8 04 14 0b f2 04
       5.7320506e-36 -6.157412e-36 5.089395e-36 5.69041e-36
0003c0 c1 66 76 33 99 da 1a b3 42 5d 41 b3 ef a0 2b b3
       5.7369792e-08 -3.6054733e-08 -4.502113e-08 -3.996041e-08
0003d0 a7 31 35 33 95 dd 8c b2 bb 30 35 b3 5f 43 30 33
       4.2187505e-08 -1.6398909e-08 -4.2186667e-08 4.1039467e-08
0003e0 5f cc 84 33 e9 e2 83 33 43 e8 f0 b4 b8 a7 62 35
       6.183904e-08 6.1414376e-08 -4.4872476e-07 8.4435624e-07
0003f0 e6 16 a7 b5 68 c4 8b 35 7a 79 47 35 40 e7 ae 31
       -1.2449134e-06 1.0413469e-06 7.431005e-07 5.0903566e-09

sqr_avg f4 [2322, 5]
000000 00 00 00 00 00 00 00 00 00 00 00 00 00 00 00 00
       0.0 0.0 0.0 0.0
000010 00 00 00 00 df 02 53 2c 51 4d 30 2d d7 f1 84 2f
       0.0 2.9986497e-12 1.0021609e-11 2.4182498e-10
000020 6e 18 34 2d e7 78 87 2f 4f 4c 21 2f 13 5b 43 2f
       1.023724e-11 2.4642263e-10 1.4669975e-10 1.7767503e-10
000030 a0 63 ad 2f da ea 96 2f 13 8c a4 2f 39 9e a1 2d
       3.1539305e-10 2.7451713e-10 2.9930955e-10 1.8373846e-11
000040 d7 66 8a 2d 5b 3a 60 2d 0d ff 2c 2d 94 23 83 2d
       1.5734454e-11 1.2745883e-11 9.833701e-12 1.4908776e-11
000050 b6 32 1b 2e 77 70 11 2e 34 a4 2d 2e 6c 65 c4 2b
       3.528796e-11 3.3069072e-11 3.9481488e-11 1.3954788e-12
000060 6f 58 f3 2d 6a ed 9b 2d 2e 92 94 2e 6e cf 1b 2f
       2.7665174e-11 1.7726893e-11 6.7562275e-11 1.4170862e-10
000070 25 a2 1b 2f e6 5e 1c 2f e4 45 f1 2d 03 af e0 2d
       1.4154773e-10 1.4221832e-10 2.7429566e-11 2.5543572e-11
000080 5f de 9a 2d 5f 88 11 2e 4a 93 c6 2d 70 92 bc 29
       1.7606526e-11 3.3090305e-11 2.2575403e-11 8.37428e-14
000090 3a 50 8b 2a 22 2c 8d 29 81 04 f5 27 dd 68 da 2a
       2.4747028e-13 6.269314e-14 6.8006043e-15 3.8797343e-13
0000a0 1a 2d 2f 2d 09 7b ab 2e e6 d6 c1 2e 06 f7 87 2e
       9.957613e-12 7.798035e-11 8.8147975e-11 6.1829694e-11
0000b0 0b be b1 2e 15 af 0d 2f c7 e0 29 2f 2b 24 97 2e
       8.0827865e-11 1.2886077e-10 1.5450317e-10 6.87311e-11
0000c0 1f 43 22 2f 75 d5 23 30 6d 1c 6d 2d b5 2f 88 2d
       1.475766e-10 5.9602395e-10 1.3478202e-11 1.5482596e-11
0000d0 1a bf 9f 2d 23 98 bb 2d 1c 8a 9f 2d c9 4c df 2d
       1.8161073e-11 2.1327001e-11 1.813754e-11 2.5386264e-11
0000e0 a0 c8 e5 2d 5c fe 88 2d 6c fb 35 2d f7 1c 37 2e
       2.6123381e-11 1.5574368e-11 1.0344486e-11 4.163511e-11
0000f0 c2 44 b1 2e 0b fd ab 2e 4c a0 c6 2e 22 e7 06 2c
       8.061242e-11 7.821129e-11 9.032472e-11 1.917085e-12
000100 04 3e aa 2e e2 53 97 2e 0a ed 88 2e ee b2 a8 2d
       7.741721e-11 6.8815856e-11 6.2266706e-11 1.917885e-11
000110 33 07 f9 2e 3c 45 e5 2d e0 27 a7 2e 5d d7 e6 2e
       1.1324488e-10 2.6065032e-11 7.601364e-11 1.0497445e-10
000120 81 73 a6 2e ce c6 18 2f f5 aa 5f 2e 76 59 35 2f
       7.5693236e-11 1.3894949e-10 5.085617e-11 1.6493637e-10
000130 7e d5 3b 2f 32 64 39 2f 67 78 00 2f f5 1b 3f 2f
       1.7083399e-10 1.6861249e-10 1.1684308e-10 1.7381281e-10
000140 19 9e a7 2d fd fc d5 2c c5 3f 6f 2d c1 94 00 2e
       1.9055911e-11 6.0819115e-12 1.3599737e-11 2.923595e-11
000150 d7 d8 c3 2d 3b eb 83 2f 68 95 92 2f 50 43 9f 2f
       2.226523e-11 2.3995902e-10 2.6663405e-10 2.896976e-10
000160 18 1f 07 2e ed 13 93 2f 41 26 c6 2c 6c 92 a7 2c
       3.0723063e-11 2.6753302e-10 5.6317455e-12 4.7626816e-12
000170 a0 a3 8e 2c 19 68 09 2d 12 bc 14 2d 6e b6 07 30
       4.0540488e-12 7.810663e-12 8.454586e-12 4.937196e-10
000180 a9 c3 df 2f a4 8f 05 2f b3 45 df 2f 14 ee d6 2f
       4.0702489e-10 1.2147311e-10 4.0612988e-10 3.9095538e-10
000190 2f 86 ab 2e 75 44 16 2e 81 1d a1 2e 79 1a a9 2e
       7.8000155e-11 3.4166853e-11 7.326673e-11 7.689933e-11
0001a0 e0 a7 01 2f 23 ae 39 2d 37 99 76 2c 92 e2 86 2d
       1.1792123e-10 1.0554699e-11 3.5043754e-12 1.5334654e-11
0001b0 3d 59 4c 2d 31 84 90 2c 39 48 7a 2f cf d5 46 2f
       1.1615872e-11 4.1074024e-12 2.2763026e-10 1.8083955e-10
0001c0 4d f6 34 2f 3a cb 71 2f 0f ba d0 2e 37 23 59 2e
       1.6458408e-10 2.1991023e-10 9.4917955e-11 4.9371365e-11
0001d0 58 b5 f4 2d 4a 15 58 2e 0a e8 74 2e 52 9c 72 2e
       2.7820121e-11 4.9131622e-11 5.568527e-11 5.516327e-11
0001e0 46 dc cf 2d ee f5 64 2d 0e 97 3d 2c 1b 59 0c 2e
       2.3630996e-11 1.3014907e-11 2.6942368e-12 3.1911456e-11
0001f0 32 28 bd 2d 3c 9f f2 2f 46 31 79 30 e9 c2 90 30
       2.1504663e-11 4.4132686e-10 9.0655694e-10 1.0532776e-09
000200 6e 28 ad 2d 8d a6 80 30 13 2b 79 2e 8a af 81 2e
       1.9685777e-11 9.360562e-10 5.6654303e-11 5.897423e-11
000210 10 92 7e 2e a7 e3 3c 2e 03 c5 71 2e 9d fb df 2e
       5.7882643e-11 4.2948447e-11 5.4972037e-11 1.01855614e-10
000220 b0 76 c0 2e 53 6e a4 2e f0 ea fa 2e 3e ba c7 2e
       8.752232e-11 7.477454e-11 1.1410417e-10 9.0825555e-11
000230 c4 9e 31 2d 9b 69 0a 2d 4b 49 2f 2d 41 89 5a 2b
       1.0096538e-11 7.867841e-12 9.963873e-12 7.7639636e-13
000240 68 11 2c 2d 55 42 22 2e a2 a4 9e 2d 0b f6 1c 2e
       9.780933e-12 3.689345e-11 1.8035632e-11 3.5688823e-11
000250 8d 35 98 2d 48 6a fe 2d 40 48 ba 2f 8a 39 bc 2e
       1.730418e-11 2.8923655e-11 3.388454e-10 8.559471e-11
000260 f6 bb 18 2f 33 b9 1b 2f 6c fa 95 2f 4c 87 6f 2a
       1.3891097e-10 1.4162964e-10 2.7280878e-10 2.1274405e-13
000270 30 d6 70 2c 4d 80 1d 2c a9 f9 f7 2c f6 c5 ca 2c
       3.422495e-12 2.2382263e-12 7.04788e-12 5.7631634e-12
000280 84 b2 24 2f 1f 15 c7 2f 07 cf d1 2f c3 10 28 2f
       1.4979135e-10 3.6212897e-10 3.816398e-10 1.5285466e-10
000290 3c cc 67 2f 81 fc 9b 2e ba eb b9 2e 32 31 a2 2e
       2.1081886e-10 7.0934376e-11 8.4546994e-11 7.375646e-11
0002a0 06 5b e6 2e 06 f1 bd 2e 9d 63 24 2f 92 91 f8 2e
       1.0475358e-10 8.637539e-11 1.4951103e-10 1.1303593e-10
0002b0 2c c1 1d 2f d1 0e 47 2d c4 77 1c 2f f6 8a 97 2c
       1.4347695e-10 1.131513e-11 1.4230667e-10 4.307106e-12
0002c0 0e 33 1c 2c 55 c4 99 2c 9f 79 c4 2b d4 a4 98 2c
       2.2197274e-12 4.3703188e-12 1.3960394e-12 4.3383994e-12
0002d0 72 23 35 2e 9e 62 01 2e bb f2 4d 2e bf 59 25 2e
       4.1186117e-11 2.9418794e-11 4.682719e-11 3.7596367e-11
0002e0 c7 4a 4b 2e 65 16 b4 2a 6e 65 e7 2a 8d c7 ff 2a
       4.6223272e-11 3.1989962e-13 4.1104224e-13 4.5435566e-13
0002f0 6b 25 bb 2a 80 ee c0 2a bb 4a 95 2b 6b 74 14 2c
       3.3243837e-13 3.4271544e-13 1.0607829e-12 2.109669e-12
000300 0d f3 79 2c 3d 1e cc 2b 59 10 89 2c ba 44 d5 2e
       3.5519949e-12 1.4503465e-12 3.895589e-12 9.698327e-11
000310 9d bc 05 30 a0 99 ff 2e c2 d0 51 2f b9 24 af 2e
       4.8653154e-10 1.1623347e-10 1.9082605e-10 7.964602e-11
000320 77 1f ba 2f 67 5a 73 2f 26 69 8b 2f 75 7b 91 2f
       3.385556e-10 2.2132839e-10 2.5358665e-10 2.6463068e-10
000330 e9 c3 f9 2e 99 5e 11 2d 5f 24 96 2d e8 e1 53 2d
       1.135801e-10 8.263301e-12 1.7069178e-11 1.2044123e-11
000340 74 91 4e 2d 95 c5 e8 2c 29 ea 19 2b 47 aa c4 28
       1.1742041e-11 6.6157726e-12 5.468148e-13 2.1834217e-14
000350 24 c9 01 2b 5d 95 e3 2a 43 89 2b 2c 6b 15 e0 2e
       4.6109145e-13 4.0426942e-13 2.4376757e-12 1.0190145e-10
000360 f1 6a 98 2e 7c 98 f8 2e b2 3b 9c 2e 06 d8 6b 2e
       6.931156e-11 1.1304821e-10 7.104663e-11 5.362468e-11
000370 ea 13 75 2d 96 54 fb 2c 38 b4 6e 2d 1b ce 6b 2c
       1.3931059e-11 7.14324e-12 1.356875e-11 3.350992e-12
000380 3f 2e 6e 2d 67 49 e9 2b 72 c2 f3 2b 28 ea 0f 2c
       1.3539002e-11 1.6576019e-12 1.7320158e-12 2.0451505e-12
000390 31 b9 aa 2b a9 d5 16 2c 75 28 c8 2e f2 78 a5 2f
       1.2130627e-12 2.1434887e-12 9.1021336e-11 3.0099262e-10
0003a0 f7 89 cf 2e af eb 3d 2f 91 a4 14 2f 4f 4d da 28
       9.4377776e-11 1.7273181e-10 1.3518987e-10 2.423639e-14
0003b0 f6 dc 14 29 8a ed 2b 29 21 5b ea 28 10 b1 12 29
       3.3054255e-14 3.817566e-14 2.601874e-14 3.257209e-14
0003c0 ba f4 55 2e 08 6a af 2d 39 82 03 2e b8 d4 d4 2d
       4.8647954e-11 1.9942284e-11 2.9901612e-11 2.4196076e-11
0003d0 06 70 f7 2d 6a e9 0b 2d d4 7a 67 2e a9 0f 5b 2e
       2.8130397e-11 7.9530636e-12 5.2632412e-11 4.9808744e-11
0003e0 4e af f8 2e e2 47 f5 2e 8a 07 3a 2d e6 e7 d2 2d
       1.1308875e-10 1.1154079e-10 1.057455e-11 2.397722e-11
0003f0 67 e8 37 2e a1 a8 10 2e fa 24 c1 2d af 1f fb 2d
       4.1815797e-11 3.2891582e-11 2.195798e-11 2.8549467e-11

grad_avg f4 [11231, 5]
000000 00 00 00 00 00 00 00 00 00 00 00 00 00 00 00 00
       0.0 0.0 0.0 0.0
000010 00 00 00 00 ef c9 b9 31 c1 82 37 32 c6 8b 42 32
       0.0 5.407166e-09 1.0681732e-08 1.1324067e-08
000020 33 8f 92 b1 70 20 e0 31 83 2f b9 ac ec 3c 0b 2d
       -4.265439e-09 6.5229457e-09 -5.263291e-12 7.914763e-12
000030 e9 86 8e 2c f0 5a d1 2c 15 af 21 ac 02 c1 ab 18
       4.0508608e-12 5.9502334e-12 -2.2976666e-12 4.4397352e-24
000040 23 a5 7f 98 cf cc 99 98 e5 36 bb 18 29 d6 bf 18
       -3.304135e-24 -3.9756377e-24 4.8393796e-24 4.958859e-24
000050 fd 83 6a 31 d6 5f 2e b1 c2 1c 52 b1 77 3d 7f 31
       3.4126508e-09 -2.537481e-09 -3.057537e-09 3.7142323e-09
000060 2b df 82 31 e6 77 61 20 94 d0 5d 20 37 c9 5a a0
       3.808869e-09 1.9097912e-19 1.8788441e-19 -1.8531895e-19
000070 b8 4d 32 a0 72 33 74 20 68 fe 41 35 8d 04 71 b5
       -1.5102901e-19 2.0684626e-19 7.226831e-07 -8.978612e-07
000080 9f 6c 68 b5 55 47 51 35 b9 20 73 b5 13 20 0c 0d
       -8.65848e-07 7.796237e-07 -9.057217e-07 4.317944e-31
000090 45 0f c4 8c dd eb 0d 0d 27 0d 19 0d 66 35 e6 8c
       -3.0207772e-31 4.373289e-31 4.7162597e-31 -3.546925e-31
0000a0 cd 5b fa a7 69 54 3c 28 5e a6 c0 27 1a 97 0d 28
       -6.948847e-15 1.04544e-14 5.347108e-15 7.859837e-15
0000b0 18 95 5a a7 d1 00 00 00 ce 00 00 00 f8 00 00 80
       -3.0334401e-15 2.93e-43 2.89e-43 -3.48e-43
0000c0 e2 00 00 00 ab 00 00 00 17 c1 df 2d 05 c2 dd 2d
       3.17e-43 2.4e-43 2.5437914e-11 2.5210953e-11
0000d0 6b 2a 7d ad 7f 25 ad 2d 20 ad cb 2d a2 36 7a b5
       -1.4390804e-11 1.9684475e-11 2.3155311e-11 -9.321176e-07
0000e0 ae d1 5d b5 42 7a 94 35 df fc fd b5 de 73 79 b6
       -8.263404e-07 1.1062441e-06 -1.8923564e-06 -3.7171335e-06
0000f0 59 ad b4 a9 22 d0 b3 29 82 18 cc a9 23 c4 c4 29
       -8.023677e-14 7.985302e-14 -9.063671e-14 8.738173e-14
000100 ff 29 b9 29 84 12 a8 a6 e1 44 a7 26 58 df bd a6
       8.2229355e-14 -1.166236e-15 1.1606622e-15 -1.3175047e-15
000110 cc 0b b7 26 70 41 ac 26 0a c4 57 ad dd bb 56 2d
       1.2701373e-15 1.1952634e-15 -1.22648645e-11 1.2206206e-11
000120 a6 b7 73 ad 69 f8 6a 2d 03 1e 5d 2d 80 70 ff a3
       -1.3853729e-11 1.3356518e-11 1.25690595e-11 -2.7694801e-17
000130 ea 3f fe 23 a9 4a 10 a4 d0 19 0b 24 67 e6 02 24
       2.7565804e-17 -3.1288262e-17 3.0162684e-17 2.8384415e-17
000140 a6 26 db a1 24 18 da 21 de 91 f7 a1 be a9 ee 21
       -1.4850247e-18 1.4778645e-18 -1.6775982e-18 1.6172438e-18
000150 fe 95 e0 21 68 d2 84 b6 e8 2f 84 36 12 06 96 b6
       1.5218533e-18 -3.958401e-06 3.9394836e-06 -4.471055e-06
000160 f6 a3 90 36 27 1d 88 36 1f 34 12 b4 3b 81 11 34
       4.310622e-06 4.0565096e-06 -1.3616271e-07 1.3551191e-07
000170 73 23 25 b4 7e 36 1f 34 cb d3 15 34 92 05 1d b5
       -1.5379719e-07 1.4827853e-07 1.3953756e-07 -5.8495164e-07
000180 54 28 2b b5 cc 12 05 b5 4a 77 0a 35 1c 3c 25 35
       -6.376115e-07 -4.9573714e-07 5.1582595e-07 6.155476e-07
000190 65 9d 17 b1 9d e3 16 31 27 40 2b b1 09 1b 25 31
       -2.206286e-09 2.1957256e-09 -2.4920241e-09 2.4026028e-09
0001a0 56 5f 1b 31 fa 56 82 ab 57 b7 81 2b 48 3a 93 ab
       2.260966e-09 -9.261196e-13 9.216888e-13 -1.0461155e-12
0001b0 5d f1 8d 2b af 92 85 2b c7 df 30 98 18 e6 2f 18
       1.0085644e-12 9.490931e-13 -2.2860446e-24 2.2734388e-24
0001c0 a3 c9 47 98 74 af 40 18 2a 36 35 18 9c 9e 79 ae
       -2.5821948e-24 2.4904e-24 2.3421048e-24 -5.675692e-11
0001d0 ce 6c 78 2e 0c fa 8c ae d6 ea 87 2e f7 ce 7f 2e
       5.648531e-11 -6.41088e-11 6.1808045e-11 5.816411e-11
0001e0 ea cc 69 a5 ef af 68 25 f4 10 84 a5 24 a2 7e 25
       -2.0278956e-16 2.0182401e-16 -2.2909838e-16 2.2085924e-16
0001f0 fa 9f 6f 25 70 cd 80 b6 db 2f 80 36 d7 7b 91 b6
       2.0784148e-16 -3.8386133e-06 3.8202684e-06 -4.3357536e-06
000200 6e 43 8c 36 af fe 83 36 00 bb b1 a9 e8 72 dd a9
       4.180175e-06 3.9337533e-06 -7.8928183e-14 -9.8343046e-14
000210 b9 84 0d 2a 88 4b c7 a9 0a 20 cb 29 7b 57 a4 b3
       1.2569363e-13 -8.850478e-14 9.020569e-14 -7.652758e-08
000220 4c e8 ec 33 02 d7 0a b4 2e c5 f6 33 d2 16 0e b4
       1.1031861e-07 -1.2930471e-07 1.14911344e-07 -1.3233083e-07
000230 b0 5f 88 a8 49 9a bd 28 eb e7 c4 a8 59 bc 6e a8
       -1.5140531e-14 2.1050126e-14 -2.186095e-14 -1.3252495e-14
000240 c8 6d b8 a7 f0 39 9e 34 e5 6c ab b4 25 1a 21 34
       -5.1189284e-15 2.9471948e-07 -3.1930463e-07 1.5003805e-07
000250 a0 dc aa 34 2e 05 af b4 ae 67 83 14 fe 84 8e 94
       3.1825493e-07 -3.260006e-07 1.3268514e-26 -1.4390792e-26
000260 92 b8 04 14 81 0d 8e 14 4b 8e 91 94 ed 48 59 b0
       6.700697e-27 1.4343662e-26 -1.4697383e-26 -7.9047774e-10
000270 96 06 a7 af c0 60 3f b0 a2 85 3a b0 b7 24 2b 30
       -3.0381803e-10 -6.9622885e-10 -6.785631e-10 6.226161e-10
000280 d4 a6 fa 35 42 8b 11 36 c3 06 06 b6 c5 ad 0a b6
       1.8675005e-06 2.1687742e-06 -1.9971492e-06 -2.066475e-06
000290 da a7 d0 b5 95 7f aa b5 e4 03 bf b5 f5 83 9b b5
       -1.5546059e-06 -1.2703118e-06 -1.4231741e-06 -1.1586804e-06
0002a0 cb cc c9 35 3e b1 8b 35 96 d9 24 95 56 24 39 95
       1.503527e-06 1.0407891e-06 -3.329118e-26 -3.7389116e-26
0002b0 5c 08 16 95 81 e1 43 15 a3 5e 06 15 2f d2 6e 9f
       -3.0298853e-26 3.9557828e-26 2.713574e-26 -5.057232e-20
0002c0 1d d7 85 9f 88 bd 59 9f e8 6c 8d 1f 31 81 43 1f
       -5.6683566e-20 -4.6108314e-20 5.989599e-20 4.139972e-20
0002d0 e5 79 2e 99 b8 a8 43 99 fd 01 1f 99 de df 4e 19
       -9.0202056e-24 -1.0115336e-23 -8.220509e-24 1.069516e-23
0002e0 47 9a 0e 19 5e 25 00 80 1a 37 00 00 b7 38 00 00
       7.372384e-24 -1.3405e-41 1.9767e-41 2.0345e-41
0002f0 ff 2e 00 80 5b 2c 00 80 99 9c f3 b2 9d f6 38 33
       -1.6859e-41 -1.5912e-41 -2.8360136e-08 4.3065132e-08
000300 fc 81 3c 33 50 dc 18 b3 eb 09 10 b3 57 af a7 31
       4.389038e-08 -3.559063e-08 -3.3536633e-08 4.8802735e-09
000310 62 61 b0 b1 5e 18 ac 31 64 30 c3 b1 89 0f 5e b1
       -5.1333453e-09 5.008629e-09 -5.6807483e-09 -3.2314083e-09
000320 e9 d3 e7 a9 3a f1 2f 2a 97 55 33 2a 92 7a 11 aa
       -1.0295221e-13 1.5626815e-13 1.5928089e-13 -1.2921112e-13
000330 43 15 09 aa 57 67 a0 ad e1 a2 9f 2d 9d 2e b5 ad
       -1.2175421e-13 -1.8235786e-11 1.814854e-11 -2.0598018e-11
000340 fd ad ae 2d 9b 61 a4 2d d2 d0 2a b2 79 ff 29 32
       1.9858776e-11 1.8687987e-11 -9.942783e-09 9.8951825e-09
000350 e5 ef 40 b2 99 03 3a 32 70 0c 2f 32 59 a6 85 b1
       -1.1230417e-08 1.0827443e-08 1.0189169e-08 -3.889721e-09
000360 94 02 85 31 53 f5 96 b1 a4 8a 91 31 39 f6 88 31
       3.8711025e-09 -4.3934647e-09 4.235817e-09 3.986113e-09
000370 2c 7a 6f b6 2c 55 6e 36 fa 3e 87 b6 9e 64 82 36
       -3.5684889e-06 3.551434e-06 -4.030645e-06 3.8860153e-06
000380 a5 69 75 36 04 00 00 80 04 00 00 00 04 00 00 80
       3.6569338e-06 -6e-45 6e-45 -6e-45
000390 04 00 00 00 04 00 00 00 23 30 97 29 83 7a cc 27
       6e-45 6e-45 6.7140975e-14 5.67542e-15
0003a0 c7 26 9b 28 8f 9d 1f 29 ff fa 88 a9 e4 58 d3 b1
       1.7225274e-14 3.5441752e-14 -6.083154e-14 -6.151014e-09
0003b0 8d e6 60 34 84 9f cd b4 7d 05 e1 33 76 bf 93 34
       2.09455e-07 -3.8300288e-07 1.0478377e-07 2.752019e-07
0003c0 fc 41 29 b0 84 b0 af 30 b0 fa 5e 30 8a e4 7e b0
       -6.157561e-10 1.2783095e-09 8.111938e-10 -9.2729435e-10
0003d0 a7 ba be 30 76 67 77 1d 45 df 37 9d e6 96 5d 9d
       1.3877369e-09 3.2743666e-21 -2.4335276e-21 -2.932712e-21
0003e0 86 bb 86 1d 4f 21 8a 1d 74 6a 60 31 20 fb 13 b1
       3.56634e-21 3.6562736e-21 3.2656802e-09 -2.1534063e-09
0003f0 9d 9a 66 b1 05 ee 39 31 9f 76 65 31 34 2e 28 37
       -3.3557293e-09 2.7056342e-09 3.3391314e-09 1.0024338e-05
