src/models/saved_models/user_collab_filtering_v1.pth (torch, 981378 bytes, 12 tensors)

u_weight.weight f4 [2298, 5]
00000000: ddfa 7a3c 8365 cdba 0ff1 bd3b ea65 dc3b
00000010: ec4a eebb c9a9 c33e 80d8 b5be b9df a73e
00000020: 4b7d c93e 4b7e bdbe 8ec5 17bf 4ca4 10bf
00000030: b869 103f b3f3 193f 7cab 26bf 3f1e 563f
00000040: 0c1a 19bf 2e5e 24bf 8d5f 01bf 3e21 3e3f
00000050: dbe8 f6be 1316 20bf 449e c7bd cc70 133f
00000060: e118 33bf 2408 57be 7d8c 30be a1d0 8f3e
00000070: e39e 213f 7a74 ebbe 60d6 bebf cd32 c6bf
00000080: d152 933f 3a00 bbbf 9110 65bf 3ca1 1dbe
00000090: 4195 28be cd34 16be 09e7 cebd 0c40 13be
000000a0: 3c35 04be c888 033e b2f4 3ebe a32b 1ebd
000000b0: c5b3 ad3c af7f d63d ad8f acbe 63c8 db3e
000000c0: 160a a9be b6c3 6e3e 5316 8dbf e2a5 c8bb
000000d0: 1ffb 493b 7147 0b40 4309 64bf 15e6 633d
000000e0: 9f37 71be dd69 f9bd bcec b43e d20c bebe
000000f0: 6e3d 10bf 2f5f 3ebf 2ac3 f2be b77d 453f
00000100: 747d 62bf 2598 883e f05f 713e efa0 713e
00000110: 6132 823e e914 89be e2ee 9f3f 1dd5 2a3f
00000120: cac1 933f c560 90bf 3884 98bf 8d7f 0e3e
00000130: f890 40be 4f7e 433e 698a 0bbe 8a85 013e
00000140: e4c3 183e 194b f9bd 8781 76be fdbf 74be
00000150: 35f0 b3bd c469 b5bf ebf6 82bf 39ac 513e
00000160: 6792 583f 9fd3 9dbf 5432 fe3e 42d0 fe3e
00000170: e72b b0be a62d f43e b8d4 f4be cb50 f13e
00000180: 7680 0dbe c331 e23e f059 fe3e 59cc f9be
00000190: f2c9 3bbe d168 61be 37f8 89be 8506 2e3e
000001a0: e2e0 493e 9ea1 d23e 54f9 8d3e 0d4c b73e
000001b0: 51b8 ca3e 0ce8 593e ab0c c7be a5b4 e63e
000001c0: f46b b23e dc1a 473e fbfa d7be 3735 4dbe
000001d0: 60ab 98be 053c 683d ff27 14bc dd4f 16be
000001e0: d4ff b3be c399 c9be 501a 83be 298b b93e
000001f0: 41dd ddbe 7c2f 63bf d42c 833f ca06 3ebf
00000200: b571 823f 415b 813f 5b37 43bf a2b5 2abf
00000210: 2aae 243f 9a56 403f ce4f 28bf f033 a8be
00000220: d1f6 a3be 0625 8c3e b0a3 b33e 6431 abbe
00000230: 3498 72be 46e7 5dbe e4b6 32be a72a 793e
00000240: aed0 61be 8893 aa3e 945b 983e 5431 8f3e
00000250: 99a1 633e 027d cd3d 8997 5d3e 87f8 6a3e
00000260: 5b96 6fbe fd5e 743e dd73 513e f86b f9be
00000270: af2b 91bf b7c9 4ebf 7eba 5b3f 076c 863f
00000280: 8936 4fbf cc67 59bf 1e17 603f 3a25 4dbf
00000290: ff03 533f 2f36 5ebe 64d0 b5be 1852 213f
000002a0: 7b09 3a3f bd66 cbbe aae4 a5be a745 a5be
000002b0: c22f aa3e 56eb ad3e a8f8 a4be 3d1c 0cbf
000002c0: ad0d 0bbf c9b5 573e 123d 0c3f d9e6 11bf
000002d0: 73b6 91be f4c2 c5be f4be 62be 4e3a d43e
000002e0: b682 bfbe b6fc 3cbf cce4 9bbf e81b 5e3f
000002f0: 64ea 933f e1a9 9cbf 4093 08bf 6c29 f8be
00000300: 38d6 edbe 4aa6 f63e e606 843e 60da a43e
00000310: 4888 c2be 4404 c63e d370 423e 20f1 53be
00000320: 9487 8bbf 98c4 8abf 8a4b 253e 119e 923f
00000330: 18be 9abe 54b4 0cbe d6e7 1fbe 0279 f83d
00000340: d965 193e 2faf f3bd 9971 9abf 42c5 8ebf
00000350: 1d70 81be 830f a23f c6d8 a0bf e4fa c3bd
00000360: ea78 2fbe f6ea 1d3e daae 183e 8c69 3cbe
00000370: 1050 c03e b96d ac3e 54b9 afbe c0d7 433e
00000380: 248a 93be db62 cebe 3e5d d7be bba0 c23e
00000390: 3f88 e73e 4f91 d4be 4797 0abf d558 973e
000003a0: c863 afbe 6ebd 123f 6ba3 f63e 5368 b23d
000003b0: 54b1 eb3e 047a adbe 3115 f33e f281 b53e
000003c0: 4325 3cbf 9fa0 3fbf 19f0 543f 91bc 493f
000003d0: f39c 0bbf 5464 02bf 17a6 6f3d 0015 3ebf
000003e0: f6fb 383f 3324 1cbf c770 01bf 4c3a 07bf
000003f0: b803 0e3f ac17 183f af9e 17bf 5dd8 b1bd
0.0153185995 -0.0015670512 0.0057965587 0.0067260163 -0.007272115 0.38215473 -0.3551674 0.32787874
0.39353403 -0.37010416 -0.5928582 -0.565007 0.56411314 0.6013748 -0.65105414 0.836399
-0.5980537 -0.64206207 -0.50536424 0.74269474 -0.4822453 -0.6253368 -0.09746984 0.5759399
-0.6995984 -0.20999199 -0.17241092 0.2808886 0.63133067 -0.45987302 -1.4909172 -1.5484253
1.1509649 -1.4609444 -0.89478403 -0.15393537 -0.16463186 -0.1466858 -0.1010266 -0.143799
-0.12910932 0.12845147 -0.18648031 -0.038615834 0.021203885 0.104735725 -0.33703366 0.4292632
-0.33015507 0.23316845 -1.1022438 -0.0061232904 0.0030819846 2.1762354 -0.8907663 0.055639345
-0.23556374 -0.12178395 0.35336864 -0.37119156 -0.56343734 -0.7436399 -0.47414523 0.7714495
-0.88472676 0.26678577 0.23571754 0.23596548 0.2542906 -0.26773766 1.2494776 0.66731435
1.1543515 -1.1279532 -1.191535 0.13915844 -0.18805301 0.19091152 -0.13627018 0.12648597
0.14918476 -0.12172527 -0.24072848 -0.23901363 -0.0878605 -1.4172902 -1.0231603 0.20475854
0.8459839 -1.2330207 0.49647772 0.49768263 -0.34408495 0.47691077 -0.47818542 0.47131953
-0.13818535 0.4417859 0.49677992 -0.48788717 -0.18338755 -0.2201264 -0.26947185 0.16994675
0.19714692 0.4113893 0.27729285 0.3580021 0.39593747 0.21279925 -0.38876852 0.45059696
0.34847987 0.1944384 -0.4218367 -0.20039831 -0.2981825 0.056697864 -0.009042739 -0.14678903
-0.3515612 -0.39375123 -0.25606012 0.36238983 -0.43332866 -0.8874433 1.0248055 -0.7422911
1.0190951 1.0105973 -0.7625634 -0.666834 0.64328253 0.75132143 -0.6574677 -0.32852125
-0.32024243 0.27371997 0.3508582 -0.3343612 -0.23690873 -0.21670255 -0.1745258 0.24332677
-0.22052261 0.33315682 0.2975737 0.27967322 0.22229613 0.10033609 0.21639837 0.22946368
-0.233972 0.2386436 0.20454355 -0.48715186 -1.1341456 -0.8077654 0.8583144 1.0501717
-0.8094259 -0.84924006 0.87535274 -0.8013493 0.8242797 -0.21700357 -0.35510552 0.6301589
0.72670716 -0.3972682 -0.3240102 -0.32279703 0.3323956 0.3396861 -0.3222096 -0.5473059
-0.5431774 0.2106544 0.54780686 -0.5699287 -0.2845951 -0.386253 -0.22143155 0.41450733
-0.37404412 -0.73823106 -1.2179198 0.8676133 1.1555905 -1.2239343 -0.53349686 -0.48469102
-0.46452498 0.48173743 0.25786513 0.32197857 -0.379946 0.3867513 0.18988352 -0.2069745
-1.090075 -1.0841246 0.16142097 1.1454488 -0.30223155 -0.13740665 -0.15615782 0.121324554
0.14980258 -0.11898648 -1.2065917 -1.1153948 -0.25280848 1.2660984 -1.2566154 -0.09569338
-0.17135969 0.15421662 0.1491045 -0.18399638 0.37561083 0.33677462 -0.34321082 0.19125271
-0.2881633 -0.40309796 -0.42063326 0.38013253 0.45221135 -0.41517112 -0.5413708 0.2955996
-0.34255815 0.57320297 0.48171553 0.087113045 0.46033728 -0.33882153 0.47477105 0.35450703
-0.73494357 -0.74854463 0.8317886 0.78803355 -0.5453636 -0.5093434 0.058508005 -0.74250793
0.7225946 -0.60992736 -0.5056271 -0.5282333 0.55474424 0.5941112 -0.59226507 -0.08683846

i_weight.weight f4 [11268, 5]
00000000: 885b 443c 89b7 7b3c b566 1c3c 4821 06bc
00000010: 1b57 f2b9 42a0 49be 98a6 8cbe 41a9 94be
00000020: 55a4 89be 851b 9a3e 643e 74be efd3 62be
00000030: 6b65 72be 1628 653e 8c47 86be 9b9a 7fbe
00000040: 2fa4 56be b031 86be 0f88 593e 304e 8fbe
00000050: 9ce1 5b3e 2193 37be d671 30be 0f4e f3bc
00000060: 9275 a93d c3da 683e 7765 5ebe b653 47be
00000070: 6ca7 10bc 4b90 e93d e824 0abe aa1d 52be
00000080: a7f6 543e 76b8 413e 42e9 6abe c0fc 5dbe
00000090: 2a67 5abe 5939 643e eb3c 56be e8ea ad3d
000000a0: d98d 443e f1f8 3cbe 9f65 38be 8667 413e
000000b0: a1a4 26be 01da e1bd 6d49 e7bd 7176 e73d
000000c0: 4631 e93d a3bc fbbd 13a6 c53d 82fb a6be
000000d0: a080 a4be 7b81 953e 6a8d 943e 5003 1ebe
000000e0: 71f2 213e 60fa 27be e074 2ebe 2a9a db3d
000000f0: 3e58 b5be ea44 b53e e408 b7be d243 a5be
00000100: 3d80 2e3e 7e1f 80be fa50 783e 6310 6fbe
00000110: 1cff 53be 8f57 e23d c919 7bbe 4847 703e
00000120: 6813 72be e980 5dbe efff e73d 75be b5be
00000130: 1e0e ae3e 83a8 a8be 1015 9ebe 8fb2 2c3e
00000140: fb17 1c3e b168 7e3e b2ff 5b3e f710 78be
00000150: 8340 35be 5a10 a7be ae01 9f3e 3962 9abe
00000160: 9b4c 96be 93db 233e e67a 80be 42d5 733e
00000170: 898b 82be 655e 69be 9696 e13d ab3d eebd
00000180: f8df fb3d 1a1b f6bd 6586 e9bd 219e 613d
00000190: c847 92be 758e 8f3e c210 96be df05 8fbe
000001a0: 3748 1f3e 4ac7 bdbd 68a7 1a3e bdeb 163e
000001b0: 99b7 28be 9eba 153e ea32 193e 37cc 0d3e
000001c0: ee77 0fbe 0675 1a3e 346e 04be 9513 8a3e
000001d0: 2c2b 8d3e d138 85be e58e 8e3e 788c 80be
000001e0: 63c2 1a3e 0a37 233e c2d4 d8bd 88f6 9ebd
000001f0: 8362 5c3e 4185 ebbd 1082 10be 6ae2 39be
00000200: 2085 383e c316 83bd 0598 83be 3aa8 71be
00000210: 5215 5dbe 966a 15be 2ea4 903e 22f7 90be
00000220: 0e49 86be e5cc 81be 59d9 44be 59c9 953e
00000230: dabd 61be 8d08 54be 78ea 48be a1e8 17be
00000240: 388e 6e3e f173 9cbe 4f8b 87be f471 8cbe
00000250: 8a8a 2ebe 383e 913e d39e 2d3e 5ab8 393e
00000260: a226 3d3e 8a5e 34be 96f8 3bbe b5c7 4d3e
00000270: ce99 3f3e e3e4 443e 6ae3 3bbe 48bb 41be
00000280: 234c 153e bf82 123e 9bde 223e a39d 08be
00000290: 64c3 18be efe7 47be fd0c 3a3e 3a2a 46be
000002a0: 1c51 30be ed77 a83d 2704 3bbe e909 2e3e
000002b0: cbbe 35be 4ee0 2fbe baa3 c33d 4726 6fbe
000002c0: 122c 5c3e 863f 67be f2dc 54be 90ff f63d
000002d0: 679b 6dbe c771 5d3e 6032 62be 06aa 53be
000002e0: 843b 023e 8cfd 77be 2dfc 6f3e a851 68be
000002f0: b3d1 5ebe a20d 0c3e bc99 9e3c 225f 73bd
00000300: ba5d ebbd 92f4 adbd 5f6a 283d 6271 d13d
00000310: 0727 06be bd88 e43d fb06 e8bd 1c58 0f3d
00000320: e0df 02bf 0d9e 05bf 1ae2 103f 6c52 27be
00000330: 7ae3 06bf 84bf 113e caeb 15be bc2b 1dbe
00000340: fd69 02be def3 c63d 9379 f6bd 9bfb 09be
00000350: 0c8a d4bd 98db c7bd 807d d8bd 14ab 9e3d
00000360: e973 9e3d 10d0 bcbd 9017 4dbd 8b46 b23d
00000370: 9d84 2dbe 2588 26be 3b7c e43d 4197 303e
00000380: ecdc 20be c6dc 8cbe 6bf8 873e a3bf 973e
00000390: cbbe 91be 47b8 8e3e 258d 133e c556 26be
000003a0: 8a97 223e b457 22be 18a5 36be e589 87be
000003b0: 3c0e 92be cdc6 8f3e bb9e 813e 4dec 5bbe
000003c0: 0962 f2be 7ccc 07bf 3acb 043f 49ee f83e
000003d0: 5196 b0be 81c0 65be 7c32 5abe 5b56 7cbe
000003e0: 22d1 5d3e 8d06 83be b90f 88be ff1e 6cbe
000003f0: 88e3 7ebe d676 8e3e 4cf2 8a3e 65b1 01be
0.011984713 0.015363582 0.009545972 -0.008186646 -0.00046222736 -0.1969004 -0.2747085 -0.2903538
-0.26883188 0.3009912 -0.23851925 -0.22151159 -0.236715 0.22378573 -0.2622646 -0.24961321
-0.20961069 -0.26209784 0.21243308 -0.2798934 0.21472782 -0.17927219 -0.17230925 -0.029700307
0.08274378 0.22739701 -0.21718393 -0.19465527 -0.008828979 0.11404475 -0.13490641 -0.20519128
0.20797215 0.18918023 -0.22940543 -0.21678448 -0.21328416 0.22287501 -0.20921676 0.084920704
0.19194736 -0.18454339 -0.18007515 0.18887147 -0.16273738 -0.11027909 -0.11293302 0.11301888
0.11386351 -0.12291839 0.09650817 -0.3261376 -0.32129383 0.29200348 0.2901414 -0.15430951
0.1581514 -0.16404104 -0.17036772 0.10722764 -0.35418886 0.3540414 -0.3574897 -0.32278305
0.17041107 -0.25024027 0.2424964 -0.23346095 -0.20702785 0.11051857 -0.24521555 0.23464692
-0.23640215 -0.21631207 0.11328112 -0.3549687 0.33995146 -0.32941064 -0.30875444 0.1686499
0.15243523 0.24844624 0.21484259 -0.24225222 -0.1770039 -0.32629663 0.3105597 -0.30153063
-0.2935532 0.1600173 -0.25093764 0.2381182 -0.25497082 -0.22789915 0.1101505 -0.11632856
0.12298578 -0.12016888 -0.11402587 0.055082444 -0.2857039 0.28038374 -0.2930966 -0.27934167
0.15554892 -0.09266527 0.15102923 0.14738365 -0.16476287 0.1462197 0.14960828 0.13847433
-0.14010593 0.15083703 -0.12932664 0.26968065 0.27572 -0.2601991 0.27843395 -0.2510717
0.15113215 0.15938964 -0.10587455 -0.07761866 0.21521954 -0.115000255 -0.14112115 -0.18152776
0.18019533 -0.06400826 -0.2570192 -0.2359933 -0.21590164 -0.1459144 0.2825026 -0.28313547
-0.2622761 -0.25351635 -0.19223537 0.2925518 -0.22045079 -0.20706387 -0.19620693 -0.14834835
0.2329644 -0.30557206 -0.26473472 -0.2743069 -0.17045036 0.28367782 0.16955118 0.18136731
0.18471768 -0.17614189 -0.18356547 0.20095713 0.18711016 0.19227938 -0.1834847 -0.18919098
0.14579825 0.14307688 0.1590523 -0.13341384 -0.14918286 -0.1952207 0.18169017 -0.19352046
-0.17218441 0.08225999 -0.18263303 0.16995968 -0.17748563 -0.17175409 0.09552713 -0.23354445
0.21501186 -0.22582826 -0.20787409 0.120604634 -0.23203813 0.21625434 -0.22089529 -0.20670328
0.12718016 -0.24217814 0.23436041 -0.226874 -0.21759681 0.13677076 0.019360416 -0.059416898
-0.11492486 -0.08493914 0.04111707 0.10226704 -0.13100825 0.11158893 -0.113294564 0.034996137
-0.51122856 -0.5219429 0.56595004 -0.16340035 -0.5269085 0.14233214 -0.14640728 -0.15348715
-0.12735744 0.09714483 -0.12034907 -0.13474886 -0.10377893 -0.09758681 -0.10570812 0.07747474
0.07736952 -0.09219372 -0.0500713 0.08704861 -0.16945119 -0.16262873 0.111565076 0.17245199
-0.15709275 -0.27512187 0.26556715 0.29638395 -0.28465876 0.27874967 0.14409311 -0.16244037
0.1587812 -0.15853769 -0.17836416 -0.26472393 -0.28526485 0.2808136 0.25316414 -0.2147686
-0.4734042 -0.53046393 0.518726 0.48619297 -0.34489682 -0.22436716 -0.21308321 -0.24642317
0.21661809 -0.25590935 -0.26574495 -0.23058699 -0.24891484 0.2782504 0.27137983 -0.12665327

u_bias.weight f4 [2298, 1]
00000000: b3dc 94bb 6f1f f73e 4cfc 4c3f e140 873f
00000010: 411d 453f c04c 623f 95d6 2040 9872 da3e
00000020: 9843 bb3e 7aed 353f 13f8 2340 c64f 3c3f
00000030: c060 9c3f ff2d e13e 43ea fb3f 4eba 033f
00000040: dd20 f03e 59fd f13f ea54 2a3f c40d 703f
00000050: de11 e33e 9989 353f 1723 293f 990b 223f
00000060: e289 163f bbe9 b83f 8114 8c3f b1ab d73e
00000070: c462 913e 2805 1a3f 3317 873e a4bb ce3f
00000080: 6d55 c13f 396c 553f b414 af3e 02cb 343f
00000090: 876a f93e 91fe c43f 27a0 2a3f 2603 173f
000000a0: eccc c13f 617d 273e e5e0 b43f 4737 7f3e
000000b0: c881 063f 6480 f93e e599 883f 8fb1 0d3f
000000c0: 1f7f 863f d4b3 703f 71d9 113f 8c38 7f3e
000000d0: 4a71 9d3e d176 d93f af46 1140 2fcb c83f
000000e0: 0018 8b3e b1c8 b43e 0983 883e 93e6 f03e
000000f0: 6a5d 0040 cf5e a13e 1a91 bb3e b115 b93f
00000100: 55c4 ae3f ee42 0a40 d4b2 ae3f f706 223e
00000110: 3a57 ca3f 3562 9b3f 4d86 8d3f 27cd 853e
00000120: 3b64 8c3e 8b66 3840 820f 3040 b770 de3f
00000130: 2767 fd3f c9de 0140 44f2 913e 4410 983e
00000140: ee13 ab3f 0cd6 853e 95a5 e23e f906 823e
00000150: 000a f43f a3fe 043f 2e41 863f 0808 c53e
00000160: a04c 0340 f4b6 4640 65a0 863e f22b 843e
00000170: 37a0 1e3f d246 943f e8e8 493f 866d 0a3f
00000180: 1528 043f 0974 9b3e 599f dc3e eaf3 5140
00000190: 82c2 8c3e 0d88 893f a77c 023f cad5 923e
000001a0: a467 c43f e600 0d40 0244 083f 2b4c 7a3f
000001b0: 6e89 de3e 59cb 8d3f a493 2a40 b0f6 513f
000001c0: f1a9 fd3f 10bd de3e a9c4 753e 4666 f63f
000001d0: dc2c e63f 1ed8 b83f afb9 9d3f 4295 503f
000001e0: 4007 973e f26c fa3e 85d1 9a3f 3877 713e
000001f0: 122b b83f a3d6 a13e 180d 9740 e43c d73f
00000200: 7eb4 af3e baf9 ef3e 6dbf 8c3f 4b21 063f
00000210: 8268 173f 53b5 9b3e 32e6 0d40 f594 0340
00000220: eb50 703e 23ec b23f 7002 f33f e0cc 563f
00000230: bf45 c23e 2c8c 8f3e 19e5 933e 9c9e 853e
00000240: f6e7 253f 5228 0d40 1367 c43e 41d7 b03e
00000250: c16c 9f3f f031 a63e f9c8 863e 614e f23f
00000260: c388 f93f 9b86 043f 1515 0d40 c05c f93f
00000270: 963b a23e c24b 433e 4549 bf3e a844 2b3f
00000280: 525d 8f3f 3429 b63e 2358 bf3e 88b4 a23d
00000290: 0315 723e 448e 4f3f bfc8 0d40 d631 ed3e
000002a0: 3583 1b3f 1975 b53f a59b 493f 2371 a53f
000002b0: f355 3a3f e6fd 013f 1ab9 0b3f 9538 ac3e
000002c0: 9c1b 4740 a7fb a03f a483 743f 237d 493f
000002d0: a0af d33e 4b47 6d3f b468 353f a091 e23e
000002e0: 2047 2f40 0064 7a3e 80a1 2f3f de26 373f
000002f0: 54e9 343f 8c81 a43f c8f2 7a3f 786c 9c3f
00000300: f046 0e3f b8c5 a43e daee 913f e2ae 843f
00000310: 582d 533f ac18 b13f 7422 e33e f676 b03f
00000320: 0943 123f 2688 f93f e651 ae3e 3874 e93f
00000330: 29e1 fb3f b7e2 d63f 0874 5e40 f8ef 913e
00000340: ee7b f93f ce91 983f 42c9 5a3f 7136 813e
00000350: 3f90 2040 b645 743f 7b7b ae3e e629 903e
00000360: 7adc cb3e 5561 013f 830a fb3e 5f4e cc3f
00000370: 7056 9a3e 15b8 8a3e 31a6 833d fa5b 8d3f
00000380: 473b b13e 7a1f 693e 1c07 bc3e 8cad 4f3f
00000390: 2275 bd3f b8ec 0a3f 6453 cf3f ce29 bd3e
000003a0: 6c55 413f ea0a 773f 0dd7 dc3e 2d11 c23f
000003b0: 2a8e c93f 3006 d73f f088 643e c7a6 6d3f
000003c0: bee1 2c3f a5a8 823e 935c ab3e 20a3 dc3e
000003d0: 25a9 733e 5725 9e3e dd1d 853e 7c3a 993e
000003e0: 84a2 083f e5d0 8d3e e911 8f3f 3c8a 773f
000003f0: a316 113f 069a ea3f cf8c 0a3f 0ea1 333f
-0.004542911 0.4826617 0.80072474 1.0566674 0.7699776 0.8839836 2.513097 0.42665553
0.36575007 0.71065485 2.5620162 0.73559225 1.2217026 0.43980405 1.9680866 0.51456153
0.46900073 1.890544 0.6653582 0.93771005 0.4434957 0.7091308 0.6606917 0.63298947
0.5880414 1.4446329 1.0943757 0.42123178 0.28395665 0.6016412 0.26384887 1.6151013
1.5104195 0.8336826 0.34195483 0.70622265 0.48714086 1.5390188 0.66650623 0.5898918
1.5140662 0.16356422 1.4131132 0.2492343 0.5254178 0.48730767 1.0671965 0.5534906
1.0507544 0.94024396 0.56972414 0.24923915 0.30750495 1.6989385 2.2699392 1.5687007
0.27166748 0.35309365 0.26662472 0.47050914 2.0057015 0.31517646 0.3663414 1.4459745
1.3653666 2.160335 1.3648324 0.1582297 1.580787 1.2139345 1.105661 0.2613308
0.2742022 2.8812587 2.7509465 1.7378148 1.9797105 2.0292227 0.28505147 0.2969991
1.3365457 0.26139867 0.44266954 0.25395945 1.9065552 0.51951045 1.0488641 0.3848269
2.0515518 3.1049166 0.26294246 0.25814778 0.6196322 1.1584113 0.7887101 0.5407337
0.5162366 0.30361965 0.43090323 3.2805123 0.27492148 1.0744644 0.50971454 0.28678733
1.5344129 2.2031798 0.5322877 0.97772473 0.43464226 1.1077682 2.6652613 0.8201704
1.9817487 0.43503618 0.24000801 1.9249961 1.798244 1.4440954 1.2322291 0.8147775
0.2949772 0.48911244 1.209519 0.23580635 1.4388144 0.31609067 4.7203484 1.6815457
0.34317392 0.46870214 1.0995919 0.5239455 0.5914384 0.30411777 2.217175 2.0559666
0.23468368 1.3978313 1.8985119 0.83906364 0.37943837 0.2803663 0.28885725 0.26097572
0.6480707 2.205586 0.3835989 0.34539226 1.2455064 0.32459974 0.26325205 1.8930169
1.9494861 0.5176789 2.2044117 1.948143 0.31686085 0.19071868 0.37360588 0.66901636
1.1200354 0.3557831 0.3737193 0.0794459 0.23640828 0.81076455 2.2153776 0.46327084
0.6074708 1.417636 0.7875312 1.2925152 0.727874 0.50778043 0.5457932 0.3363692
3.1110601 1.2576798 0.9551337 0.7870657 0.4134493 0.9268691 0.7086289 0.44251728
2.7387161 0.2445221 0.68605804 0.7154368 0.7066853 1.2852035 0.98026705 1.2220602
0.5557699 0.32182097 1.1401017 1.036587 0.82491064 1.3835654 0.44362223 1.3786304
0.5713354 1.9494674 0.3404686 1.8238592 1.9678088 1.6787938 3.475832 0.28503394
1.9490945 1.1919496 0.85463345 0.25236848 2.508804 0.9541887 0.34078583 0.28156966
0.39816648 0.5053914 0.49031457 1.5961417 0.30144072 0.27093568 0.06428183 1.1043694
0.34615538 0.22765914 0.36724174 0.81124187 1.4801371 0.54267454 1.6197324 0.36945957
0.7552097 0.9650103 0.4313282 1.5161492 1.574651 1.6798763 0.22317863 0.9283261
0.67531955 0.2551929 0.33469066 0.43093204 0.23794992 0.30887863 0.25999346 0.29927433
0.5337298 0.27698436 1.1177341 0.96695304 0.56675166 1.8328254 0.54121107 0.70167625

i_bias.weight f4 [11268, 1]
00000000: 3c0c 09bc 85e7 dd3e 5ae8 903e 2d19 a73e
00000010: a0d5 9e3e 8cf9 713e b8d9 833e 30ad ee3e
00000020: 9f95 573e 6b26 203e 0f17 af3e fb1e 413e
00000030: a5c6 c23e fed4 853e 0e4b 913e 91a4 bb3e
00000040: d390 d13e 39c6 b63e 9049 923e f465 073e
00000050: 36ca a93e ec62 993e 05c9 443e 9c5c a13e
00000060: c099 b33e 8690 8d3e 4731 c73e 3d9c b13e
00000070: 73e6 a43e 9343 b93e f1f4 233e 67d2 533e
00000080: 64f6 043e 1376 723e f651 4f3e 2f24 723e
00000090: 4798 893e 14ab 7f3e 8519 793e 1494 af3e
000000a0: 9873 303f 870b 0f3e 0949 0e3e 7791 233e
000000b0: 880f 233e 149d 913e 1332 2d3e 33c1 a03e
000000c0: d627 1a3f 30af 9b3e 84c8 8e3e b422 2a3e
000000d0: cc2d 803e 4af4 e73e 9f76 983e c42f 553e
000000e0: e2ae de3e 4c05 ba3e c780 e23e dc48 823e
000000f0: 12ef d33e f8f0 283e 45e3 603e 0ac2 9f3e
00000100: db26 483f 4b9f c43e 9aca 583e eb3e 733e
00000110: 5863 463e 1ac2 7a3e 3316 c33e be3f 613e
00000120: 178c ad3e 83fc 133f a24e 933e a4ff a23e
00000130: cf06 a33e 2879 b83e 90f5 e63e 8647 083f
00000140: 661e 313e aeb1 833e f5a5 4a3e 085d 9b3e
00000150: 0dc7 3e3e f1c0 e23e f15f 263e f9c1 103e
00000160: 4b54 a53e fa63 5c3e 95fb 493e 0493 623e
00000170: 4e0a f43d 3a47 7c3e d85c 3b3e b019 8b3e
00000180: 30e2 323e 9b0b 0d3f 8167 4b3e e8cb f83e
00000190: 25e9 043e 51b5 2d3e 003c 6a3e c44e 273e
000001a0: ca94 613e 408b 993e ead4 6a3e b024 5a3e
000001b0: f0a8 ca3e 3c0a 693e bde3 933e 4d8d 2d3e
000001c0: 9b41 183e 3840 3a3e 4562 a63e f88d f73e
000001d0: 3ba3 543e ea22 d63e 2bb6 ba3e b357 943e
000001e0: 2be5 7f3e 3872 4b3e 6916 653e bccf 3b3e
000001f0: af87 553e 513f 8b3e ea69 893e 985e 2b3e
00000200: 28db 413f 2326 033f ef12 543e 235e 413e
00000210: 1235 143e 7f5f 413e e3f0 8f3e 49b8 743e
00000220: 097c 153e 9288 8a3e 51d9 213e 0168 833e
00000230: b943 6a3e 363c 5f3e d8fe 233e bf71 473e
00000240: 58d0 7a3e 36d8 b93e 6597 653e 8f54 463e
00000250: 4470 b23e 9d25 9e3e 4d97 613e e7c8 933d
00000260: da5a 643e 208b b63e 880c a93e f7cb 5f3e
00000270: 9b58 6b3e 39cf 003f ebf7 bb3e 5f9a b93e
00000280: 5907 233e 693d cc3e 3a56 943e 3f13 0c3f
00000290: ac05 433e 2db9 463e ab40 a13e c340 5f3e
000002a0: 61b4 ab3e 59c6 883e 3451 9c3e 1a48 603e
000002b0: 835c 143f 7872 bc3e 31a5 9b3e 86c9 253f
000002c0: 0dd8 713e 9355 cb3e 17be aa3e 49ad 6a3e
000002d0: a5f4 1f3e c32e b33e e525 0e3e 23c3 713e
000002e0: a861 c13e 7f3c 3e3e e830 9b3e 4f12 783e
000002f0: 42f9 853e 9a23 493e 5a24 c73e 0b81 7e3e
00000300: 5e57 b13e 6208 fa3e 590d ab3e 53f4 823e
00000310: a27e 0b3e b303 123f 8abc a53e 893f d13d
00000320: 8997 703e 15b9 623e 88a0 f13e e907 b53e
00000330: 3553 bc3e b221 5e3e 34d4 cc3e 9386 263f
00000340: 9349 883e da66 ad3e e7d7 7c3e 0716 713e
00000350: 579f 5d3f 9427 dc3e e488 d53e aca5 e73e
00000360: 994a cd3e 0db6 7c3e 6def 5e3e a460 503e
00000370: 2aa8 983e 66f1 363e e026 0f3e 49b3 0d3f
00000380: 72ad 0e3f 9909 3e3e b928 c93e 0bb0 303f
00000390: 016f 0e3f 45e4 8f3e 1949 883e 45e8 3c3e
000003a0: 6fca 5f3e a1a3 8a3e 7416 9a3e 2a02 9a3e
000003b0: 2055 903e adec a43e d4ca b33e 273a 9d3e
000003c0: 826d 1a3f 4b67 543e 222a a13e 6168 5c3e
000003d0: ac9d a63e 9499 af3e 812f 6c3e 12f5 453e
000003e0: 5db1 433e 6326 5f3e 0500 f63e 86d4 7a3e
000003f0: bc7f 803e e262 1f3e aff3 b43e 521d 873e
-0.008364733 0.43340698 0.2830227 0.32636395 0.31022358 0.23630351 0.25752044 0.46616507
0.2105317 0.15639655 0.3419728 0.18859474 0.3804218 0.26139063 0.28377575 0.36648992
0.40930805 0.35698107 0.2857175 0.13222486 0.33162087 0.29958284 0.19217308 0.31515968
0.3507824 0.27649325 0.38904783 0.34689513 0.3220707 0.36184368 0.16011406 0.20685731
0.12984616 0.23677854 0.2024611 0.23646615 0.2687399 0.24967605 0.24326141 0.34292662
0.6892638 0.13969241 0.13895048 0.15973459 0.15923893 0.28440154 0.16913633 0.313974
0.60217035 0.30407095 0.27887356 0.166148 0.2503494 0.45303565 0.29778 0.20819002
0.434928 0.36332166 0.44238874 0.25446212 0.41393334 0.16498172 0.21961696 0.31202728
0.7818429 0.3840278 0.21171036 0.2375447 0.19373834 0.24488106 0.38102874 0.21996972
0.33895943 0.5780718 0.2877093 0.31835663 0.31841132 0.36029935 0.45109224 0.53234136
0.17296752 0.25721496 0.1978987 0.30344415 0.1863062 0.44287828 0.16247536 0.14136495
0.32290873 0.21522513 0.19724877 0.22126395 0.11916028 0.24636546 0.18297136 0.27168036
0.17469096 0.55095834 0.19863702 0.48593068 0.12979563 0.16963698 0.2287445 0.1633864
0.22029415 0.29989052 0.22932783 0.21303058 0.39582014 0.2275781 0.28884688 0.16948433
0.14868777 0.1818856 0.3249685 0.483505 0.20765392 0.41823512 0.36467108 0.2897316
0.24989764 0.1986779 0.2237183 0.18340963 0.2085254 0.27196744 0.2683862 0.16735303
0.7572503 0.51230067 0.20710348 0.18883567 0.1447337 0.18884085 0.2811347 0.23898424
0.14598097 0.2705732 0.15805556 0.25665286 0.22877397 0.21800312 0.16015184 0.19476984
0.2449354 0.36297768 0.22421034 0.19368194 0.34851277 0.30888072 0.22030373 0.072160535
0.22300282 0.3565302 0.33017373 0.2185515 0.22983019 0.50316197 0.36712584 0.36250588
0.15920772 0.39890602 0.28972036 0.5471687 0.19045132 0.19406576 0.3149465 0.21802048
0.33536056 0.26713827 0.30530703 0.21902505 0.5795366 0.36806083 0.3039947 0.64760625
0.23617573 0.39713725 0.33348152 0.22917666 0.15620668 0.34996614 0.13881643 0.23609595
0.37769818 0.18577765 0.3031075 0.24225734 0.2616673 0.19642487 0.38894922 0.24853913
0.34636968 0.4883452 0.3340862 0.2557703 0.13622525 0.57036895 0.32370406 0.102171965
0.23495306 0.22140916 0.47192788 0.35357597 0.36782232 0.21692541 0.40005648 0.65049094
0.26618633 0.33867532 0.24691735 0.23543559 0.8657126 0.42998946 0.41706002 0.45243585
0.40095976 0.24678822 0.21771021 0.20349365 0.298158 0.17865524 0.13979673 0.5535169
0.55733407 0.18558349 0.3928888 0.6901862 0.5563813 0.28103843 0.2661827 0.18447979
0.21854566 0.27077964 0.30095255 0.30079776 0.28189945 0.3221182 0.35115683 0.3070843
0.60323346 0.20742528 0.31477457 0.21524192 0.3254217 0.34296858 0.23064996 0.19331768
0.19110627 0.21791987 0.4804689 0.24495134 0.25097454 0.15565065 0.35342166 0.26389557

grad_avg f4 [2298, 5]
00000000: 0000 0000 0000 0000 0000 0000 0000 0000
00000010: 0000 0000 3e26 00b4 59a3 2d34 7a22 10b4
00000020: 072e 5cb4 65f4 4c34 2bbd 8834 942f 9234
00000030: b6b5 5ab4 27b6 8db4 f7c0 a934 e7bb 5eb4
00000040: cb2d 1634 ebd9 4c34 1ca5 3834 74ee 4db4
00000050: 604d df34 f5a5 2435 7208 bfb3 02bf 23b5
00000060: f157 6835 fcd5 7335 d54f 7135 7e54 8db5
00000070: 67de a7b5 11b0 a935 9b00 ae35 3d77 b635
00000080: 896c 71b5 c3ee 8b35 8c2b 3e35 43ed 3f32
00000090: 0a4a 4d32 e910 3732 26eb fb31 9316 3332
000000a0: f261 a61c a571 a69c c1f7 f01c 43c8 c41b
000000b0: ae11 579b 7465 89b6 456a b436 37a0 f2b6
000000c0: 4fce bb36 19a0 aeb6 7d57 4e35 7448 0fb5
000000d0: cd17 b132 f16b 0eb6 c54f 8135 48e9 0fb2
000000e0: 1306 9831 1b9c 1932 ec93 d6b1 e5ae 1632
000000f0: b761 a433 1d2f cb33 7731 0b33 e061 d2b3
00000100: 91f3 f333 ece5 1fb3 bbbe 11b3 537e 08b3
00000110: de8f 11b3 e397 1833 5077 9bb5 ff40 5cb5
00000120: 9985 92b5 7839 9c35 9e69 9835 6c63 5aaa
00000130: ff17 8e2a 97f7 88aa eb4e 2f2a 0f5d 36aa
00000140: 559b 39b2 ded0 4f32 0055 7332 f9f6 8c32
00000150: 9a7f 6431 40b8 3135 5f49 0a35 463c 53b4
00000160: 2a86 74b4 656a 3535 8c77 abb3 040e acb3
00000170: 7209 6e33 5ea4 a4b3 f138 a533 2aa0 54b2
00000180: 7ecd 1032 159a 6fb2 5521 a3b2 5248 9e32
00000190: 25db 6435 a42f 8935 11bf a835 d8ce 53b5
000001a0: 48aa 75b5 344e afaf e0bb 67af 3a9e 92af
000001b0: 8f31 a7af 95ee 18af 5590 7d2c 08ba 92ac
000001c0: 7959 63ac 0679 fdab 53a4 892c 0dad 4c36
000001d0: 32d9 8c36 7cd1 85b5 0dd8 b633 d6df f235
000001e0: 2237 bc33 4810 dc33 1877 9733 7329 c9b3
000001f0: a6b0 eb33 c9ef d634 60df f9b4 0f29 b834
00000200: 9bda fbb4 2a06 f9b4 e138 b533 05e6 a333
00000210: f861 96b3 b777 b0b3 967a 9a33 5c07 3736
00000220: f68a 4836 b4c9 6bb6 8839 85b6 2647 5f36
00000230: 4a07 752f a84e 692f e554 c32e 9ee0 83af
00000240: a4f6 672f d4a4 83b5 a0d2 71b5 b3df 5fb5
00000250: 99a4 44b5 c7da 0cb5 956d 12b1 5d3b 2eb1
00000260: e608 2d31 b29a 3ab1 4c85 f0b0 10c3 8b35
00000270: 9f29 e535 8825 d635 ad53 c5b5 3c95 e4b5
00000280: 51b2 0336 5c72 0936 5749 17b6 07e4 0236
00000290: 0338 08b6 54bd d5b5 0566 0db5 0c00 cdb6
000002a0: a2ed efb6 f51f 01b4 fbd9 d12a adcc e12a
000002b0: d562 dfaa 7464 f0aa e159 e62a e97e ec33
000002c0: 1a3c de33 757a a7b3 73cb e7b3 5309 fb33
000002d0: 02d1 0b2b 6180 4d2b bb14 052a b518 70ab
000002e0: 009d 3e2b 56b3 5f34 17b4 a234 0e3b 8bb4
000002f0: 7074 a1b4 066d 9f34 02dd 0423 a1c8 fa22
00000300: 3c48 b222 75ac f8a2 3832 22a2 8887 88b0
00000310: 965b a130 2136 a4b0 b53c 21b0 75c2 2f30
00000320: e19d 5e35 02df 5d35 56ab 28b3 fee4 5fb5
00000330: 2599 2235 6626 6c28 1657 7c28 0d33 30a8
00000340: 2bb8 6ea8 bbe3 2f28 e01c 3233 a7c0 3333
00000350: ae5b 5ab2 b91c 4cb3 f147 4133 6cfd a215
00000360: 74f8 1316 71c1 f995 8477 0a96 c5e3 1a16
00000370: dda3 39a9 a594 26a9 3b05 2a29 4219 bda8
00000380: 34a3 0e29 0483 0031 c5f2 0e31 e1bc f5b0
00000390: 9f85 19b1 8ead 0d31 681b 8930 43f1 0eb0
000003a0: 0977 2e30 3eec 90b0 b469 75b0 7749 ba33
000003b0: 0283 e2b5 cc43 3635 80e2 19b6 0d73 7cb5
000003c0: 05fd e934 f0ea b434 75b4 02b5 b4cf a7b4
000003d0: 688e 7e34 d5d9 bf35 777e b3b4 0ca8 e735
000003e0: 48bd e5b5 1571 c235 aade 2531 0724 4231
000003f0: fcf3 48b1 cb57 8ab1 5c92 7131 cb41 6d1e
0.0 0.0 0.0 0.0 0.0 -1.1934841e-07 1.6171306e-07 -1.3423588e-07
-2.0505841e-07 1.9087891e-07 2.5469612e-07 2.7229237e-07 -2.0368938e-07 -2.639583e-07 3.1619103e-07 -2.074372e-07
1.3986498e-07 1.9078259e-07 1.7196402e-07 -1.9178862e-07 4.1593285e-07 6.133626e-07 -8.895667e-08 -6.1000185e-07
8.6554707e-07 9.083594e-07 8.9895667e-07 -1.0529909e-06 -1.2507197e-06 1.2642723e-06 1.2964186e-06 1.359476e-06
-8.9937436e-07 1.0425796e-06 7.0843885e-07 1.117161e-08 1.1949405e-08 1.0655847e-08 7.3317947e-09 1.0424304e-08
1.1010277e-21 -1.1014335e-21 1.5945911e-21 3.2554896e-22 -1.7790096e-22 -4.094729e-06 5.3767894e-06 -7.2308135e-06
5.5970518e-06 -5.204242e-06 7.686829e-07 -5.3377084e-07 2.0616335e-08 -2.122248e-06 9.634465e-07 -8.3767375e-09
4.424473e-09 8.941266e-09 -6.2450365e-09 8.7709155e-09 7.654619e-08 9.461494e-08 3.2408447e-08 -9.7966904e-08
1.1359874e-07 -3.7229185e-08 -3.393391e-08 -3.177986e-08 -3.389129e-08 3.5528398e-08 -1.1583124e-06 -8.205097e-07
-1.091673e-06 1.1639631e-06 1.1355621e-06 -1.9396783e-13 2.5240918e-13 -2.4330253e-13 1.5570503e-13 -1.6197133e-13
-1.0803736e-08 1.2096477e-08 1.4163788e-08 1.6410455e-08 3.32509e-09 6.620576e-07 5.1515775e-07 -1.9672834e-07
-2.277308e-07 6.758258e-07 -7.9845535e-08 -8.0119236e-08 5.5422284e-08 -7.666743e-08 7.693769e-08 -1.2376441e-08
8.428627e-09 -1.3946665e-08 -1.8990855e-08 1.8426508e-08 8.5255516e-07 1.0221161e-06 1.2572583e-06 -7.890462e-07
-9.1517404e-07 -3.188788e-10 -2.1076074e-10 -2.6669672e-10 -3.0412337e-10 -1.3909081e-10 3.6033583e-12 -4.170223e-12
-3.2308308e-12 -1.8010322e-12 3.912018e-12 3.0499098e-06 4.19761e-06 -9.97024e-07 8.514335e-08 1.809555e-06
8.764461e-08 1.024751e-07 7.0531485e-08 -9.3673314e-08 1.09751724e-07 4.0035073e-07 -4.654239e-07 3.4302545e-07
-4.691145e-07 -4.638435e-07 8.4388155e-08 7.632119e-08 -7.00274e-08 -8.217415e-08 7.193482e-08 2.7273409e-06
2.9883208e-06 -3.5135135e-06 -3.9704064e-06 3.3271003e-06 2.228521e-10 2.1219171e-10 8.8826536e-11 -2.398836e-10
2.1096952e-10 -9.808232e-07 -9.0085996e-07 -8.33995e-07 -7.325521e-07 -5.2472427e-07 -2.1308086e-09 -2.5354077e-09
2.5179872e-09 -2.7154496e-09 -1.7500184e-09 1.0413078e-06 1.7073943e-06 1.5955166e-06 -1.4701997e-06 -1.7030757e-06
1.9624315e-06 2.0481157e-06 -2.2543443e-06 1.950424e-06 -2.0298182e-06 -1.5924838e-06 -5.267505e-07 -6.1094815e-06
-7.150419e-06 -1.2025687e-07 3.7277112e-13 4.011005e-13 -3.9681336e-13 -4.2702268e-13 4.0918573e-13 1.1012691e-07
1.0348613e-07 -7.798818e-08 -1.0793783e-07 1.16897944e-07 4.9672777e-13 7.300879e-13 1.1819965e-13 -8.5299416e-13
6.771944e-13 2.0833735e-07 3.0305884e-07 -2.5933736e-07 -3.0073306e-07 2.9695383e-07 7.2025346e-18 6.797506e-18
4.8323478e-18 -6.740313e-18 -2.198168e-18 -9.933823e-10 1.1740322e-09 -1.1947955e-09 -5.865773e-10 6.394097e-10
8.293119e-07 8.2653435e-07 -3.9271377e-08 -8.34072e-07 6.057256e-07 1.3108958e-14 1.4007694e-14 -9.7810325e-15
-1.3251589e-14 9.763833e-15 4.1470116e-08 4.18519e-08 -1.2710116e-08 -4.7523574e-08 4.5001745e-08 6.583111e-26
1.1952963e-25 -1.00875496e-25 -1.1185264e-25 1.2511892e-25 -4.122038e-14 -3.6988333e-14 3.775212e-14 -2.0994169e-14
3.167189e-14 1.8700925e-09 2.0801718e-09 -1.7879779e-09 -2.2340385e-09 2.0616855e-09 9.975851e-10 -5.200215e-10
6.346999e-10 -1.0544523e-09 -8.9280694e-10 8.674663e-08 -1.687644e-06 6.789894e-07 -2.2930617e-06 -9.4044736e-07
4.3583728e-07 3.3698552e-07 -4.8691373e-07 -3.1257298e-07 2.37074e-07 1.4294006e-06 -3.3433363e-07 1.7259749e-06
-1.7116918e-06 1.4487038e-06 2.413723e-09 2.8251195e-09 -2.924252e-09 -4.0263095e-09 3.5153311e-09 1.2560281e-20

sqr_avg f4 [2298, 5]
00000000: 0000 0000 0000 0000 0000 0000 0000 0000
00000010: 0000 0000 6273 d12e 9744 402f 047b 042f
00000020: 7f97 9a2f edf2 852f fd2e 312e 47d8 2b2e
00000030: 26b3 182e a257 292e a01e 432e 95ba 212e
00000040: d7be 932d bb97 082e 2f4d de2d 300e 0a2e
00000050: d97e 852c 60c2 0f2d 98e3 512a fac9 0d2d
00000060: 4de0 8d2d f966 792f 7ef6 832f 4440 a52f
00000070: e316 0b30 c8c2 f72f 7515 0d2e ca40 152e
00000080: f9c7 a62d b24c eb2d 1e71 612d 3826 b72e
00000090: d88f d12e b49d a62e d0a8 1d2e a672 9f2e
000000a0: ca81 852a f19a 852a 2404 0c2b a5bf ba28
000000b0: e911 df27 0049 e82e d910 682f 32e5 c62f
000000c0: 2152 722f 6dca 312f 7b00 f12d 683a 612e
000000d0: 7892 282e 6ba2 7e2e 5ea8 212e 75bf bc2e
000000e0: 1044 b62e 4fe2 c62e 2ff8 f82e 801b 2c2f
000000f0: 011e 392e 6084 902e bd36 e02d da51 9b2e
00000100: f2ca ca2e b170 022f ca52 d52e 4f83 c42e
00000110: dbc1 db2e 1ef2 f32e 4bee 362e 6fd3 b42d
00000120: b936 1e2e 5873 2f2e 78bd 192e 2796 aa2c
00000130: b14e 112d 0130 092d ace1 6b2c e10a 742c
00000140: bc02 e42e 36f6 0e2f 0502 442f ae93 832f
00000150: 4293 2c2d bf99 2d2d b998 192d f319 8a2c
00000160: b81b 4f2d 6bb4 3a2d 1cf0 1d2f 0506 1f2f
00000170: 0517 982e f49a 112f 78a2 122f bb22 552e
00000180: f4b0 b62d 968f 832e 7f71 d82e f41b d02e
00000190: e704 552f 5a19 992f 11a9 e72f 8975 362f
000001a0: 6d77 752f e8a6 7d2e eae8 e72d 034a 402e
000001b0: 2874 6c2e d817 832d 7261 b32d cc47 f02d
000001c0: cc32 902d 9f2b b32c 4470 d32d 595b 582e
000001d0: 383d cb2e 633f b12c e874 6529 eec1 af2d
000001e0: 5332 ad2f 09c3 ec2f 803a 602f c8d0 c52f
000001f0: b4ca 0730 45a3 e92d 0f26 162e a92a b52d
00000200: 2165 122e 7694 142e 3c21 802e 28e3 4a2e
00000210: 0fd1 2d2e ba42 752e f155 3c2e d606 1e30
00000220: ec9d 3d30 77ef 8230 ee4f a730 daf7 6a30
00000230: aa96 dc2e 86fa c72e 7c22 8c2d f799 ff2e
00000240: c4ae c52e 160f 4030 9e04 1730 1067 8430
00000250: 3ab0 d02f 9668 602f 3718 6b2f 396e a62f
00000260: 3e26 a42f 12e7 be2f de93 1e2f 7a8a 882d
00000270: 68dc 502e 1956 2c2e ff43 0d2e a740 452e
00000280: 6258 d02e 2424 e52e 179d f42e d7ba d52e
00000290: 2a32 de2e cfea 202f 6af0 0f2f 34b8 0e30
000002a0: a061 3330 1d5a 192f dfa4 a22a e44e bc2a
000002b0: 7f4f b82a 2c6f d52a 3afb c32a fb36 142d
000002c0: d676 0f2d f0c8 6a2c 7c37 1e2d dcbe 152d
000002d0: defc 8d2d 3569 192e 98a5 802b cb6f 512e
000002e0: 5bfb 032e ccc8 742d 1e11 0e2e d425 b52d
000002f0: e10e 002e 62f3 082e 90dd b92b 4b8d a52b
00000300: f3d0 262b bdc3 a22b 8ade 082a a3b0 1d2f
00000310: ef47 5c2f ab24 642f 7cd9 5b2e 51a0 822e
00000320: 700c 8b2e 370c 8d2e 5721 a72c 095c 942e
00000330: cff1 c82d a094 3b2e 8f2e 562e 69d9 d02d
00000340: 9cae 3f2e 361d d02d 1c57 ac2b f95f 9e2b
00000350: 8ba4 dc2a fc66 da2b 91c5 d42b 8716 0c2a
00000360: 0d4a e72a bba2 a42a 0587 ca2a 0072 fd2a
00000370: 1d08 ad2d 334d 8b2d 7e1e 912d 6154 b32c
00000380: b237 4c2d 236f 572e 5b47 852e afed 442e
00000390: e0b9 992e a0eb 822e e6b6 cc2e 5744 f12d
000003a0: c82c 282e 5935 e52e d0e8 a62e f6ce 492b
000003b0: c743 952f fe4b 412e 24cb 0930 df61 b92e
000003c0: f5c3 122e a6c8 bb2d 13bc 382e c536 a32d
000003d0: 5687 332d 00d6 012f 330a 832e e7e2 4b2f
000003e0: 3eaf 772f aefc 392f 50ef b82d b7a5 fd2d
000003f0: 72d3 072e dc0c 812e b678 442e 0099 d82a
0.0 0.0 0.0 0.0 0.0 9.524716e-11 1.7486666e-10 1.2049034e-10
2.812008e-10 2.4365168e-10 4.0286875e-11 3.907299e-11 3.4719914e-11 3.8503985e-11 4.4365067e-11 3.677288e-11
1.6796715e-11 3.1057584e-11 2.5272754e-11 3.1390168e-11 3.7941703e-12 8.171769e-12 1.8641891e-13 8.05977e-12
1.6129454e-11 2.2683001e-10 2.4003904e-10 3.005899e-10 5.060043e-10 4.506744e-10 3.2078746e-11 3.3936222e-11
1.896082e-11 2.6750466e-11 1.2814886e-11 8.3286655e-11 9.5297714e-11 7.57682e-11 3.5847603e-11 7.2508485e-11
2.3715605e-13 2.3733058e-13 4.974374e-13 2.073326e-14 6.191435e-15 1.0563106e-10 2.1106263e-10 3.6178843e-10
2.203895e-10 1.6169972e-10 2.7398741e-11 5.1210952e-11 3.8328868e-11 5.789717e-11 3.6756702e-11 8.58326e-11
8.288492e-11 9.044198e-11 1.13218206e-10 1.5653079e-10 4.209078e-11 6.5718764e-11 2.549016e-11 7.063124e-11
9.221947e-11 1.1863467e-10 9.700825e-11 8.936373e-11 9.9934026e-11 1.1093369e-10 4.1593656e-11 2.0557526e-11
3.5973644e-11 3.989284e-11 3.4956454e-11 4.848361e-12 8.259769e-12 7.798207e-12 3.3520782e-12 3.4680525e-12
1.0368725e-10 1.3002296e-10 1.7826814e-10 2.3933694e-10 9.809766e-12 9.86805e-12 8.730954e-12 3.925077e-12
1.17727425e-11 1.0612937e-11 1.4364371e-10 1.4463104e-10 6.916249e-11 1.3242724e-10 1.3336343e-10 4.846144e-11
2.0769587e-11 5.982696e-11 9.842704e-11 9.4637104e-11 1.9373979e-10 2.784855e-10 4.2138784e-10 1.659456e-10
2.2325049e-10 5.7673782e-11 2.6365094e-11 4.372148e-11 5.3763355e-11 1.4903564e-11 2.0393218e-11 2.7316725e-11
1.6393463e-11 5.092329e-12 2.4037779e-11 4.9193847e-11 9.242246e-11 5.03768e-12 5.0949615e-14 1.9981319e-11
3.1504274e-10 4.306673e-10 2.0393465e-10 3.598244e-10 4.940077e-10 2.656154e-11 3.4139854e-11 2.0596263e-11
3.3286377e-11 3.3783164e-11 5.82667e-11 4.6131238e-11 3.9521327e-11 5.5765816e-11 4.2822582e-11 5.748978e-10
6.898222e-10 9.526805e-10 1.2173567e-09 8.548092e-10 1.0031205e-10 9.093974e-11 1.5931471e-11 1.1623407e-10
8.9895674e-11 6.987063e-10 5.494004e-10 9.633556e-10 3.7960196e-10 2.0409838e-10 2.1381728e-10 3.0273542e-10
2.98586e-10 3.4724984e-10 1.4422549e-10 1.5522906e-11 4.7489485e-11 3.9184742e-11 3.212008e-11 4.4850037e-11
9.474445e-11 1.0420134e-10 1.112374e-10 9.719308e-11 1.0104302e-10 1.4635336e-10 1.3091186e-10 5.192107e-10
6.5258554e-10 1.3947284e-10 2.8891383e-13 3.345025e-13 3.2740127e-13 3.7913542e-13 3.4813282e-13 8.425034e-12
8.154996e-12 3.3364943e-12 8.99358e-12 8.512049e-12 1.614214e-11 3.4881615e-11 9.140909e-13 4.762039e-11
3.00092e-11 1.391438e-11 3.2302265e-11 2.0594117e-11 2.9117046e-11 3.1138987e-11 1.3206537e-12 1.1763172e-12
5.926502e-13 1.1565121e-12 1.2156435e-13 1.4341821e-10 2.003444e-10 2.0749506e-10 4.9988e-11 5.9401935e-11
6.3231975e-11 6.4141074e-11 4.750127e-12 6.7466095e-11 2.2844752e-11 4.2650883e-11 4.869932e-11 2.3743412e-11
4.3583456e-11 2.3659835e-11 1.2245513e-12 1.1253213e-12 3.9194025e-13 1.5518416e-12 1.5118342e-12 1.2442314e-13
4.1085226e-13 2.924517e-13 3.5976097e-13 4.5020931e-13 1.9671426e-11 1.5836754e-11 1.6498133e-11 5.096854e-12
1.1608424e-11 4.898405e-11 6.060815e-11 4.4776346e-11 6.9906525e-11 5.953571e-11 9.309335e-11 2.7428877e-11
3.823855e-11 1.0423191e-10 7.590162e-11 7.169676e-13 2.71511e-10 4.3950614e-11 5.012899e-10 8.4302114e-11
3.33706e-11 2.1348544e-11 4.20038e-11 1.8555277e-11 1.0205023e-11 1.180851e-10 5.959002e-11 1.8543354e-10
2.2526778e-10 1.6915422e-10 2.1024654e-11 2.8836362e-11 3.0883247e-11 5.868525e-11 4.4672453e-11 3.8475473e-13

grad_avg f4 [11268, 5]
00000000: 0000 0000 0000 0000 0000 0000 0000 0000
00000010: 0000 0000 9b68 1401 974c 5e01 17ac 6f01
00000020: 06df 5a01 b1ed 7a81 9918 5d32 b428 4932
00000030: a677 5032 06df 50b2 b27f 7332 b735 3714
00000040: d48f 2614 4e93 2c14 c7fe 2c94 b2f1 4914
00000050: 07e8 b1b4 27fc 9234 b7b1 6634 ccee d831
00000060: bc56 a7b3 2625 48b1 745b 2531 0dc3 0131
00000070: 6fcd 732e ef37 3cb0 4dc3 3732 61c0 8632
00000080: f8fc 94b2 0cdc 87b2 ffc5 9e32 d856 ae2e
00000090: cacb 8b2e 57e5 9cae a5b3 882e e2ce 0bae
000000a0: 8c03 85a5 6a25 8825 3243 8725 6b4f 89a5
000000b0: cdf5 6725 6a4e 7820 4f5c 9f20 5fbe 8ea0
000000c0: 0bc0 98a0 1d5a 9f20 3777 51a4 5da8 9b25
000000d0: eae1 9025 5131 88a5 00ea 73a5 6950 b31e
000000e0: 76ad 949e d52f a71e 291f 791e 2973 c39d
000000f0: 621d af25 cf1a 91a5 9b36 a325 7e16 7325
00000100: b1a9 bea4 0a08 0b1d 0e9d e69c 25a8 011d
00000110: 0d38 c11c 099d 179c 0cc7 6c2f 2232 44af
00000120: f4a7 5c2f 1f59 242f 14fc 80ae 0e7e 4b2e
00000130: d79c 28ae c5a2 3d2e f13d 0d2e deb0 5dad
00000140: 946d 4c83 5bcd a483 0cde 9083 db71 a103
00000150: af55 6403 369e a633 260f 8ab3 c345 9b33
00000160: c74b 6733 d788 b5b2 ce83 1234 bacd f2b3
00000170: cd89 0834 aa63 cb33 c6a1 1fb3 9bba d933
00000180: b368 b4b3 21e7 ca33 801f 9733 b637 edb2
00000190: e515 652f b8d2 3daf 177d 552f a702 1f2f
000001a0: 4d98 79ae a190 3436 6e81 88b6 d61f 7bb6
000001b0: 8305 8a36 f50a 84b6 b0f5 c6a8 972e c3a8
000001c0: bc3e c228 4130 d4a8 999b a828 4ed5 cbaf
000001d0: 8bf5 c7af a901 c72f f55c d9af e3c5 ac2f
000001e0: 3fcc 5fa8 aefe 6ba8 1ee0 1c28 c1a9 e527
000001f0: a7ee 9fa8 1225 3a18 0eb8 5a18 083e 6418
00000200: e9b3 7c98 2df6 e917 a91b 8734 f97f 7234
00000210: 7671 6a34 aa7c 1c34 3de0 89b4 dfa4 931f
00000220: cb72 841f 9403 801f 0297 2a1f 16b4 969f
00000230: a5dc 1130 20e5 0230 af17 fd2f 28e8 a82f
00000240: 5dd9 14b0 6a73 5e2f 4a9f 472f a5fc 402f
00000250: 07c9 002f b202 63af e4d5 b5b2 fa7f a8b2
00000260: 8c8f c4b2 fe35 9932 877d b832 07a0 76b0
00000270: 8689 64b0 544c 85b0 d4cc 4f30 c639 7a30
00000280: 5ea2 0da4 b93f 03a4 0d14 19a4 61aa ee23
00000290: 4eaf 0f24 eeb0 b331 45e4 94b1 9b74 a731
000002a0: c671 7931 d2c6 c3b0 5401 0000 1a01 0080
000002b0: 3c01 0000 ea00 0000 5a00 0080 8321 6033
000002c0: beb6 39b3 74de 5033 1191 1b33 6e31 74b2
000002d0: a2b9 7f36 cce4 53b6 0250 6e36 507f 3136
000002e0: c94f 8bb5 44de 3a34 abd6 1ab4 d824 2e34
000002f0: 22b4 0134 3599 4bb3 cefd 9ea2 c646 7a23
00000300: 0b96 f323 eac1 b123 9598 2ba3 ef96 b5a2
00000310: ab49 e822 d918 c6a2 373b c822 daeb f5a1
00000320: 164f 8e33 2ef8 9033 d1b8 9bb3 06b8 6a32
00000330: afea 8f33 4ea8 41b1 3a4f 8331 590a 4231
00000340: 3b21 e330 da00 faaf 8d9b 4825 4cfb 4925
00000350: 4946 1a25 0952 d224 91a4 4325 4180 7bab
00000360: 1d4f 6fab ff1b 8c2b 850c 122b 1c46 8fab
00000370: b265 f02d 797f e42d 10e5 a2ad 464c 0bae
00000380: 224f f12d 978a 0634 3bdb 11b4 993a 1db4
00000390: dcf1 1b34 b60c 0eb4 99bb e9b2 59c1 4833
000003a0: 9297 0bb3 67f6 dc32 187a 4533 32bb fb2d
000003b0: 6ead 0c2e 25bb 06ae 8768 fead d561 c42d
000003c0: 9291 c532 22d0 dc32 507b d3b2 f8aa c7b2
000003d0: 7d23 9a32 768d 8f26 a499 8226 a451 8726
000003e0: 2f9c 87a6 181a 9e26 0d51 a232 3b4b 9132
000003f0: da2b 9932 dc47 a9b2 b05a 9eb2 eff9 a82c
0.0 0.0 0.0 0.0 0.0 2.7258358e-38 4.082991e-38 4.4020836e-38
4.0200288e-38 -4.6088283e-38 1.2869486e-08 1.1708995e-08 1.2134398e-08 -1.2157903e-08 1.4173496e-08 9.249732e-27
8.409223e-27 8.7128316e-27 -8.734027e-27 1.0195573e-26 -3.313764e-07 2.7378084e-07 2.1485071e-07 6.3135754e-09
-7.7923204e-08 -2.9124947e-09 2.4062645e-09 1.8882844e-09 5.5434265e-11 -6.847349e-10 1.0696408e-08 1.5687137e-08
-1.7344504e-08 -1.5816134e-08 1.8483659e-08 7.9280305e-11 6.3571884e-11 -7.1347976e-11 6.216475e-11 -3.178869e-11
-2.3074226e-16 2.3617592e-16 2.34643e-16 -2.3819527e-16 2.0119337e-16 2.1032362e-19 2.6996732e-19 -2.4181713e-19
-2.5876885e-19 2.699528e-19 -4.542063e-17 2.70023e-16 2.5133103e-16 -2.3625657e-16 -2.1156173e-16 1.8985619e-20
-1.5741851e-20 1.7701596e-20 1.3188394e-20 -5.1735143e-21 3.0377571e-16 -2.5171657e-16 2.8312995e-16 2.1084511e-16
-8.2686834e-17 1.8400653e-21 -1.5260721e-21 1.7159937e-21 1.2786157e-21 -5.016467e-22 2.153479e-10 -1.7843907e-10
2.0068552e-10 1.4947375e-10 -5.865544e-11 4.6268815e-11 -3.833808e-11 4.3118193e-11 3.2114703e-11 -1.2601668e-11
-6.0076e-37 -9.686201e-37 -8.514539e-37 9.4888695e-37 6.710154e-37 7.758756e-08 -6.428881e-08 7.2304395e-08
5.3852798e-08 -2.11334e-08 1.364526e-07 -1.13064246e-07 1.2716119e-07 9.471053e-08 -3.7167204e-08 1.0138793e-07
-8.400948e-08 9.4484e-08 7.037215e-08 -2.7615766e-08 2.0835207e-10 -1.7264312e-10 1.9416678e-10 1.4461908e-10
-5.6751315e-11 2.6906275e-06 -4.0681834e-06 -3.7420446e-06 4.113362e-06 -3.935182e-06 -2.2088966e-14 -2.1669554e-14
2.1565533e-14 -2.3557655e-14 1.8719227e-14 -3.7077047e-10 -3.6372358e-10 3.619907e-10 -3.953812e-10 3.1427225e-10
-1.24232755e-14 -1.3100345e-14 8.708337e-15 6.3744316e-15 -1.7756045e-14 2.4058652e-24 2.8268763e-24 2.9499627e-24
-3.2661068e-24 1.5119416e-24 2.5165835e-07 2.2584562e-07 2.1834225e-07 1.4573985e-07 -2.5681393e-07 6.252968e-20
5.6094084e-20 5.421603e-20 3.612381e-20 -6.38254e-20 5.306425e-10 4.761933e-10 4.603726e-10 3.072398e-10
-5.415098e-10 2.0231786e-10 1.8155535e-10 1.7552056e-10 1.1712951e-10 -2.0646487e-10 -2.116844e-08 -1.9615971e-08
-2.288268e-08 1.7836097e-08 2.1477502e-08 -8.972169e-10 -8.314135e-10 -9.698717e-10 7.559724e-10 9.103157e-10
-3.071203e-17 -2.8460072e-17 -3.319357e-17 2.587617e-17 3.115667e-17 5.2297002e-09 -4.333318e-09 4.873596e-09
3.6298942e-09 -1.4244625e-09 4.76e-43 -3.95e-43 4.43e-43 3.28e-43 -1.26e-43 5.2184543e-08
-4.3239872e-08 4.8631094e-08 3.6220687e-08 -1.4213908e-08 3.8106014e-06 -3.1574627e-06 3.5511334e-06 2.644916e-06
-1.0379528e-06 1.740346e-07 -1.4420463e-07 1.6218416e-07 1.2079593e-07 -4.740396e-08 -4.309471e-18 1.3567514e-17
2.6409658e-17 1.9272504e-17 -9.302239e-18 -4.9219955e-18 6.2961725e-18 -5.3694316e-18 5.4272805e-18 -1.6664275e-18
6.626776e-08 6.750666e-08 -7.251368e-08 1.3662435e-08 6.701645e-08 -2.8180867e-09 3.821609e-09 2.8236598e-09
1.6525868e-09 -4.547534e-10 1.7399937e-16 1.7519114e-16 1.3381184e-16 9.1211955e-17 1.6969311e-16 -8.93511e-13
-8.501965e-13 9.955369e-13 5.1886994e-13 -1.018022e-12 2.7330003e-11 2.5977208e-11 -1.8518992e-11 -3.1672685e-11
2.743367e-11 1.2530141e-07 -1.3583933e-07 -1.4643082e-07 1.4523488e-07 -1.3229405e-07 -2.721008e-08 4.6741977e-08
-3.2501312e-08 2.5723422e-08 4.597868e-08 2.8618528e-11 3.198635e-11 -3.063429e-11 -2.8922876e-11 2.2326066e-11
2.3000016e-08 2.5706019e-08 -2.4619709e-08 -2.3244397e-08 1.7944098e-08 9.960961e-16 9.062206e-16 9.389636e-16
-9.40984e-16 1.0970525e-15 1.889614e-08 1.6914433e-08 1.7831486e-08 -1.9706867e-08 -1.843486e-08 4.8025954e-12
