src/models/saved_models/user_collab_filtering_v1.pth (torch, 980418 bytes, 12 tensors)

u_weight.weight f4 [2322, 5]
00000000: 1f57 3f3b 4b6c 23bc a02c 0b3c 7ef9 7abc
00000010: 7893 683b e9ac d73d 023c a7bc 3ab7 303d
00000020: a2be 883d 127c f13d 7c06 6f3d 6ae0 8bbb
00000030: fd9e 1e3d 02c1 b6bd 5dab b4bd a48d 1abe
00000040: a37a 593e fd22 35be 4464 57be 43b3 99bd
00000050: 13fd 383e 9168 33be fe9d 083e fd6c aebd
00000060: dbf9 303e d691 1d3e 275b f2bd 0dc7 193e
00000070: 853f c1bd 5770 20bd 1f70 dfbe f1eb 00bf
00000080: c666 233f 9587 f33e 6b4e d7be a40f e0bc
00000090: 51c3 d8bc 6b15 6ebc 9321 88bc 57eb a63c
000000a0: edbc 72bc 76ec 233d cf7f a0b9 4bc0 d03c
000000b0: d073 89bc 5fb1 12bd e631 243d f7b0 893c
000000c0: d419 26bd efe2 99bc c008 803f b918 73be
000000d0: 2c67 fc3c d89f de3c 5854 29bf 6bfb 5a3d
000000e0: 1362 96bc 385a 1d3d 95ea 6c3d 8f44 a33c
000000f0: 1d9e a63e 1b4a 9fbe fdfe 5c3e 4f4d aebe
00000100: 81a8 1cbc 8ca9 0c3e 2ae2 a9bd f958 053e
00000110: d64d cd3d fe0f 8c3d 9732 653e cccb e83d
00000120: 20ed b83d b403 153d 8ae2 6b3e 5e57 ff3d
00000130: c0c0 bf3c 2132 0bbe bf9c ff3d 1af2 ba3d
00000140: 3dc4 973c 97f1 debb 4cf9 f23c 92bc 89bc
00000150: a49d 2cbc b79c d23c cc1b d23b 36ed 9b3c
00000160: 3506 343b ebf1 8bbc 6536 093f a91e eb3e
00000170: b162 c43d 29dd 333e 69e6 b7be 5da9 17be
00000180: ffb9 2a3e 169f 323e 5b8c 553e 3a7d 49be
00000190: 7015 173e e444 6abe 0d16 013e 3129 ffbd
000001a0: c367 25be 90cd 09bb d966 353a d8dc 82bc
000001b0: 52ee b33c 82b7 36bc e336 b3bd 7328 c83d
000001c0: f904 2d3e 21d2 283e c380 183e 9722 98bd
000001d0: 2766 b93c 32fd 4a3d bc94 cc3d a62e a1bc
000001e0: 9fbe 913c 0423 ba3b b532 c5bd 8e34 dbbd
000001f0: b3dd babd 486e f83d 1f82 a7bd f382 083e
00000200: 31df c9bd fb39 26be f724 bebd b8ca ee3d
00000210: b3e3 f8bd 4861 85be 9651 b8bd 09c8 013d
00000220: 2a3a 693d 4564 3ebd 5d27 2ebd a607 4dbd
00000230: ed1d c03d 6a8b edbd 384d 8e3d d804 8cbd
00000240: f1f6 59bd a0eb 713d f6e0 93bd 177b 9d3d
00000250: 6c21 61bd 17a8 66bd 0ffd ba3d 41d6 d93c
00000260: 0b39 bf3d 7557 d3bc e44f c0bd 3d55 903d
00000270: 3650 413d fb83 c5bc 2100 663d 70e5 0bbd
00000280: bec9 c13e a0a7 b13e 6ac6 9fbe 439d 5fbe
00000290: 56fc b7be 6ee4 4cbe 8267 333e 13db 0abe
000002a0: b123 383e e1b3 acbd c78f 9d3d 4552 dfbd
000002b0: c445 a33d b372 153c 0df2 b03d ecf1 f93d
000002c0: a2f5 06be 2c81 073e 322d cebc 0172 9f3d
000002d0: b1f3 823e b02d 86be c43b 3e3e 780b 2bbe
000002e0: 9e80 2b3e c156 a73d 22cd a2bd 5501 993d
000002f0: ea97 97bd e347 32bd 0bb3 083f 8f11 12bf
00000300: 5f1d 8d3e 1ea9 b3be 0a6b 09bd 519b e13d
00000310: f238 8fbd 4c61 8a3d 91c1 ecbd 79fb 553d
00000320: 1a1e 81bd c1eb cfbd d5ad d93d f08d e03d
00000330: 472f 4bbd b4b9 c23d 49c5 a1be 8a46 a23e
00000340: 3fe6 22be 6c36 73be ee24 68bc 80ce 913c
00000350: 19a2 1d3c 276d 693c 9c9f bc3b 4ad6 e23d
00000360: feb8 a9bd 968d c93d f58b eabd f9fe fabd
00000370: 1c38 4a3e f269 043e 9e96 17bf 252c f23e
00000380: 3b2c 3b3f 0d00 0b3d 98fe 0bbd 8db7 213d
00000390: d46d 13bd 170b ef3c 603e a23c cdcc 98bc
000003a0: 3fdf 763b 220d aa3c 44f4 ffbb 8408 103d
000003b0: 16b2 5fbd e5c9 913d cc13 6fbd 15d5 1ebd
000003c0: a891 7d3d 989c bcbc 2c18 613c 6620 0f3d
000003d0: 3b21 a43d cf3c 293e 1989 6a3d 5b82 1ebe
000003e0: a506 063e 1405 203d ae63 553e 632d d1be
000003f0: 0e10 283e cc1a c0be b800 86bc 558f d2bd
0.0029196215 -0.0099745495 0.008494526 -0.015318273 0.003548829 0.10531027 -0.020414356 0.04314349
0.06676985 0.11791243 0.058355793 -0.0042686956 0.03872584 -0.08923532 -0.088217475 -0.15093094
0.21238188 -0.17689128 -0.21034342 -0.075048946 0.1806529 -0.17520358 0.13341519 -0.085168816
0.17282812 0.15387663 -0.11833792 0.15017338 -0.094359435 -0.039169636 -0.4364023 -0.5036002
0.63828695 0.47564378 -0.42052016 -0.027351208 -0.026460322 -0.014531474 -0.016617572 0.02037589
-0.014815551 0.04002043 -0.00030612803 0.025482317 -0.016778857 -0.035813686 0.04008665 0.016808016
-0.040551975 -0.018784968 1.000267 -0.237399 0.030810915 0.027175829 -0.66144323 0.053462427
-0.018357312 0.038416117 0.057840902 0.019930152 0.32542506 -0.31111225 0.21581645 -0.34043357
-0.009561659 0.13736552 -0.082950905 0.13022222 0.10024612 0.06838988 0.2238258 0.11366996
0.09029603 0.036380485 0.23035637 0.12467836 0.02340734 -0.13593341 0.12481069 0.091282085
0.01852619 -0.006803702 0.02965989 -0.01681355 -0.010535631 0.025709493 0.006412005 0.01903401
0.002746952 -0.017083129 0.53598624 0.4592183 0.095891364 0.17564835 -0.35917976 -0.148107
0.16672514 0.17443499 0.20854323 -0.19676676 0.14754272 -0.22877842 0.12606068 -0.124590285
-0.16152863 -0.0021027066 0.00069199275 -0.015974447 0.021964226 -0.01115215 -0.08750703 0.0977334
0.16896428 0.16486408 0.14892869 -0.074284725 0.022631718 0.049557872 0.09989306 -0.019675564
0.01779109 0.0056804437 -0.09628812 -0.107033834 -0.09124317 0.121304095 -0.081791155 0.13331203
-0.098570235 -0.16233055 -0.09284394 0.11659759 -0.12152805 -0.26050782 -0.08999936 0.03168491
0.056940235 -0.046482343 -0.04251801 -0.050056122 0.09380708 -0.11598857 0.06948322 -0.06836861
-0.053214017 0.0590626 -0.07220642 0.07689493 -0.054963514 -0.056312647 0.09130298 0.026591422
0.09337052 -0.025798539 -0.09390238 0.07047508 0.047195636 -0.024110785 0.056152467 -0.034154356
0.3784923 0.346982 -0.31206065 -0.21837334 -0.35934705 -0.20009014 0.17519954 -0.13560133
0.17982365 -0.08432747 0.07693439 -0.109043635 0.07972291 0.009121585 0.086399175 0.12204346
-0.13179639 0.13232869 -0.025168035 0.077854164 0.25576547 -0.26206732 0.18577486 -0.16703594
0.16748282 0.08170844 -0.07949282 0.07470957 -0.07402022 -0.043525588 0.533982 -0.5705804
0.2756147 -0.35089964 -0.033549346 0.110159524 -0.06993283 0.06756839 -0.11560357 0.052241776
-0.063045695 -0.10152388 0.10628859 0.109645724 -0.049605634 0.09508076 -0.3159583 0.31694442
-0.15908144 -0.23751229 -0.014168961 0.017798662 0.009621167 0.014247215 0.0057563316 0.11076029
-0.082872376 0.098414585 -0.11452476 -0.122556634 0.19747967 0.1293104 -0.592142 0.47299305
0.73114365 0.033935595 -0.034178346 0.03948169 -0.035993412 0.029180093 0.019805133 -0.018652344
0.0037669686 0.020758215 -0.007811101 0.03516437 -0.054613195 0.071185865 -0.05836849 -0.03877743
0.061906487 -0.023023888 0.013738673 0.034943007 0.08014151 0.16527103 0.057259653 -0.15479414
0.13088472 0.039067343 0.20838806 -0.4085494 0.16412374 -0.37520444 -0.016357765 -0.10281245

i_weight.weight f4 [11231, 5]
00000000: 71e2 9bbb da29 04bc 3762 5bbb e287 27bc
00000010: 8f65 b63b 6425 8c3d 1d91 86bc ca5b 483d
00000020: 1b17 c23b 22e0 16bd c944 2e3d d923 37bd
00000030: a450 cf3c 5608 b2bb 825a 183a 532f a8bc
00000040: 1b0e 85bd 74f0 c13d e8de 7f3d 8959 5ebd
00000050: a54b 7b3c 469f 7ebd 8434 873d b9f9 a6ba
00000060: 7361 6ebd c9bf a63d f3dc f7bd b272 98bd
00000070: 29f0 e73c 6483 fd3d b960 eebc bf8a 0fbd
00000080: 9105 cb3b 4644 adba c8a6 413c b9ff 34bd
00000090: 675c 4c3d 696b 4e3d f038 ef3b 95a1 553d
000000a0: 96bb 553d cbb5 5abd d12a 083d a77d 49bc
000000b0: 6415 aebc 3ed8 a13d d3dd 95ba 8a49 063d
000000c0: 86eb 9fbd 270d bbbc 2926 8d3d bad7 ecbb
000000d0: e154 a7bd a45c 80bd 7eaf 493d bcf6 b5bb
000000e0: 7b25 a63b 9a4f 54ba 1200 023c 28ed 10bc
000000f0: d6ba 653d a05c 4b3d a8fb b8bc fd95 823d
00000100: c7ee 89bd d05b f13d 3fbe c33d 7833 8ebd
00000110: f8a8 fa3d 9acb efbd 525d 8a3d 7739 403d
00000120: 748a c5bc 7331 a53d 5381 afbd 9db0 e6bb
00000130: 423e 17ba e2f5 113c 66a4 dcbb 317c 02bc
00000140: b958 a43d 618a 973d 1500 8ebd cbbd bc3d
00000150: af52 a8bd 1385 af3d e68a 5d3d 1349 72bd
00000160: 42c7 c13d 865b bbbd 5ffe d63d 68c0 9d3d
00000170: b5ef 2abd 6966 a63d 222e d8bd a9a6 6abd
00000180: 9308 683d 32ca 763d bc1e f8bc e31d 4e3d
00000190: b158 643d 98bb 443d f882 78bd d8b0 9e3d
000001a0: bab0 47bd a5b1 6b3d 3b73 7b3d 90c6 f7bc
000001b0: 6cf6 5c3d e851 5abd a35a ab3d 8360 913d
000001c0: 7651 57bd da34 b13d 777f c7bd e9d5 d63c
000001d0: bd71 ed3c 84e5 cdbc 5c02 063d 37d4 19bd
000001e0: 082b ce3c c0d1 d03c ad4e a0bb dbc8 9a3c
000001f0: 95d7 1ebd 6708 183d 4230 fe3c 8772 6bbc
00000200: 9944 dd3c 219e 2dbd a198 23bd eef1 2ebd
00000210: 8af1 883d 3b62 2b3c 5bf3 1538 326f b33c
00000220: 9a00 503c b670 21bd abcc 133d 3f4f 3dbd
00000230: a9eb 743d 7697 9dbd a2c7 b63d 8520 353d
00000240: ecb9 9dbd 0df3 963d 8c7b 97bd be1f 2fbd
00000250: 87a6 5dbd 942d 623d bb76 8f3d 2e8a bdbd
00000260: 6207 89bd fe36 94bd 9e11 9e3d 6b39 073c
00000270: a9d7 edbb 70c9 8d3c d2e0 99bc 172a ecbc
00000280: f93d 1c3d 5159 2fbd 623a 833c 760c 1bbb
00000290: dba5 1cbd 2b97 d53c 8cef 103d 04f8 e93c
000002a0: 28b6 10bd c49d d8ba 63b3 683c b900 fbbb
000002b0: e08f bc3b 18ab 34bc 9888 3f3c 3e6c e83c
000002c0: da69 f53c ec99 523b 2283 c6bc b9f3 4dbc
000002d0: 3418 873d fa85 973d cb76 243d 9329 64bd
000002e0: 2f77 27bb 6450 8c3d 16d6 36bd 9eea a23d
000002f0: 00bd b1bd 22ed 963d 72e2 e33c 3d82 14bd
00000300: 326a 213c f3ff bbbc aee4 9d3c 9ee8 96bc
00000310: f069 a1bb 6594 78bc 79c9 333c 5dc5 1c3c
00000320: 8776 8c3d b894 83bd fca2 713d cf50 6ebd
00000330: 5ebd 843d b0d0 8a3d 48db 1d3d 0cb1 e9bc
00000340: f971 893d d44e 82bd 1bb8 d33d 8812 bc3d
00000350: 3f4c 6fbd f7b5 f63d f6d3 0fbe eabb 673d
00000360: 1b16 3f3d 7dbb 45bd c245 4a3d 8822 3bbd
00000370: d379 a83d 158e 8b3d 5411 9cbd 1a6c 993d
00000380: 6d1a b8bd a632 063e b3d2 e63d 50d8 97bd
00000390: 761e 043e 2706 06be 14fc 3fbd 8954 363d
000003a0: 1ef2 6d3c 9c47 94bd c4d5 a1bc 9f90 eebb
000003b0: 04e6 ad3c c149 6bbc 7586 e6bb e6c8 84bb
000003c0: 901d d23d e6ed 283e 421e 5ebd f1ba 18be
000003d0: c4c6 bdbd d094 02bc 7242 08bc 67bc ca3c
000003e0: 67f9 063c 0303 91bb d345 d6bd 44bb abbd
000003f0: 09a6 dfbd e6c4 bfbd b88e db3d ad1e 81bd
-0.0047572185 -0.008066619 -0.0033475289 -0.010225268 0.005566306 0.06843069 -0.016426617 0.048915662
0.0059231645 -0.036834843 0.042546067 -0.04471192 0.025307007 -0.0054331226 0.00058118266 -0.020530378
-0.06496831 0.09469691 0.06246844 -0.054284606 0.015337859 -0.062163614 0.066018134 -0.0012739218
-0.058198404 0.08142049 -0.121026896 -0.074437514 0.02831276 0.123785764 -0.029098855 -0.035044428
0.006195732 -0.00132192 0.011819549 -0.04418919 0.04989281 0.050395403 0.0073004887 0.05215605
0.05218085 -0.053396028 0.033243958 -0.012298024 -0.021250434 0.07902573 -0.0011433907 0.032784976
-0.078085944 -0.02283342 0.06892044 -0.007227865 -0.08170486 -0.0626767 0.049239628 -0.0055530947
0.005070386 -0.000809902 0.007934587 -0.008845605 0.056086384 0.04964888 -0.022580937 0.06376264
-0.06734996 0.1178509 0.09557771 -0.06943411 0.122392595 -0.11708756 0.06756081 0.046929803
-0.024113871 0.08066072 -0.085695885 -0.007040097 -0.000576947 0.008908721 -0.006733465 -0.00796418
0.08024735 0.073994406 -0.069336094 0.09215888 -0.08218896 0.08570304 0.054087542 -0.05915172
0.094618335 -0.09148316 0.10497736 0.07702714 -0.04173251 0.08125002 -0.10555674 -0.057287846
0.056648802 0.060251422 -0.030288093 0.05032147 0.055748645 0.048030466 -0.060671777 0.07748574
-0.048752524 0.057542462 0.06138919 -0.03024605 0.053945944 -0.053300768 0.08366897 0.07098486
-0.05256792 0.08652659 -0.09741109 0.026225047 0.028984899 -0.025133856 0.032717094 -0.0375559
0.025167003 0.025490642 -0.0048921914 0.018894603 -0.038779814 0.037117388 0.03102887 -0.014370567
0.027010249 -0.04238713 -0.03994048 -0.04271119 0.06686695 0.010460432 3.575101e-05 0.021903608
0.012695456 -0.03941413 0.03608386 -0.046218153 0.059795056 -0.076949045 0.08924796 0.044220466
-0.077014774 0.07370577 -0.073966116 -0.04275488 -0.05411389 0.055219248 0.07005068 -0.09254871
-0.06690861 -0.072370514 0.07718204 0.008253436 -0.0072583747 0.017307967 -0.01878396 -0.028828664
0.03814504 -0.04280979 0.01601905 -0.002365855 -0.03824411 0.026073059 0.0353847 0.028560646
-0.035329968 -0.001652651 0.014202925 -0.0076599983 0.005754456 -0.01102712 0.011690281 0.028371926
0.0299577 0.0032135202 -0.02423245 -0.012570315 0.06596413 0.07398601 0.040152352 -0.05570371
-0.0025553217 0.06851271 -0.044637762 0.07954906 -0.08678627 0.07369448 0.027817938 -0.036257017
0.009851979 -0.022949195 0.019274082 -0.018421467 -0.004925959 -0.015172099 0.010973328 0.009568539
0.06858545 -0.0642485 0.058993325 -0.058182534 0.064814314 0.06778085 0.0385392 -0.028526805
0.06711192 -0.063626915 0.1033785 0.09183222 -0.058422323 0.12046426 -0.140457 0.056575693
0.04665194 -0.048274506 0.049382932 -0.04568723 0.08226361 0.06814209 -0.076204926 0.07491322
-0.08989415 0.13105258 0.112706564 -0.07414305 0.12902245 -0.13088284 -0.04687126 0.044514213
0.014523057 -0.07240221 -0.019755252 -0.007280424 0.021227844 -0.014360846 -0.0070350715 -0.0040522693
0.10259545 0.16497001 -0.054228075 -0.14915062 -0.09266427 -0.00797005 -0.008316623 0.02474804
0.008238173 -0.004425408 -0.10462537 -0.083853275 -0.109203406 -0.09363727 0.10720581 -0.06304679

u_bias.weight f4 [2322, 1]
00000000: 84b1 893c ed79 393e 1fa5 553e b7bb e53e
00000010: 43f3 843e a9c0 ac3e 5179 853f 5660 313e
00000020: 7a38 ea3d 5759 153e 304e 9f3f 6164 6f3e
00000030: 5365 1c3f cdce 953e 1f8a 2b3f 00aa b33e
00000040: d42c d23d 301c 943d 3ef4 643f 9e57 c13e
00000050: 1f5f 033f 988a a53d 9b6d b93e 8bfc 603e
00000060: 091a 923e d24a 623e 2742 133f 755f 8c3e
00000070: 109d 553e c173 823d ccc2 533e 2c93 a03d
00000080: d08e 2f3f 619e 143f 5eef 2c3e 2e4e 213e
00000090: d3ea b93e c5ac 913d 281d 4c3f 47f6 353e
000000a0: f3c8 783e f79b 0e3f 79f1 b53d 9904 263e
000000b0: d918 463f 0940 9a3d fbeb a63d 886d d13d
000000c0: a684 a43e 0bfe 853e 9e22 0f3f e2b0 cd3e
000000d0: 31d6 c93e f03c 393e 7138 903d 1d67 173f
000000e0: 447f 623f 45f7 063f baa1 943d 26e1 733e
000000f0: 7f6a 833c a967 473f 87c1 393d a72a 073d
00000100: 877a 1c3f a77a 533f 4a4f 263f 42af de3e
00000110: bdfc 153e ea54 2c3f e4f7 df3e f081 b63e
00000120: 1f0c e53d f633 af3f 0939 ad3f 3be7 4c3f
00000130: 8071 823f bdd6 983f b1bb d13d 3f2c c93e
00000140: a6ec 953d aebc 093e cbe8 293d 16ed 8b3f
00000150: 55c5 203e 0aeb 7e3e 9474 e43d 80cb 603f
00000160: 0b38 a43f 617f 1f3e 7c7f 953e f227 e93e
00000170: fb2a 713e 3f91 0e3e 8b52 b63d 187c 853d
00000180: 76d3 423e 783b 2f3e ff37 a43d 5f0c e13f
00000190: 80a6 0d3d 6a1f 0b3e f8ea d93e 8362 823e
000001a0: 0377 953d 4262 893d 6bd1 043f f2d8 4a3f
000001b0: 336b e43e 1416 833e 12cc 493e 27e3 0c3f
000001c0: 887d 6c3f 19f5 ad3e d17d 293f 0750 1a3e
000001d0: 76ed 283f 6a54 2e3f 47ca 283f 25c1 ee3e
000001e0: 30ca c13e 70f9 9f3d 8505 e73d b67b 323f
000001f0: 0728 3b3e e566 0a3f d41c 0740 bb4e 863f
00000200: 901b d53d 4fa6 0d3e fc38 283f e546 8c3e
00000210: 8928 a93e 5417 fd3c b31c 893f 1038 a83f
00000220: 1ce3 173d 337b 483d 6ae4 403f 94d5 643f
00000230: f919 c93c d3e6 b83d 0c77 b03d 61ce b93e
00000240: d1f9 803d d866 3e3f d537 573e bf7b 263e
00000250: bde2 c33e edbd 483e 68c8 143f 472f 3c3f
00000260: 8c1a 683e 0866 733f 3402 6a3f 62b9 f63d
00000270: 43c3 483e a4e1 d63d be9b bc3e 75da f53e
00000280: aaf4 f83d 0171 c13d 2d1c 833e 66f7 d33e
00000290: 64b7 763f c299 723e 0ecf da3d 1849 0d3f
000002a0: 7643 653e 5f85 523f c8b7 af3e c5bb 273e
000002b0: e02f e03d a2df 1b3e 2f8d ac3f 8988 ce3e
000002c0: b950 a53e 7cab 6f3e d21c 673d 0b22 d23e
000002d0: bceb d6ba 1188 473e 2f46 5e3e 49e4 863f
000002e0: 6222 ed3d 6e18 603e 45c1 9f3d 3971 b63e
000002f0: f4a9 ba3e 17bf 0c3f e18e 0b3e 6738 083f
00000300: cf2b 983e a915 d03d 0917 fd3e 5bc1 cd3e
00000310: f47f 473e a373 0f3f 94c8 c03d 8dd0 b13d
00000320: 30cf 313f 8e6a ca3d 4a2f 313f 3afe e33d
00000330: c173 653f 5d23 393f 92ba 423f 4da0 c93f
00000340: a181 8b3d 9586 533f 100d 5c3e ab70 053f
00000350: fcf8 9a3e aa32 853d 46a4 8b3f 8515 103f
00000360: 4f6d 3d3e 9bab 8d3d d5c4 f63d 4792 db3d
00000370: 9555 b13d f9ef d63d 784a 3a3f 2ab6 3f3e
00000380: 293c 563e 34b0 843e cc87 6e3d 0dcc c73d
00000390: 6df6 b73d f13b 4f3e 6e7f 203f acf6 073e
000003a0: ac12 823f 43bc 183e 350f 343e 385b 943e
000003b0: 5485 d43e 856a 323e 41c1 0f3f 6e22 0f3f
000003c0: 9a8b 403f 280a 223e f2ab fa3e fb05 7c3e
000003d0: 120a ff3d 0cc9 c33d 095e 8d3e 8895 143e
000003e0: 01ce cb3d 4d31 af3d 6d63 563d 3cb2 ce3e
000003f0: debc 473e 8811 b23d 1381 d53e 5620 cc3e
0.016808279 0.18112917 0.2086377 0.44869778 0.25966844 0.33740738 1.0427648 0.17321905
0.11436553 0.14584862 1.2445736 0.23378135 0.6109211 0.2925934 0.6700763 0.35090637
0.102624565 0.07231939 0.89435184 0.3776216 0.5131702 0.08083075 0.36216435 0.21971337
0.28535488 0.22098854 0.57522815 0.27416578 0.20860696 0.063697346 0.20679778 0.07840571
0.6857729 0.5805417 0.16888186 0.1575248 0.3631197 0.07113031 0.7973199 0.17769729
0.24295406 0.55706733 0.08883948 0.16212691 0.77381665 0.07531745 0.081504785 0.102259696
0.32132453 0.26170382 0.55912197 0.40174013 0.39421228 0.18089652 0.07042015 0.59141713
0.8847544 0.52721053 0.072574094 0.23816356 0.016041992 0.7789255 0.045350578 0.03299966
0.6112446 0.8260903 0.64964736 0.43493086 0.14647193 0.6731707 0.43743813 0.3564601
0.111839525 1.3687732 1.3533031 0.8004033 1.0190887 1.1940533 0.102408774 0.3929157
0.07320528 0.13450882 0.041481774 1.0931728 0.15700276 0.24894348 0.11155048 0.87810516
1.2829603 0.15575935 0.29198825 0.45538288 0.23551552 0.13922594 0.089024626 0.0651781
0.19025978 0.1711253 0.08018493 1.75819 0.034582615 0.13586202 0.4256208 0.25465783
0.0729809 0.06708194 0.51882046 0.7923728 0.44613037 0.25602782 0.19706753 0.55034107
0.92379045 0.33976057 0.66207606 0.1506959 0.65987337 0.68097556 0.6593365 0.46631733
0.3784957 0.07811248 0.1128035 0.6972002 0.18276988 0.54063255 2.1111345 1.0492777
0.10405648 0.13832973 0.6571195 0.27397838 0.33038738 0.030894913 1.0711883 1.3142109
0.037081823 0.048945617 0.7534853 0.89388394 0.024548518 0.09028401 0.086164564 0.36290267
0.06297649 0.7437568 0.21017392 0.16258143 0.38258925 0.19603701 0.58118296 0.7350964
0.22666377 0.9507756 0.9140961 0.12047078 0.19605736 0.10492256 0.36837572 0.48018232
0.12156041 0.09445382 0.25607434 0.41399688 0.9637358 0.23691466 0.10684024 0.5518966
0.22389016 0.8223476 0.343199 0.16380222 0.109466314 0.15222028 1.3480586 0.40338543
0.3228815 0.2340526 0.05642397 0.41041598 -0.0016397159 0.19485499 0.2170646 1.0538417
0.115788236 0.21884319 0.07800535 0.35633257 0.3645779 0.5497908 0.13628723 0.53211063
0.29720923 0.10160381 0.49431637 0.4018658 0.19482404 0.5603582 0.09413257 0.08682356
0.6945677 0.09883605 0.6921278 0.11132474 0.8962975 0.72319585 0.76065934 1.5752045
0.06811834 0.8262723 0.21489358 0.5212504 0.30268085 0.06503804 1.0909507 0.56282836
0.18498729 0.06917497 0.120492615 0.107212596 0.086589016 0.1049499 0.7276988 0.18721834
0.20921387 0.25915682 0.058234975 0.097557165 0.08982549 0.2023771 0.6269444 0.13277692
1.0161948 0.14915566 0.17583926 0.28975844 0.4150797 0.17423446 0.5615426 0.5591191
0.75213015 0.15824187 0.4895931 0.24611656 0.12453093 0.09559831 0.27610806 0.14510167
0.099514015 0.08554325 0.052340914 0.40370357 0.19505641 0.0869475 0.41700038 0.3986842

i_bias.weight f4 [11231, 1]
00000000: eba3 a63b 61e6 243e b206 f63d 1c5a 053e
00000010: dea7 be3d 78dc 1e3e d7eb 4e3e 0f52 ba3d
00000020: 3431 053e 44be e63d 7db5 e23d 6676 2d3d
00000030: 0bbf f13d f9f1 2b3e 48ae e93d fb96 023c
00000040: a37a e63d 2658 083e 2173 293e 142c 1b3e
00000050: 8a28 9e3d 40a2 a33d d408 043e 281e 323d
00000060: abcb c63c 9d1b ab3d 8861 2e3e d7c2 ee3d
00000070: 88ee ea3d 0802 053e 6d75 cf3d 41fb e13d
00000080: 0161 093e fefb 193e 9247 813c 98fc 903d
00000090: de3d 523e 049d fe3d 0000 353d f30c a03c
000000a0: c21c 903d c99e c83d e31f 443e b3a8 403d
000000b0: d1e0 c63d 3aa1 323e 1b15 6b3e 0ebc 5b3d
000000c0: 0b9e 883e 87c5 9f3c b782 243e 61be 0d3e
000000d0: 6c08 5f3e 5e66 0b3e cccd 9a3d 54cc 393d
000000e0: 549c 223e 9385 633d 97ae ab3e ba60 263d
000000f0: fc35 953d cfbc 853d 0fda 6f3d e9d0 203d
00000100: 54a6 8d3e a027 3c3e d5c4 dd3d 1bf0 9a3e
00000110: 5253 423e 5738 963e 2604 fd3d 232a 153e
00000120: 2625 383d c28d 113e e6c5 a73e 4cd5 973e
00000130: f036 cd3d 8a22 fe3d 6779 003e bd6e b13d
00000140: a3d0 8f3d e0de 593e b73d 4c3e 2e83 de3d
00000150: 9906 433d d71c 803e 1d4c ce3d e379 e33d
00000160: f199 3f3d dec9 a93d f4d9 033e f131 3f3e
00000170: 1f10 403e 526f c43d ea46 263e d73c 983d
00000180: 18b2 913e ac67 9e3d 0dc4 fe3d 3eda f23d
00000190: 9989 d43d 1636 2e3d b8ad a33d ce08 f73d
000001a0: ec13 443e 7985 1e3e 93e4 a43d cee8 283e
000001b0: b666 db3d 8bfb 823d 5f0c 313e 32d0 313e
000001c0: 01e1 213e 9222 a23d 8993 6a3d 5a48 1f3e
000001d0: eb73 663d 0dcc 973c f072 903e b2e3 223e
000001e0: 7342 303e 8ec4 6e3e ea1f 493e 43cc da3d
000001f0: 82c2 943c 0639 073e ea0c af3d 3740 583d
00000200: 1198 043e d84d a53d 03ef 963e 3ebe 2c3e
00000210: 1cee 283e 0121 ee3c 5850 ba3d 3f50 f63d
00000220: ab84 b93d c457 013e 0c69 843d 99d1 b63d
00000230: b11b 8b3d fe76 633e 4b38 f63d 1c26 b93d
00000240: 2918 8c3d e229 c93d 5c9c 273d ae40 643e
00000250: feb0 dd3d 4069 473e 3052 053e e4d1 b83d
00000260: ee1d fa3c 0eff d63d d888 f73d ea6f 2a3e
00000270: 4a96 5b3e add0 853d aded db3d c4dd 563e
00000280: 8cd5 383d f660 8b3e d16c 013e d4d6 723d
00000290: baf6 133e 0e17 953e 294b bf3d 4ffd f63d
000002a0: bd8e 993c 73d2 e03d 7a80 c83b e576 9c3d
000002b0: 27c1 353d 0683 853e fbc6 2b3e 4ae2 7b3d
000002c0: a086 0a3e 3337 893d c534 d33d 09da a13d
000002d0: 50fa 1a3e 0322 2d3e dbfc 823d 6aa4 a43e
000002e0: 61ed 0e3d 541e 913d adc6 2d3e 9c7f 553e
000002f0: 6bd1 163e 9c93 073e e739 a93d 8a9d 9b3d
00000300: 6a9b 3d3d 7c75 0c3e d1d2 213e 36df 393d
00000310: d467 533e cb4d 603d 5175 063e 0e51 413e
00000320: 9bf3 6f3d 4d1d ed3d 2bf2 093e 2bdc ba3d
00000330: 251f 4f3e c7f2 3b3e 6949 333d 7652 243e
00000340: dba2 623e d146 123e fa1f c33e 4979 c93d
00000350: ee0e 2e3e afbe da3e 97b1 143d 7052 653e
00000360: c8e4 823e ac9e 443d d4a5 323e 5ddc 163d
00000370: f87e 0e3e 57de 113e 7f56 1d3e 284d 383e
00000380: 5d3b eb3d e8d6 913d 30af 033e f874 863e
00000390: e21d a53d e28e 053e 7e0d 053e cc61 fc3d
000003a0: 193b c53d f9b7 253d d9fb 943d fbee 163e
000003b0: 92da 2ebc 6ea0 4a3e a5c2 de3d 57cd f23d
000003c0: 01cb 333d 2a11 2d3e 0ed5 113e b60e 123e
000003d0: 8bf5 8d3d 3938 2f3e 521b 293d 5663 a03d
000003e0: e477 903d 56a8 bd3d 02b6 e93d dcb7 5f3e
000003f0: 373e 363e d2d9 453e 6242 803e 6530 773e
0.0050854585 0.16103508 0.12012996 0.13022655 0.09309362 0.1551379 0.20207153 0.09097683
0.13007051 0.11266759 0.110697724 0.04234924 0.11804017 0.16791524 0.11410195 0.007970567
0.1125386 0.13314876 0.16547824 0.15153533 0.07722576 0.07989931 0.12893993 0.04348579
0.024267038 0.08354876 0.17029393 0.116582565 0.114712775 0.12989056 0.10129819 0.11034251
0.1341591 0.15037534 0.015781198 0.070794284 0.20531413 0.12432292 0.044189453 0.019537425
0.07036735 0.09795911 0.19152789 0.047035884 0.09710849 0.17444316 0.2295727 0.05364614
0.26683077 0.019503368 0.16065489 0.13842155 0.21780556 0.13613269 0.07558784 0.045360878
0.15879947 0.05554731 0.3353164 0.04061959 0.07285687 0.06530153 0.058557566 0.039261732
0.2766596 0.1837449 0.10828558 0.3026131 0.18977097 0.2933986 0.12354307 0.14566855
0.044957303 0.14214233 0.32768172 0.2965492 0.10020244 0.124089316 0.12546311 0.086637
0.07022216 0.21276426 0.19945417 0.10864864 0.047613714 0.25022003 0.10073111 0.111072324
0.04677767 0.08290456 0.12876111 0.18671395 0.1875615 0.09591545 0.16237989 0.07433479
0.28456187 0.077346176 0.124397375 0.11858033 0.10377807 0.04253205 0.079921186 0.12062226
0.19148225 0.15480603 0.080514096 0.16495058 0.1071295 0.06395634 0.17289875 0.17364576
0.15808488 0.0791675 0.057269607 0.15554944 0.05626289 0.018529916 0.2821269 0.15907171
0.17212848 0.23317167 0.1964108 0.10683491 0.018159155 0.13205346 0.08547385 0.052795615
0.12948634 0.08071488 0.29479226 0.16869447 0.16497082 0.029068472 0.090973556 0.120270245
0.090585075 0.12631136 0.064653486 0.08926696 0.06792391 0.2221336 0.12022456 0.09040472
0.06840546 0.09822442 0.0409206 0.22290298 0.10824774 0.19473743 0.13019633 0.090244085
0.03053185 0.104978666 0.12086648 0.16644254 0.2144405 0.06533942 0.107386924 0.20983034
0.04512553 0.27222413 0.12639166 0.059286907 0.14449587 0.29119152 0.093405075 0.120600335
0.01874482 0.1097764 0.006118831 0.07639865 0.044373658 0.26076525 0.16775124 0.061495103
0.13527918 0.066999815 0.10312799 0.07902915 0.15134549 0.16907506 0.063958846 0.32156688
0.03489435 0.07085863 0.1697032 0.2084946 0.14728324 0.13239902 0.08262997 0.075984076
0.046290793 0.13716692 0.15803076 0.045378886 0.20645076 0.05476169 0.1313069 0.18878576
0.05858193 0.11577854 0.13471286 0.09124025 0.20226724 0.18354331 0.04377118 0.16047081
0.22132437 0.14284827 0.38110334 0.098375864 0.16997883 0.42723605 0.036302175 0.22394729
0.2556517 0.048002884 0.17446071 0.03683125 0.13915622 0.14244972 0.15365027 0.17998183
0.11485932 0.07121068 0.12859797 0.26261115 0.0806234 0.13042787 0.12993428 0.12323341
0.096304126 0.040458653 0.07274599 0.14739601 -0.010672228 0.19787762 0.10876969 0.11855572
0.04389477 0.16901079 0.1424143 0.14263424 0.06931599 0.17111291 0.04128582 0.07831447
0.07054117 0.09260623 0.11411668 0.2184748 0.1779717 0.19321373 0.25050646 0.24139555

grad_avg f4 [2322, 5]
00000000: 0000 0000 0000 0000 0000 0000 0000 0000
00000010: 0000 0000 c716 21ad c188 f02c 646f 42ac
00000020: 2952 f3ac 4fe7 49ad 1cb3 afb7 98b9 6b35
00000030: ae45 6eb7 9a07 a137 dfd1 b237 f64c 0c36
00000040: 5127 50b6 6d49 1536 2410 3436 2e8f a035
00000050: aff2 43b6 d24a 5d36 cddc 3cb6 b20f ec35
00000060: c0fb 46b6 b232 a1b3 f380 8333 0d1e 40b3
00000070: 5b8b 6333 33a8 6333 99ba 7836 cb19 b136
00000080: c5fd 80b7 1688 82b6 a8ad 5537 2667 8233
00000090: 1b64 7933 0c7d 0833 55c3 1b33 1d42 3db3
000000a0: 58ef 2c2f 7974 05b0 5ccd 942d 5e41 afaf
000000b0: 3bc3 592f 1cc5 562c 5867 89ac 31dc 40ac
000000c0: 5486 ab2c a444 9d2c 5702 15b8 0e5b da37
000000d0: 423b 8ab7 7120 3d37 891f 8037 0730 80b5
000000e0: 9314 2a34 4153 aeb4 7fc4 47b5 191d 12b4
000000f0: cc60 86b6 7846 ad36 1629 2eb6 46b3 de36
00000100: d9be e135 073e 82ac 809b 192c 0dae 76ac
00000110: f082 50ac e6fc f8ab 33b3 f5b6 0019 c1b6
00000120: 4e40 3934 d5a7 fcb5 1980 b4b6 98b6 b8b5
00000130: a0b4 79b4 acca b235 482a aeb5 9b47 81b5
00000140: a04b 219f c86a 481e 8863 7a9f 8d1b c81e
00000150: 34f0 aa1e ddef 5ab0 2a40 5230 21c7 06b1
00000160: 9cc6 3330 e0e3 b030 a3f7 81b6 c8b5 17b6
00000170: 8407 0a34 99a0 d4b5 fe3a 1636 6ac3 a433
00000180: b79a b5b3 9dc8 c7b3 119a ebb3 2933 d833
00000190: 227c 8fb6 c71d da36 fbe3 a6b6 69a6 9036
000001a0: b3ef ba36 10ff 0282 5a76 cf01 b7f3 1902
000001b0: db83 4a82 1613 c701 b2fb 9336 9b36 dfb6
000001c0: e4c4 0ab7 31a7 19b7 082e e9b6 b888 e329
000001d0: c25f 06a9 906d 96a9 9b58 1daa 636d eb28
000001e0: 2859 2cb1 c284 802f 6aeb 4632 f6ee 2e32
000001f0: d999 2132 2d2e c0b4 1c07 ad34 a23b edb4
00000200: 5b00 0435 d519 cf34 80c0 8332 e1fd 8fb3
00000210: fa96 6433 17b2 ae33 ac19 d6b2 4165 97b2
00000220: bf4b e2b3 985a d333 3a03 b933 44b7 5433
00000230: ca24 ddb0 b1a0 c630 a0ba 20b0 82c1 9230
00000240: a2b7 7930 822f 87b2 c149 3032 a06d 63b2
00000250: 4d3b 4f32 d20c 4132 44e7 84ad 81ab 29ac
00000260: 29f2 99ad 219c 752b 529c b42d 462f 07b3
00000270: 2490 ecb2 5bee cd32 47d7 fbb2 773e ac32
00000280: 1dbb 96b5 891f ffb4 39c5 bb34 57ee a333
00000290: 3d00 3135 3e47 a434 7e35 9fb4 af84 7234
000002a0: 71ea aab4 b3c8 0034 ce33 09af 16d5 262f
000002b0: 1a9b f8ae 2f9e d52d c0f4 82ae 8ad6 66b7
000002c0: 1ca7 7937 8c32 4db7 a324 9336 0000 28b6
000002d0: 3705 afb2 f889 b032 8906 33b2 6715 8132
000002e0: 7c70 86b2 f280 b3b5 9bc0 9535 8041 5eb5
000002f0: 46ea 9f35 d568 6434 a41d 7db7 c1c6 7b37
00000300: 43d4 2ab7 466f 3737 1298 9b36 76f9 b4b5
00000310: 8a8f 7c35 940c 86b5 2c36 d335 d9af 0bb5
00000320: 736f 8e33 45b0 e633 abd4 efb3 125e f6b3
00000330: bf47 5f33 4893 cdb5 d504 7437 330f 6fb7
00000340: 91df 5c34 1a3a 8437 9fb9 bf0c 42d0 128d
00000350: 458d 2c8c fd49 558c da91 ba8c d82b 8b94
00000360: 745e 4514 7554 7194 ca1d 6d14 8b2d 8e14
00000370: da25 4cb6 e2b1 0db7 805a 8137 411e 46b7
00000380: 4bd1 d3b7 b43b ae8e c8f9 af0e 5352 478e
00000390: b689 640e 970b fb8d 0900 0080 0900 0000
000003a0: 0800 0000 0900 0080 0900 0000 9b1e 4ba7
000003b0: 6ab3 8627 4f40 66a7 79a2 3c27 6613 5b26
000003c0: 44f8 ecaf 9d4c 892f bd41 0faf f0ef 6caf
000003d0: c069 e7af 1192 d7b4 bafd 3ab4 7e69 9334
000003e0: 3b52 9cb4 055d d032 ac5c 0cb7 b180 4737
000003f0: c5df e4b6 8ccd 2037 a538 c535 2b15 b835
0.0 0.0 0.0 0.0 0.0 -9.156848e-12 6.836393e-12 -2.7630892e-12
-6.915597e-12 -1.1476888e-11 -2.094503e-05 8.7814396e-07 -1.4202129e-05 1.9196235e-05 2.1316982e-05 2.0906423e-06
-3.10173e-06 2.224547e-06 2.6831485e-06 1.19626e-06 -2.9198525e-06 3.2975117e-06 -2.8142706e-06 1.7587938e-06
-2.9650837e-06 -7.506368e-08 6.1236186e-08 -4.4730815e-08 5.29793e-08 5.3005532e-08 3.7063494e-06 5.2780138e-06
-1.537696e-05 -3.8901444e-06 1.2736222e-05 6.072359e-08 5.8065876e-08 3.1778697e-08 3.6266403e-08 -4.406512e-08
1.5728341e-10 -4.8550636e-10 1.691685e-11 -3.187876e-10 1.9805395e-10 3.0520647e-12 -3.9052477e-12 -2.7407072e-12
4.8750257e-12 4.469829e-12 -3.5526547e-05 2.6030026e-05 -1.6478476e-05 1.1272831e-05 1.5273474e-05 -9.550721e-07
1.5839969e-07 -3.24706e-07 -7.4419216e-07 -1.3607895e-07 -4.00478e-06 5.1640054e-06 -2.5951936e-06 6.6369857e-06
1.681935e-06 -3.7017086e-12 2.1828928e-12 -3.505532e-12 -2.9631263e-12 -1.7691653e-12 -7.3224305e-06 -5.7547586e-06
1.7252862e-07 -1.8824309e-06 -5.3793306e-06 -1.376221e-06 -2.3255643e-07 1.3321019e-06 -1.2976316e-06 -9.632089e-07
-3.4155632e-20 1.0609994e-20 -5.302189e-20 2.1187218e-20 1.8098796e-20 -7.9648804e-10 7.648874e-10 -1.9612758e-09
6.540206e-10 1.2870451e-09 -3.8733283e-06 -2.2606564e-06 1.2854986e-07 -1.5841971e-06 2.238608e-06 7.672391e-08
-8.456612e-08 -9.303151e-08 -1.0971065e-07 1.006759e-07 -4.276183e-06 6.500373e-06 -4.973726e-06 4.310907e-06
5.5711366e-06 -9.624091e-38 7.6209617e-38 1.1310607e-37 -1.4878457e-37 7.312844e-38 4.4102426e-06 -6.652275e-06
-8.271283e-06 -9.158438e-06 -6.9493e-06 1.0104542e-13 -2.9837034e-14 -6.680344e-14 -1.3975142e-13 2.613768e-14
-2.5079974e-09 2.3377394e-10 1.1578644e-08 1.0182466e-08 9.406414e-09 -3.5796384e-07 3.2228934e-07 -4.418808e-07
4.917435e-07 3.857555e-07 1.5337946e-08 -6.705137e-08 5.32227e-08 8.134901e-08 -2.4924553e-08 -1.7624759e-08
-1.0537723e-07 9.841932e-08 8.615321e-08 4.9526776e-08 -1.6090322e-09 1.4452067e-09 -5.847287e-10 1.0677896e-09
9.084663e-10 -1.5737672e-08 1.0261318e-08 -1.3238065e-08 1.2062469e-08 1.1236994e-08 -1.5109365e-11 -2.4111548e-12
-1.7501627e-11 8.725816e-13 2.0533051e-11 -3.1475132e-08 -2.7539564e-08 2.3973532e-08 -2.9318143e-08 2.0051841e-08
-1.1230328e-06 -4.7520396e-07 3.4974963e-07 7.633633e-08 6.5937985e-07 3.0599216e-07 -2.9654979e-07 2.2586276e-07
-3.1835546e-07 1.1993943e-07 -1.2478482e-10 1.5173315e-10 -1.1305286e-10 2.4285544e-11 -5.955192e-11 -1.375902e-05
1.4880465e-05 -1.2230721e-05 4.3852065e-06 -2.503395e-06 -2.0375053e-08 2.0551838e-08 -1.0420657e-08 1.502731e-08
-1.5650805e-08 -1.3374067e-06 1.1157421e-06 -8.279676e-07 1.1914606e-06 2.1272292e-07 -1.5086876e-05 1.5007042e-05
-1.0182211e-05 1.0933558e-05 4.6370633e-06 -1.3483648e-06 9.408619e-07 -9.987439e-07 1.5736491e-06 -5.203743e-07
6.632663e-08 1.0742273e-07 -1.1167989e-07 -1.1472379e-07 5.1986486e-08 -1.5316555e-06 1.4544658e-05 -1.4249049e-05
2.057043e-07 1.5762682e-05 2.9539926e-31 -4.5240405e-31 -1.329291e-31 -1.6431188e-31 -2.8745619e-31 -1.4052707e-26
9.964586e-27 -1.2184047e-26 1.1971317e-26 1.43563e-26 -3.0420401e-06 -8.4456715e-06 1.542014e-05 -1.1808764e-05
-2.525062e-05 -4.2951804e-30 4.338136e-30 -2.4568281e-30 2.8169475e-30 -1.5471859e-30 -1.3e-44 1.3e-44
1.1e-44 -1.3e-44 1.3e-44 -2.81885e-15 3.7386992e-15 -3.1953774e-15 2.6178318e-15 7.600718e-16
-4.3104553e-10 2.4974592e-10 -1.3029129e-10 -2.1549318e-10 -4.2093795e-10 -4.0153148e-07 -1.7414905e-07 2.745764e-07
-2.9117095e-07 2.4256687e-08 -8.366227e-06 1.1891288e-05 -6.8209797e-06 9.584601e-06 1.469413e-06 1.3715229e-06

sqr_avg f4 [2322, 5]
00000000: 0000 0000 0000 0000 0000 0000 0000 0000
00000010: 0000 0000 eabd dc2e 6220 702e cb1d 292d
00000020: 87e7 782e f22d 2b2f 2827 0d31 1ef7 272f
00000030: 18ec 7530 d7d0 e630 4055 0a31 999b 1b2f
00000040: 2a7b 852f 2034 662f 1654 902f 531f 0a2e
00000050: 0b2c b030 a2e8 db30 1193 9530 714f e62f
00000060: fbed af30 a106 0c30 6450 c12f 1420 4d2f
00000070: 29d1 862f ea40 822f d0d4 c22f 75a6 e62f
00000080: f3c9 6030 3cf8 d42f a961 0730 942c 052d
00000090: 1580 f32c 5dbb 112c 47d3 3d2c 0326 8c2c
000000a0: e4df 212b 3bb9 c12c 4633 fb27 9bea 262c
000000b0: 9a9b 802b 1b84 a22d e71c 032e d84c 812d
000000c0: c7f2 4c2e d3d0 2b2e 251b 9231 0f43 5131
000000d0: 79a1 f430 82ff 0d31 abda b930 ace0 b72d
000000e0: c3d3 652b 8b79 4f2c c734 602d fb1f 452b
000000f0: b4e8 2331 e5ac 8b30 0f7b eb30 6635 eb30
00000100: 573d ac30 a156 862d 3ca0 ea2c f616 892d
00000110: fabf d42c 0c96 372c d9c7 4230 8534 0430
00000120: 367c a42e c116 3e2e 8fcf c82f a567 fc2e
00000130: c2cc 8f2c 74e4 032f 3f3e ed2e abab 7d2e
00000140: 3687 7f29 6e51 c327 6f8b 192a bde0 bf28
00000150: f30e 8f28 f798 1a2d d0bf 132d 75ff 6e2e
00000160: ad29 d72c 3457 cd2d 5b96 d630 d957 f830
00000170: e498 a330 e443 a730 502f 0f31 4367 2a2f
00000180: 37ca 502f ffc0 792f 6d41 ae2f a394 932f
00000190: 16d1 972f 5ea2 2130 54f9 b52f 02c0 8c2f
000001a0: 250c e22f 9599 8926 a54d 2c26 c9b0 2526
000001b0: 63c2 8c26 6853 8525 e842 b82e d63f 482f
000001c0: ff36 a22f a26f c22f 2369 692f 4ea0 ad2c
000001d0: 1afb eb2a da2f 162c 8db8 272d 9df3 b42a
000001e0: f38e 0a2c 5537 b42a 2222 5b2e 576b 542e
000001f0: 1f53 372e 67bd d22f b93a a92f 4380 1f30
00000200: 7c0f 4130 bcfb f72f 953d e52d cc47 e42e
00000210: 3a43 b42e 33e6 882f 9aac 242e 00b7 d32c
00000220: 7403 502e fa52 162e 3156 d62d a7ac 9b2d
00000230: be1c c030 0d90 9a30 cbee 482f bc3e 2a30
00000240: b7f2 f22f 1775 1230 cfff 762f 622b ce2f
00000250: 9f66 ab2f 786c 942f 2fb5 022e c273 b32b
00000260: 1720 ee2d e6b3 852c f828 b22d b56c bd30
00000270: 76fd 9030 dec4 5b30 9f78 a430 5ed5 1930
00000280: d907 ce2f c971 9d2f ae8c 732f 0ae3 d22e
00000290: a2e8 a62f 4e75 072f 6af1 f62e ed47 a62e
000002a0: deb3 0c2f 2b68 e92d f6cd f92f 0430 3a30
000002b0: 9b6e cd2f abd1 8a2d 1989 ea2e a1c1 9331
000002c0: 90f2 ac31 f394 6931 788f ee2f 8ed7 1b2f
000002d0: 7758 3430 f977 3330 84c4 2f2f 45fb 862f
000002e0: 833d ab2f ac78 9a31 4f05 5731 975c ec30
000002f0: 882a 7531 4cad f82e 311d 3931 6b4b 4d31
00000300: 7cc5 aa30 8ed1 a830 84ca 0630 5593 fc2f
00000310: 4c05 762f a7a4 8a2f 7a2b 2c30 2e01 962e
00000320: 2ee7 622e d4e5 152f de18 222f b71d 2b2f
00000330: 49e3 0a2e 8c47 e82f dad9 bd30 317d b630
00000340: c552 8130 22b6 dc30 4c2d 2027 683d c027
00000350: dac5 f525 7be0 3a26 e7bd 2b27 0575 fd2c
00000360: 6b7e 782c 43c6 bc2c 246d b32c a169 042d
00000370: 908e 8130 7ab3 2831 def4 2231 ffe0 2c31
00000380: 7c86 7031 346a 982a e155 9b2a 1a37 bf29
00000390: 7ef0 002a d448 1629 825f 7825 e4da 9025
000003a0: 7727 4825 5ecd f025 7e85 4b25 1e1b bd2d
000003b0: f78a 262e 0e36 f32d 5e2e a32d 3e55 dc2b
000003c0: b8c2 ef2c ad7e e12b c7f2 8c2b e61b 1d2c
000003d0: 9217 272d 39d1 c230 acb4 912f b4cd 3530
000003e0: 5192 4c30 b37e b02c bd1a fb30 7706 6d31
000003f0: 8024 6b30 fb1b 0931 5540 3b2f ee7e f12f
0.0 0.0 0.0 0.0 0.0 1.0038177e-10 5.4598444e-11 9.613153e-12
5.659431e-11 1.5568682e-10 2.0540458e-09 1.5276355e-10 8.946599e-10 1.6794058e-09 2.0130102e-09 1.4152447e-10
2.4280072e-10 2.0936897e-10 2.6253194e-10 3.140539e-11 1.2818203e-09 1.6000465e-09 1.0882976e-09 4.1893203e-10
1.2800564e-09 5.0941124e-10 3.5163616e-10 1.8656038e-10 2.4523075e-10 2.3692986e-10 3.5439607e-10 4.195503e-10
8.177771e-10 3.8738956e-10 4.92515e-10 7.570073e-12 6.9206954e-12 2.0709747e-12 2.6975798e-12 3.9832595e-12
5.75094e-13 5.5059546e-12 6.9722086e-15 2.372025e-12 9.138135e-13 1.8475934e-11 2.9811622e-11 1.4699728e-11
4.659986e-11 3.906637e-11 4.2522452e-09 3.0451621e-09 1.779923e-09 2.066344e-09 1.3522671e-09 2.0904466e-11
8.165102e-13 2.948394e-12 1.2744645e-11 7.003284e-13 2.3851898e-09 1.0162721e-09 1.7133476e-09 1.7113677e-09
1.2532081e-09 1.5272507e-11 6.6684696e-12 1.5585293e-11 6.046716e-12 2.6089157e-12 7.086079e-10 4.8095955e-10
7.479921e-11 4.3221208e-11 3.6527267e-10 1.1478044e-10 4.087037e-12 1.1995543e-10 1.0788569e-10 5.767801e-11
5.673865e-14 5.421166e-15 1.3637506e-13 2.1302724e-14 1.5882672e-14 8.7878515e-12 8.3985735e-12 5.4341826e-11
6.1152945e-12 2.3344528e-11 1.5613283e-09 1.8069343e-09 1.1903265e-09 1.2170145e-09 2.0836133e-09 1.5498096e-10
1.8989331e-10 2.2714984e-10 3.1696903e-10 2.6844757e-10 2.7615304e-10 5.8802196e-10 3.3100866e-10 2.5602281e-10
4.111779e-10 9.547913e-16 5.9779716e-16 5.7485463e-16 9.76714e-16 2.312834e-16 8.379236e-11 1.8212573e-10
2.9506705e-10 3.5367714e-10 2.1228579e-10 4.934753e-12 4.1918622e-13 2.1342845e-12 9.5338295e-12 3.2143464e-13
1.9690332e-12 3.2012817e-13 4.982515e-11 4.8298556e-11 4.168321e-11 3.8333356e-10 3.0782646e-10 5.8026134e-10
7.0234996e-10 4.5107906e-10 2.6061634e-11 1.0380993e-10 8.197394e-11 2.4901822e-10 3.7442584e-11 6.0172978e-12
4.729679e-11 3.417975e-11 2.436726e-11 1.7698133e-11 1.3978008e-09 1.1245916e-09 1.827473e-10 6.193479e-10
4.4192003e-10 5.3280885e-10 2.2464451e-10 3.7502007e-10 3.1177635e-10 2.6998115e-10 2.97195e-11 1.2750844e-12
2.7071718e-11 3.80006e-12 2.0254451e-11 1.3782456e-09 1.0549417e-09 7.99515e-10 1.1966853e-09 5.596429e-10
3.7476758e-10 2.8638983e-10 2.2150701e-10 9.5900246e-11 3.036052e-10 1.2319853e-10 1.12296686e-10 7.5615826e-11
1.2796827e-10 2.6535293e-11 4.543918e-10 6.773464e-10 3.7367873e-10 1.5781895e-11 1.06654414e-10 4.300276e-09
5.033435e-09 3.399063e-09 4.3393888e-10 1.4173748e-10 6.5609335e-10 6.529031e-10 1.5985974e-10 2.4552996e-10
3.1148426e-10 4.4957087e-09 3.1289635e-09 1.7197576e-09 3.5676369e-09 1.1308518e-10 2.6937637e-09 2.9874296e-09
1.2425256e-09 1.2283168e-09 4.903671e-10 4.594322e-10 2.2375451e-10 2.5219046e-10 6.263502e-10 6.82142e-11
5.159178e-11 1.3633122e-10 1.4742649e-10 1.5562916e-10 3.1579437e-11 4.225139e-10 1.3813477e-09 1.3277824e-09
9.40951e-10 1.6058872e-09 2.2229016e-15 5.335728e-15 4.2634795e-16 6.483594e-16 2.3833963e-15 7.2036843e-12
3.5313096e-12 5.365293e-12 5.099603e-12 7.526786e-12 9.426504e-10 2.4549238e-09 2.3713294e-09 2.515719e-09
3.5001042e-09 2.7074317e-13 2.7593121e-13 8.4916625e-14 1.1452121e-13 3.336986e-14 2.154293e-16 2.5128344e-16
1.7360606e-16 4.1772526e-16 1.7652672e-16 2.1498855e-11 3.7867456e-11 2.7649907e-11 1.8551546e-11 1.56556e-12
6.8144067e-12 1.6022371e-12 1.0014983e-12 2.2326529e-12 9.498085e-12 1.4174822e-09 2.6503721e-10 6.613974e-10
7.4422696e-10 5.0162873e-12 1.8270253e-09 3.4491714e-09 8.554437e-10 1.995203e-09 1.7030406e-10 4.3927834e-10

grad_avg f4 [11231, 5]
00000000: 0000 0000 0000 0000 0000 0000 0000 0000
00000010: 0000 0000 7baa 2ab1 c30e 3330 7cfd 0fb1
00000020: 4d28 49af 77d6 ad30 906c 9eb3 8bbe 8d33
00000030: e0c3 70b3 093b a732 81fb a730 2a66 a4b3
00000040: d983 a034 0da3 e5b4 b95a 5533 fbf6 6a34
00000050: 372f 7a97 655b 9818 1708 de98 44c5 a416
00000060: abdb 5418 c482 62a7 f433 9027 fc3c 9124
00000070: c5d4 8d26 3717 5aa7 3fa8 7e35 74cb bd35
00000080: a203 2fb4 5c30 8eb2 3add e1b4 2924 9f36
00000090: b8c1 6ab6 b469 65b6 4d33 a8b5 de1a 7eb6
000000a0: f0b9 41b6 3b44 2d36 da3a 13b6 d090 4c35
000000b0: 248f 5733 192c 92b5 cdbb 7234 6bac edb4
000000c0: d1fc 8635 858d 7234 2b12 42b0 81e2 252f
000000d0: d431 3130 45e0 3e30 1833 d4af 4268 77b0
000000e0: 3d4b d2b0 24e8 0230 7cd8 61b0 196f 0031
000000f0: 8605 80b5 9d32 57b5 4b38 f634 1fcc 87b5
00000100: 4c60 9835 6405 0080 ed03 0080 e901 0000
00000110: 6705 0080 9206 0000 fb5d 88b1 df1c 65b1
00000120: 9e0e 0331 2fae 90b1 c462 a231 0000 0000
00000130: 0000 0000 0000 0000 0000 0000 0000 0000
00000140: 24c6 a6a7 6139 8ba7 accc 1a27 a996 b0a7
00000150: 70a6 c727 dea6 47ab bb37 27ab 7c79 be2a
00000160: b374 53ab 4cd4 6d2b 36e7 95b1 fed8 7bb1
00000170: 6a13 1031 540c 9fb1 ec81 b231 e529 bc1c
00000180: 4446 c99c 7f86 b59c 2825 3b1c 53f9 a89c
00000190: 277f 1eab 37ba 04ab ecd1 962a 21d6 27ab
000001a0: e9e3 3c2b 25d0 a0a4 bebc 85a4 be7c 1424
000001b0: f558 aaa4 8db7 c024 57e1 0ea7 8360 eea6
000001c0: 3414 8426 e64f 17a7 2a29 2b27 491e 26b6
000001d0: f4a5 0bb6 35b9 9f35 4f3c 30b6 0ebe 4536
000001e0: dd71 caaf e6fd a9af 26cc 422f 1ed9 d6af
000001f0: ac16 f12f d818 5c95 ec89 3095 0595 cd14
00000200: 559e 6595 e0ea 8315 82c0 1727 e8c9 2527
00000210: 5859 81a7 0862 20a6 e1da eba2 acec acb3
00000220: eba4 97b3 4749 6c34 e97a 25b4 b99e 7934
00000230: 8191 52ae cdaa 502e 1225 7eae 49ef b92c
00000240: cfd7 512e 422f 86ad 17c9 ab2d f3bf 7d2d
00000250: 74ef 812d 88fa 89ad 94dc 66aa 980e 942a
00000260: 7400 5a2a 5852 5f2a 1848 6daa 56a1 43ae
00000270: 8317 222e 48f8 c5ae 7811 152f 61b2 2f2f
00000280: 2e68 b6b5 e0f5 a135 01e5 80b5 3110 1b35
00000290: da10 a635 f44d 3591 e02a 6c91 7708 0491
000002a0: 8bc9 3811 4570 fc0d 4329 e4aa 6274 05ab
000002b0: 5c81 81aa 1b73 d62a 1e25 4f29 9f1e a1b2
000002c0: 155f b6b2 b47d 37b2 f3c5 9632 4568 de30
000002d0: 7838 81b5 2b3a 92b5 28dd 12b5 71d2 7135
000002e0: 0506 b533 ddc8 34af 954f df2e 0a22 3aaf
000002f0: 8779 262f 6b0b 0daf ef67 f59b 5cb3 9a1b
00000300: 2df6 019c f3ea e21b e3e6 c29b d249 b413
00000310: f7f5 0d13 b379 4714 63e7 f512 e6b0 2b94
00000320: 611e 04b0 4517 a32f a6eb 07b0 8364 f32f
00000330: 98e4 cdaf 4c9c 07b4 d9d3 e3b3 846c 8233
00000340: 34cc 0fb4 a260 2134 78fb ad8e 644b 888e
00000350: 16f5 160e d966 b78e 7cb3 d20e c538 2ab6
00000360: 3819 0fb6 3fab a335 f196 34b6 a4a0 4a36
00000370: 25e0 9892 9b92 7292 21e0 0812 547f 9f92
00000380: efab b712 2032 82a7 1352 59a7 c263 f126
00000390: 29df 89a7 2aea 9b27 5e25 2f2f fbe8 29af
000003a0: 581f 56ae 11b6 892f 6ea9 932e 6296 7719
000003b0: ffaa 229a cd35 8d19 8e2f df19 2ecb 7b99
000003c0: 7342 29b7 594e 6eb7 e251 9036 27b1 7937
000003d0: 48f9 1e37 7630 00b1 69d3 f831 bf20 32b2
000003e0: 5c95 a630 de1f b631 b8a6 9435 19ab b435
000003f0: 4d13 b135 9710 b435 e653 c0b5 a645 bb34
0.0 0.0 0.0 0.0 0.0 -2.4835163e-09 6.51408e-10 -2.0953328e-09
-1.8295161e-10 1.2648361e-09 -7.377196e-08 6.600484e-08 -5.60575e-08 1.9468205e-08 1.2222331e-09 -7.655429e-08
2.9898254e-07 -4.277321e-07 4.967544e-08 2.1882799e-07 -8.083895e-25 3.9383364e-24 -5.7393824e-24 2.662012e-25
2.7511262e-24 -3.1434689e-15 4.0024357e-15 6.298704e-17 9.841512e-16 -3.0266162e-15 9.4867204e-07 1.414081e-06
-1.6299467e-07 -1.6552967e-08 -4.207048e-07 4.742779e-06 -3.4981476e-06 -3.4185186e-06 -1.2531906e-06 -3.7864588e-06
-2.886747e-06 2.5818724e-06 -2.1938963e-06 7.620665e-07 5.0188774e-08 -1.0890682e-06 2.2606328e-07 -4.427014e-07
1.0057357e-06 2.2589491e-07 -7.0602607e-10 1.5087133e-10 6.4463035e-10 6.9440304e-10 -3.859888e-10 -9.0006236e-10
-1.5300895e-09 4.7623616e-10 -8.2162166e-10 1.8689603e-09 -9.538351e-07 -8.0167393e-07 4.586203e-07 -1.0117691e-06
1.1352909e-06 -1.934e-42 -1.408e-42 6.85e-43 -1.938e-42 2.357e-42 -3.9688053e-09 -3.3340297e-09
1.9071318e-09 -4.210754e-09 4.726049e-09 0.0 0.0 0.0 0.0 0.0
-4.628908e-15 -3.864246e-15 2.1482746e-15 -4.901316e-15 5.5414047e-15 -7.0930577e-13 -5.940766e-13 3.3835077e-13
-7.512421e-13 8.4493935e-13 -4.3627564e-09 -3.6648653e-09 2.0965794e-09 -4.6289106e-09 5.1952522e-09 1.2451626e-21
-1.3319227e-21 -1.2012342e-21 6.1921133e-22 -1.1181756e-21 -5.6309335e-13 -4.7154246e-13 2.6791015e-13 -5.962748e-13
6.7107306e-13 -6.974155e-17 -5.79993e-17 3.2198045e-17 -7.387645e-17 8.3577674e-17 -1.9828616e-15 -1.6540727e-15
9.164816e-16 -2.0998773e-15 2.3753332e-15 -2.4753556e-06 -2.0809211e-06 1.1900325e-06 -2.6261148e-06 2.9465914e-06
-3.682449e-10 -3.0921327e-10 1.7716725e-10 -3.9080644e-10 4.3853754e-10 -4.4448244e-26 -3.5651718e-26 2.0758488e-26
-4.6371084e-26 5.3281046e-26 2.1059818e-15 2.3007803e-15 -3.590156e-15 -5.564401e-16 -6.3928625e-18 -8.0524245e-08
-7.061484e-08 2.2005871e-07 -1.5411537e-07 2.3247675e-07 -4.7877705e-11 4.7445426e-11 -5.778584e-11 5.2845822e-12
4.7712775e-11 -1.5255023e-11 1.9529751e-11 1.4424006e-11 1.477194e-11 -1.5686355e-11 -2.0504632e-13 2.6300208e-13
1.9362447e-13 1.9834947e-13 -2.1074841e-13 -4.4481162e-11 3.6855418e-11 -9.0026264e-11 1.3557677e-10 1.597953e-10
-1.3590377e-06 1.2066994e-06 -9.603392e-07 5.776556e-07 1.2372868e-06 -1.4302404e-28 -1.8630329e-28 -1.0415572e-28
1.4577146e-28 1.5557727e-30 -4.0529567e-13 -4.7412606e-13 -2.3004764e-13 3.8093907e-13 4.5995427e-14 -1.8756792e-08
-2.1230827e-08 -1.06805835e-08 1.7552315e-08 1.6182261e-09 -9.627684e-07 -1.0894777e-06 -5.4711063e-07 9.008573e-07
8.429564e-08 -1.6442266e-10 1.01550025e-10 -1.6928695e-10 1.5140787e-10 -1.2827932e-10 -4.0599016e-22 2.559307e-22
-4.3000694e-22 3.7540396e-22 -3.2243815e-22 4.551118e-27 1.7917972e-27 1.00709334e-26 1.5518715e-27 -8.668181e-27
-4.806449e-10 2.966606e-10 -4.944759e-10 4.427286e-10 -3.7451708e-10 -1.2629715e-07 -1.0609046e-07 6.0733356e-08
-1.3392201e-07 1.5029448e-07 -4.288995e-30 -3.3599187e-30 1.8606932e-30 -4.521202e-30 5.1941834e-30 -2.5365018e-06
-2.132334e-06 1.2194286e-06 -2.690995e-06 3.019385e-06 -9.6478045e-28 -7.654244e-28 4.3190293e-28 -1.00657e-27
1.1591309e-27 -3.6136594e-15 -3.0159292e-15 1.6749774e-15 -3.826709e-15 4.3275023e-15 1.5929433e-10 -1.5453232e-10
-4.8685805e-11 2.504952e-10 6.714883e-11 1.279997e-23 -3.3638944e-23 1.4600788e-23 2.3076867e-23 -1.3017428e-23
-1.0088656e-05 -1.4204147e-05 4.301067e-06 1.4882803e-05 9.475574e-06 -1.8653998e-09 7.2417845e-09 -1.0368409e-08
1.212054e-09 5.30052e-09 1.1075381e-06 1.3460841e-06 1.3193145e-06 1.3415873e-06 -1.4329532e-06 3.488214e-07
