saved_models/user_collab_filtering_v1.pth (torch, 979458 bytes, 12 tensors)

u_weight.weight f4 [2308, 5]
000000 48 b8 85 ba 95 44 c6 ba 1f 64 0c 3c c0 c3 c1 bb
       -0.0010202015 -0.001512664 0.008568793 -0.005913228
000010 31 92 8b 3b e8 29 f5 3e eb ab ec be 14 00 03 3f
       0.0042593707 0.47883534 -0.46224913 0.51171994
000020 ba 55 f5 3e 45 44 df be c6 c3 a1 be a7 7b f5 3e
       0.47916967 -0.43606773 -0.31594676 0.47945902
000030 3b 58 e0 3e c6 5a bc be 45 0c ea 3e 58 fb e9 be
       0.43817315 -0.36788005 0.45712486 -0.45699573
000040 fe 9a bb 3e 5d f4 e3 3e 89 f4 a2 be 77 b8 e7 3e
       0.36641687 0.44522372 -0.3182719 0.45257923
000050 28 19 f9 be eb 3f 01 3f 9a 80 e1 3e 82 0d 05 bf
       -0.48652005 0.50488156 0.44043428 -0.51973736
000060 3f 1b b1 3e 14 94 21 bf 93 43 1e 3f 15 fc 5c 3d
       0.345911 -0.63116574 0.6182186 0.05395134
000070 2e 75 3c bd 78 fd 1d 3f 75 f2 b0 bf 6e bd af bf
       -0.04601019 0.6171489 -1.3823992 -1.3729684
000080 89 2b 1f 3f da 13 a1 3f 5f 1b a4 bf 0b df 68 3d
       0.62175804 1.2584183 -1.2820853 0.056853335
000090 d4 b4 49 3d ce 8f 81 3d b2 8e 7d 3c 04 ec 2b 3d
       0.049244717 0.06326257 0.015475916 0.04197313
0000a0 cd c8 c2 bd 2a 9e b0 bd 80 1c 3f bd e1 db cb 3c
       -0.09510956 -0.086239174 -0.04665804 0.02488512
0000b0 1d a1 ef 3d 7c 19 9e be 38 72 a8 be aa d2 cb 3e
       0.11700652 -0.30878818 -0.32899642 0.3980916
0000c0 4a 63 c2 be e2 43 b5 be 10 5a 0c 3f cb 9c e9 3f
       -0.37966377 -0.35403353 0.54824924 1.8250974
0000d0 e1 65 d8 3f c3 60 73 bf a0 6f f5 3e e4 f1 c7 3d
       1.6906091 -0.9506952 0.47936726 0.09762934
0000e0 8d dc bd be 6b 2e 5f be 22 37 a8 be bd 39 91 be
       -0.3708233 -0.21795051 -0.32854563 -0.28364363
0000f0 00 ab 61 bf 72 32 82 3f 2f 1c 4b 3f 3e 29 7d bf
       -0.8815155 1.0171645 0.7933988 -0.98891056
000100 84 66 4e 3f 40 3b 51 3e df 7b 7c 3e 6e 03 67 be
       0.80625176 0.20432758 0.24656628 -0.22559902
000110 3f 02 55 3e 5d d3 2c 3e 88 d1 bf 3f de 5d 99 bf
       0.20801638 0.16877504 1.4985819 -1.1981771
000120 9d 97 ae be cf 19 a4 3f 59 79 a8 bf 43 96 22 3f
       -0.34100047 1.2820376 -1.3162032 0.6351053
000130 73 d3 21 be 0c 8e 01 3f 52 89 12 bf f7 bd f4 be
       -0.15803318 0.5060737 -0.57240784 -0.47801182
000140 fa 99 e3 3d 6f a2 c8 bd 0f 50 df 39 88 06 d3 3d
       0.11113353 -0.09796607 0.00042593523 0.1030398
000150 fe f0 89 3d e9 7e 49 3e d4 d8 39 3e 7c b0 2f 3e
       0.06735419 0.19677319 0.1814912 0.17157167
000160 9a 79 6c be 82 60 74 3e ef c2 0d 3f bc fe ce 3f
       -0.23093262 0.2386494 0.5537557 1.6171489
000170 59 3a 6b bf 32 a2 92 bf 34 0a ba 3f af eb 39 be
       -0.91885906 -1.1455748 1.4534364 -0.18156312
000180 88 9b 43 3e 59 cf 23 3e e8 29 53 be c0 8d 30 3e
       0.19102299 0.15997066 -0.20621455 0.17241573
000190 70 a7 26 bf f9 b6 25 bf c7 1c 18 bf 25 aa 09 bf
       -0.6509924 -0.6473232 -0.5941891 -0.53775245
0001a0 3b c6 08 3f 39 af 9c bd a8 76 fe 3e 32 b1 e2 3e
       0.53427476 -0.076506086 0.49699903 0.44275814
0001b0 62 d0 7f be c4 0b fc 3e 21 1f 82 3d 4d fe 7d bd
       -0.24981835 0.49227726 0.063535936 -0.0620101
0001c0 a2 a1 92 3d f1 10 cf 3c 76 4b 14 39 cb 7a 2c bd
       0.07159735 0.025276633 0.00014142491 -0.042109292
0001d0 56 b7 b6 bd 1d 27 e0 bd 7a 63 03 bd 36 e0 1c 3e
       -0.08921687 -0.1094496 -0.03207729 0.15319905
0001e0 28 1e 58 3e 8b 39 7f be ed fe 72 be a9 0b 6b 3e
       0.21105254 -0.24924295 -0.23730059 0.22953667
0001f0 9a 74 2c bd 92 ed 4d 3e 20 b4 0d be c0 0a 6a 3e
       -0.042103387 0.20110157 -0.13838243 0.22855663
000200 4c ee 53 be 34 d1 ef bd c9 7c 80 3e 27 d2 8c 3e
       -0.20696372 -0.11709824 0.25095204 0.27504084
000210 64 5c 8e 3e c7 1a 8c be c8 0d 75 3e 0e be 82 bf
       0.27804863 -0.2736418 0.23931038 -1.021425
000220 51 66 91 3f 49 07 58 bf 4f 70 86 3f 15 ba fc be
       1.135935 -0.84386116 1.0503024 -0.4936072
000230 33 66 1a bf 67 8d ae be 6b 5c 35 bf 75 28 05 bf
       -0.60312194 -0.34092256 -0.70844144 -0.5201486
000240 e0 13 09 bf a0 2a d7 bd ab 04 55 3e 05 20 3e 3e
       -0.5354595 -0.10506177 0.20802562 0.18566902
000250 36 03 60 be 2e e8 4e 3e e6 3a 96 3e 6f 90 ce be
       -0.21876225 0.20205757 0.2934181 -0.4034457
000260 70 6f 18 3f 02 23 04 3f 2e ad 8d be 60 8a 8a 3e
       0.5954504 0.5161592 -0.27671188 0.27058697
000270 29 60 8c 3e 77 b1 44 3e 93 f2 72 3e 0f 40 8d be
       0.27417114 0.19208322 0.23725347 -0.27587935
000280 5d 3e 13 3f 3e d6 aa 3e f4 e4 8e 3f fc 5f 79 bf
       0.57517034 0.3336658 1.1163621 -0.97412086
000290 cb 8d 21 3f b6 0d 3e 3f 41 68 3f 3f b8 c0 30 bf
       0.63106984 0.7423967 0.74768454 -0.69044065
0002a0 df 51 55 3f 90 88 1e 3f 9c 97 c6 be ac 7b 02 3f
       0.8332805 0.6192713 -0.38787544 0.5096996
0002b0 4f 8f df 3e 9d 9c 00 bf a5 b6 d3 3e 9e ab bc be
       0.43664023 -0.5023897 0.41350284 -0.36849684
0002c0 5e 5b 65 3e a4 87 bf 3e 14 79 a4 be 85 da a2 3e
       0.22398135 0.37408173 -0.32123625 0.31807342
0002d0 d3 88 17 bf a1 8d 1b 3f 53 5d 0d 3f e2 a8 21 bf
       -0.5919315 0.60762984 0.55220526 -0.6314832
0002e0 76 02 0e 3f 85 44 2a be 03 7f 1b 3e 35 64 30 3e
       0.55472505 -0.166277 0.1518517 0.17225726
0002f0 64 64 20 be a8 85 34 3e f5 3f 68 be b1 dd 70 3e
       -0.15663296 0.17629111 -0.22680648 0.23522069
000300 f1 6f 49 3e da cf 77 be 57 73 67 3e b4 69 63 bf
       0.19671609 -0.24200383 0.22602592 -0.88833165
000310 e8 8f 77 3f 53 3c 80 3f d7 12 6c bf 67 0a 76 3f
       0.9670396 1.001841 -0.9221625 0.9610962
000320 c4 f7 1e 3e ef b4 a4 3e 78 58 aa 3e 36 6e 3a 3e
       0.15524203 0.3216929 0.3327062 0.18206105
000330 8e 8f 55 be b1 25 c5 3e 0b 36 21 be 45 ae 13 bd
       -0.20855543 0.3850532 -0.15743272 -0.03605487
000340 3f 5d ff bd cb c7 70 be 23 43 55 bf 5f 70 8e 3f
       -0.12468957 -0.23513715 -0.8330557 1.1128043
000350 9c a0 96 3f 78 40 31 bf bd df c8 3d 17 0b b5 bd
       1.1767764 -0.69238997 0.098083 -0.08840006
000360 16 14 be 3d bd 44 e3 3d 57 dd f2 bd 00 7f aa bd
       0.09281175 0.11097095 -0.118586235 -0.083250046
000370 be 27 5e be 2e 2a 76 3e 84 4d 82 3e 6c 13 87 be
       -0.21694848 0.24039528 0.25449765 -0.26382005
000380 c9 83 6e 3e 44 4d a5 bf 34 0e a3 3f e8 87 05 bf
       0.2329246 -1.2914205 1.273871 -0.521605
000390 a3 63 5f bf a6 e6 a9 3f 9f 63 9e be ae 75 9b 3e
       -0.8726141 1.3273513 -0.3093538 0.3036322
0003a0 bc e2 21 be e9 93 1a 3c 71 03 97 3d f7 21 e6 be
       -0.15809149 0.009434679 0.07373703 -0.44947788
0003b0 a5 c1 f2 3e f5 6b e6 3e cf a6 c4 be f4 19 e4 3e
       0.47413364 0.4500424 -0.38408515 0.4455105
0003c0 f3 24 07 bf 87 00 cc 3e 40 94 f5 be 12 e3 15 bf
       -0.52790755 0.39844152 -0.47964668 -0.58549607
0003d0 db 08 08 3f 02 30 eb 3e 27 dd f0 3e 3f 6e b5 3e
       0.5313851 0.45935065 0.47043726 0.35435674
0003e0 de 96 a9 3e 99 d2 f3 be f5 51 58 bf 6e fd 92 3e
       0.33122915 -0.4762161 -0.84500057 0.28708977
0003f0 b3 e6 0f 3f 4a 82 3d bf 0d 7c 76 bc 8c 4f ee 3e
       0.56211394 -0.7402693 -0.015044224 0.46545064

i_weight.weight f4 [11230, 5]
000000 6b c0 b2 3a b6 6f 55 3b 81 34 b7 3a 8d a5 5e 3c
       0.0013637667 0.0032567806 0.0013977439 0.013589275
000010 7a 16 f5 3b 29 ca 02 3e ec a7 3b 3e f9 e5 0d be
       0.007479486 0.1277243 0.18325776 -0.13857259
000020 b1 63 28 3e 6e 6f 40 be 50 d2 98 be a1 19 2c 3d
       0.16444279 -0.18792507 -0.29847956 0.04201663
000030 d2 89 8a 3e 7b 64 06 3e 7d 94 6d be f3 3a c6 bd
       0.27058274 0.13124268 -0.23201175 -0.096792124
000040 ae 77 59 3e 50 a6 4f be fd 30 65 be dd 04 5d 3e
       0.2123706 -0.20278287 -0.22381969 0.21583886
000050 99 40 ae bd 54 96 64 3e b1 e0 4b be dc 9d 6b be
       -0.08508415 0.2232297 -0.19909932 -0.23009437
000060 e2 db 60 3e 67 c2 bc bd 16 71 94 3e 5e 03 9b 3e
       0.21958879 -0.09216767 0.28992528 0.30276006
000070 1f 40 80 3d 73 3c 98 3e 5b a8 36 3e 4b 35 59 be
       0.0626223 0.2973362 0.1783766 -0.21211736
000080 65 57 15 3e 7c 12 58 3e a6 bf 54 be 25 ed 08 be
       0.1458412 0.21100801 -0.20776233 -0.13371713
000090 27 e3 1c 3e 02 04 26 be 35 8e 1e 3e f7 05 0f be
       0.15321027 -0.16212466 0.15483935 -0.13967119
0000a0 d7 34 8a be 05 62 85 3d d6 b5 7a 3e cb a2 ff 3d
       -0.2699344 0.06512836 0.24483427 0.12482222
0000b0 79 4d 5e be 44 a4 4c be 63 f5 5f 3e 93 c1 19 be
       -0.21709241 -0.19984537 0.21870951 -0.15015249
0000c0 84 a9 1c 3e 9c c3 3e be 7b a1 03 be 9a a6 0a 3e
       0.1529904 -0.18629307 -0.12854569 0.13540116
0000d0 38 6a 0d be 9e 90 3b 3d 44 32 0d be 90 5d 48 be
       -0.1381005 0.045792215 -0.13788706 -0.19566941
0000e0 65 20 2f 3e 57 fc 33 be 10 6f 43 3e 8e b8 3d 3e
       0.17102201 -0.17576729 0.19085336 0.18527433
0000f0 b6 c8 75 be b1 67 35 3e 02 75 68 be 51 80 59 3e
       -0.24002346 0.17715336 -0.22700885 0.21240355
000100 2e d0 40 3e c7 89 62 be 93 4a 4c 3e 91 cf 3c be
       0.18829414 -0.2212287 0.19950323 -0.18438555
000110 4a 65 47 3e 7c 4c 4f 3e 81 f9 81 be d6 ab 3f 3e
       0.19472232 0.2024402 -0.2538567 0.18717894
000120 18 14 67 be 6b 25 60 3e a1 88 47 3e 2e 72 53 be
       -0.22566259 0.21889274 0.19485714 -0.20649025
000130 44 57 1c 3e 08 f6 2b be 3b f2 35 3e be cb 1a 3e
       0.15267664 -0.16793072 0.17768185 0.15116784
000140 b1 f3 79 be 04 86 5b 3e 71 24 67 be 6f e9 60 3e
       -0.24409367 0.21437842 -0.22572495 0.21964048
000150 b7 2b 5c 3e 51 ef 98 3e cb c2 71 3e ed 8f 53 3e
       0.21501051 0.29870084 0.23609464 0.20660372
000160 ce 44 36 be 90 d8 e5 3d e8 d5 79 be 42 39 4c 3e
       -0.17799684 0.11222947 -0.24398005 0.19943717
000170 f7 9a 51 be 95 0a 5c 3e 89 0e 52 3e 0f 72 60 be
       -0.2046927 0.21488412 0.20513357 -0.2191851
000180 c5 7c 40 3e cc 39 47 be 3d b2 4a 3e 72 15 47 3e
       0.18797596 -0.19455642 0.19794555 0.19441774
000190 f0 0e 58 be bc 6e 33 3e 70 ca 45 be 50 b6 44 3e
       -0.21099448 0.1752271 -0.19315505 0.19210172
0001a0 03 43 51 3e 46 d5 53 be ad 49 22 3e 04 c1 3d be
       0.20435719 -0.20686826 0.15848418 -0.18530661
0001b0 b0 d7 28 3e 7c d0 22 3e f8 1c 50 be d0 c5 19 3e
       0.16488528 0.15899843 -0.2032355 0.15016866
0001c0 01 91 23 be 1a 6c 2f 3e 3f 2c 23 3e 75 e9 71 be
       -0.15973283 0.17131081 0.15934847 -0.23624213
0001d0 4e 4b 8a 3e 48 3f 25 3e ad 12 59 be 8b 88 47 3e
       0.27010578 0.16137421 -0.2119853 0.19485681
0001e0 2e d7 56 be 81 48 50 3e f7 2a 5c 3e a0 84 10 3e
       -0.20980522 0.20340158 0.21500765 0.14113092
0001f0 28 d4 47 3e b1 10 09 be 00 0f 0e be 4c c0 11 3e
       0.19514525 -0.13385274 -0.1387291 0.14233512
000200 58 e9 24 3e 86 01 d7 bd 01 e2 5d be 02 eb 55 be
       0.16104639 -0.104983374 -0.21668245 -0.2089043
000210 4d b8 70 3e 37 24 6d 3e 4d f9 2d be 50 17 aa bd
       0.23507805 0.23158346 -0.16989632 -0.08305228
000220 e4 82 13 be 73 2d 59 3d 9f 2d 9f 3d 84 f3 05 3e
       -0.144054 0.05302186 0.077723734 0.13081175
000230 72 74 9e 3e a3 4f c1 3e d7 e6 bd 3e 6a 99 b3 be
       0.30948216 0.3775607 0.3709018 -0.35077983
000240 32 da b7 3e 54 8d b5 bd 4d 13 1d be 50 76 17 be
       0.35908657 -0.08864847 -0.15339394 -0.14791226
000250 04 41 a4 bd d7 9d 00 be 08 15 a4 bd 3b cb 20 be
       -0.08020213 -0.12560211 -0.08011824 -0.15702526
000260 59 9a 21 be aa 14 7c bd c9 39 00 be 50 ec c4 bd
       -0.15781535 -0.061543144 -0.12522043 -0.096153855
000270 6a a2 4f be c0 6c 41 be 66 e3 bc bd 35 35 31 be
       -0.202768 -0.18889141 -0.0922306 -0.17305453
000280 97 46 81 3e 65 cf 70 3e 1f bb 78 3e 25 2f 76 be
       0.25249168 0.23516615 0.24290131 -0.24041422
000290 fd ed 5a 3e 40 08 26 3e 29 d5 22 3e f9 ca 10 3e
       0.21379848 0.16214085 0.15901627 0.14139928
0002a0 f9 e6 1b be ce 5f 05 3e 67 eb 40 3e 70 45 5c be
       -0.15224828 0.13024828 0.18839799 -0.21510863
0002b0 77 95 76 be fc d6 11 be de e4 43 3e c9 a0 5c 3e
       -0.24080454 -0.14242166 0.19130275 0.2154571
0002c0 c8 1f 44 3e 68 58 45 3e 66 16 3b be f4 59 21 3e
       0.19152749 0.19272006 -0.18270263 0.1575697
0002d0 6a 0b 1a be ca bb 0e 3e 6d 54 13 be 1c 29 10 3e
       -0.15043417 0.13938823 -0.14387675 0.14078182
0002e0 ec 50 17 3e f0 06 4c be f1 ee 33 3e 93 26 37 be
       0.14776963 -0.19924521 0.17571618 -0.17885809
0002f0 38 0f 3b 3e ab f2 37 3e df e9 62 be 2f f0 31 3e
       0.18267524 0.17963664 -0.22159527 0.17376779
000300 88 84 4f be b5 5e 40 3e 45 a8 33 3e 90 2c 23 be
       -0.202654 0.18786128 0.17544658 -0.15934968
000310 7e aa 24 3e 3e 75 1c be 8c 1f 25 3e 82 d2 17 3e
       0.16080663 -0.152791 0.16125315 0.14826396
000320 0f 42 b9 3c 26 1e 4a bd f7 9c 80 3c a6 b9 98 bd
       0.022614507 -0.049345158 0.015699847 -0.07457285
000330 53 2d 2a 3d 46 6e b6 be 8c ef 09 3f 11 37 c7 be
       0.04154713 -0.35631007 0.53881145 -0.389092
000340 e6 53 13 bf e0 ad c0 be 11 10 78 bd c4 3e 04 3e
       -0.57549894 -0.37632656 -0.060562197 0.12914568
000350 e2 6d f0 bd 16 a1 05 be 38 5d e5 3d cf dc 41 be
       -0.117397085 -0.1304973 0.11199421 -0.18931888
000360 50 36 3e be f8 d0 08 be 79 50 32 3e 36 07 5c be
       -0.18575406 -0.13360965 0.1741351 -0.21487126
000370 9d 37 70 bd 8d 4a 9d 3d bf 38 9d 3d a6 9b 99 bd
       -0.058646787 0.07680235 0.07676839 -0.07500391
000380 01 bd 52 3d 57 ed 38 3c 1a 6c 13 3e e8 b0 c4 3e
       0.05144978 0.011287055 0.14396706 0.3841622
000390 6a 4d 60 3e c1 85 c7 3e 66 dc 1a be 1e 74 06 3e
       0.21904531 0.38969234 -0.15123138 0.13130233
0003a0 7b e5 23 3e 4c 44 10 be 31 90 23 3e 9a 83 ec 3e
       0.16005509 -0.14088553 0.15972973 0.46194154
0003b0 7c 1a d8 3e c3 1e e9 be b3 81 ef be 32 4a e3 be
       0.42207706 -0.45531282 -0.4677864 -0.44392544
0003c0 bf 83 4c be a8 18 57 3e 30 1f 4d 3e f8 a1 20 3e
       -0.19972132 0.210055 0.20031428 0.15686786
0003d0 3d 99 44 3e 6f 78 e5 3e d4 b9 fe be d4 08 82 be
       0.19199081 0.44818446 -0.4975115 -0.2539736
0003e0 fc 78 bb be 21 b6 ea be 86 3e ed 3e b7 33 00 bf
       -0.3661574 -0.45842078 0.46336764 -0.5007891
0003f0 74 2a 55 be b8 3e 9c be 45 e0 dd be 43 a6 fd bd
       -0.20816976 -0.305166 -0.43335167 -0.123852275

u_bias.weight f4 [2308, 1]
000000 d6 5e 87 ba e9 c3 1a 3f c4 d0 0e 3f 73 df 45 3f
       -0.0010327946 0.60455185 0.557873 0.7729408
000010 ec d5 16 3f b7 d2 84 3f f5 3f 2c 40 21 5b 8f 3e
       0.5892017 1.0376805 2.6914036 0.27999213
000020 98 32 8e 3e f5 2e 21 3f 11 f0 0f 40 a9 1c 41 3f
       0.27772975 0.62962276 2.2490275 0.75434357
000030 b3 a0 a6 3f 7a 33 f0 3e 02 c1 fe 3f 9c c6 89 3f
       1.3017792 0.46914274 1.9902651 1.0763736
000040 36 ee 91 3e d5 78 af 3e 33 70 06 40 4e ea 62 3e
       0.28502053 0.34271875 2.100598 0.22159693
000050 e6 29 6c 3f 4e 21 62 3f be 6b 3e 3e 14 ad 24 3f
       0.9225143 0.8833207 0.18595788 0.64326596
000060 f3 26 e2 3e c7 7a d1 3e fd b1 c5 3e 8c a5 c5 3f
       0.4417034 0.40913984 0.38612357 1.5441146
000070 18 a5 92 3f 6c ee 59 3e fb c8 56 3f 75 a8 aa 3e
       1.1456633 0.21282357 0.8390042 0.33331648
000080 6d 57 c2 3f bb 95 d4 3f 0d 41 05 3f 29 c9 c5 3e
       1.518293 1.6608194 0.52052385 0.38630036
000090 68 03 37 3f 7d 8f 83 3e f0 87 85 3e 02 28 9f 3f
       0.7148957 0.2569541 0.26080275 1.2434084
0000a0 20 e5 e1 3e a9 5c 31 3f e0 57 c4 3f 39 eb ad 3e
       0.4412012 0.69282013 1.5339317 0.33968523
0000b0 3e fb 95 3e b2 0e c3 3f b2 79 24 3f ba 98 06 3f
       0.29293245 1.523886 0.6424819 0.5257679
0000c0 ba ff 82 3f e8 5b 0d 3f eb 22 83 3f d4 a2 70 3f
       1.0234292 0.5521836 1.0245031 0.93998456
0000d0 ec 7a 48 3f a4 aa 0e 3f 47 b4 99 3e 44 2c c7 3f
       0.78312564 0.55729127 0.30020353 1.5560384
0000e0 1b 3c 00 40 1f ed c0 3f 77 9e c6 3e e7 8e e6 3e
       2.0036685 1.5072364 0.38792774 0.450309
0000f0 ed 6e aa 3e 02 59 f6 3e 0a 51 03 40 9a 06 a4 3e
       0.33287755 0.48114783 2.0518212 0.32036287
000100 35 b8 dc 3e 63 46 85 3f 1a 23 9d 3f 73 29 06 40
       0.4310929 1.0412105 1.2276337 2.0962799
000110 b4 d5 96 3f 73 a0 8a 3e 0f 0e a8 3f cc 28 9e 3f
       1.1783967 0.27075538 1.312929 1.23562
000120 12 e2 5e 3f 76 27 8c 3e 7a 43 2a 3e 74 6e 35 40
       0.87063706 0.27373856 0.16627303 2.8348665
000130 e3 df 2d 40 f3 88 fb 3f fa 53 fe 3f 16 b4 fc 3f
       2.71679 1.9651169 1.9869378 1.9742458
000140 d1 8e dc 3d 7a b8 84 3e a6 dd b9 3f 37 64 99 3e
       0.107694276 0.25921994 1.4520767 0.2995927
000150 d1 4b 01 3f 1e fe 3a 3e 8a 73 e7 3f 81 8d 0d 3f
       0.5050631 0.18261 1.8082135 0.5529404
000160 bb 9b 44 3f 58 3b ab 3e 56 b3 01 40 e1 85 42 40
       0.76800126 0.33443713 2.0265708 3.0394213
000170 68 78 be 3e 0a 85 19 3f 45 bb 9c 3f 47 57 3f 3f
       0.37201238 0.59968626 1.224465 0.7474255
000180 53 dc c2 3e 9f c6 ba 3e a4 61 54 3f 65 cc d4 3e
       0.3805872 0.3647966 0.8296149 0.4156219
000190 df 36 be 3e fc 71 6b 3e 84 00 4e 40 76 79 6f 3e
       0.37151238 0.229927 3.2187815 0.23386177
0001a0 80 be 8a 3e 5c 5e 7c 3f 0b 9c 9b 3e 39 ee 82 3e
       0.27098465 0.9858148 0.3039249 0.25572374
0001b0 92 a1 8e 3e 08 5a a3 3f ed 22 fe 3f 0b e4 a1 3f
       0.27857643 1.276185 1.9854409 1.2647718
0001c0 dd c2 30 3f 53 8d 1f 3f 7c 40 8b 3f 9c 2b 33 40
       0.6904734 0.6232502 1.0879054 2.7995367
0001d0 e3 80 46 3f 11 d5 e2 3f 58 e0 b7 3e 89 54 84 3e
       0.77540416 1.7721273 0.35913348 0.25845745
0001e0 9b e7 bf 3f 33 f2 af 3f a2 74 aa 3f 18 cd 95 3f
       1.4992555 1.3745788 1.3316844 1.1703215
0001f0 3e 11 3e 3f cc be b1 3e 56 bc 7b 3e 9d 4a 9b 3f
       0.7424506 0.3471588 0.24583563 1.2132145
000200 b5 c7 61 3e 6f ab c7 3f e4 8b bc 3e 87 7a 97 40
       0.22048838 1.5599192 0.36825478 4.733707
000210 5a 8e db 3f fd 65 1a 3f 7f 4b 8f 3e 51 da a6 3f
       1.7152817 0.6031187 0.27987286 1.3035375
000220 5c 77 13 3e ee 10 00 3f 15 4e b4 3e f4 d6 06 40
       0.14401 0.5002583 0.35215822 2.1068697
000230 80 3d 00 40 cb b9 d5 3e e1 d4 8d 3e bd 41 b7 3f
       2.0037537 0.4174331 0.27701476 1.4316937
000240 1f 1c fa 3f 57 6c 1f 3f 50 71 7b 3e 64 33 6b 3e
       1.9539832 0.6227469 0.24554944 0.22968823
000250 64 fc 53 3e 48 28 ba 3e 2b aa 2b 3f 92 24 06 40
       0.20701748 0.36358857 0.6705653 2.095982
000260 58 04 a2 3e d8 21 99 3e ae 73 52 3f 6c d8 7c 3e
       0.3164394 0.29908633 0.82207763 0.24691933
000270 2a c8 a7 3e 1c 58 e3 3f d4 21 e6 3f dc 67 d1 3e
       0.327699 1.7761264 1.7979074 0.4089955
000280 27 89 10 40 de af f7 3f 39 71 90 3e 69 33 ca 3e
       2.258371 1.9350545 0.28211382 0.39492348
000290 57 48 7c 3e 29 e7 19 3f 67 e6 5e 3f 0d d7 bb 3e
       0.2463697 0.6011835 0.87070316 0.36687508
0002a0 4b 49 81 3e 21 b0 18 3f 0e 8e 8a 3f 3d 2e 1d 40
       0.2525123 0.5964375 1.0824602 2.4559472
0002b0 6a e3 f2 3e b5 14 23 3f d6 c3 b5 3f 0a e5 16 3f
       0.47439128 0.6370347 1.4200389 0.58943236
0002c0 c3 bf c3 3f 90 9a 25 3f fb 1c df 3e 41 dd 86 3e
       1.5292896 0.6468897 0.43576798 0.26340678
0002d0 69 5b 49 3e 02 e5 46 40 a5 38 92 3f d5 69 31 3f
       0.19663776 3.1077275 1.1423537 0.6930211
0002e0 d7 ed 09 3f 65 09 a9 3e e0 6d 81 3f 25 f8 77 3e
       0.5387854 0.3301498 1.0111656 0.24215753
0002f0 fd 41 2c 3f af 1c 1f 3f 67 c7 35 40 9e 01 5b 3e
       0.6728819 0.6215314 2.8402956 0.21387336
000300 58 23 5d 3f 3f c5 57 3e 96 5a 28 3f 12 3e 44 3f
       0.86382055 0.21071337 0.65763223 0.7665721
000310 f4 ae 9d 3f df d0 68 3f a1 ca c6 3f 2a c6 29 3f
       1.2319016 0.9094371 1.5530587 0.66318
000320 94 de 3f 3e ee df 81 3f 47 2f aa 3f b9 54 8a 3f
       0.1873725 1.0146463 1.3295678 1.0807105
000330 8d 38 a2 3f 01 2b fd 3e 49 fd 5c 3e 34 af c9 3f
       1.2673508 0.49446872 0.21580996 1.5756593
000340 ce 8e fd 3e fc b4 fb 3f e9 6d dd 3e e9 ef f2 3f
       0.49523014 1.9664607 0.43247917 1.8979465
000350 8a d4 00 40 df 18 d5 3f a1 39 53 40 ac 89 33 3e
       2.0129724 1.6648215 3.3003924 0.17532986
000360 91 7f 0c 40 a5 f5 92 3e cc 79 9e 3f 3a da 45 3f
       2.195286 0.28703037 1.238092 0.7728611
000370 91 d3 b8 3e fc 08 1b 40 cb ea 85 3f d4 67 88 3e
       0.36098912 2.4224234 1.0462278 0.26641715
000380 9e 9f 57 3e f5 e3 17 3f 48 a9 e7 3e 8c 12 d7 3f
       0.21056983 0.5933221 0.4524634 1.6802535
000390 20 92 bc 3e 63 19 5b 3f 1b 8a 83 3f 12 9c 86 3e
       0.36830235 0.8558561 1.0276521 0.26290947
0003a0 68 88 85 3e d3 0c b4 3e 03 74 4e 3f 7a fd a7 3f
       0.26080632 0.35166034 0.8064577 1.312423
0003b0 2b 64 15 3f f2 12 d2 3f 5d d3 61 3e ff e9 0c 3f
       0.5835597 1.6412032 0.22053285 0.5504455
0003c0 13 80 78 3f 9d 6e 93 3f cb 1b 1b 3f af 39 cb 3f
       0.97070426 1.1518131 0.60589284 1.5876979
0003d0 f6 6f c9 3f 34 c4 db 3f 8c 9f 73 3e 93 1f 6c 3f
       1.5737293 1.7169251 0.23791331 0.9223568
0003e0 d9 19 4b 3f f7 3c 1e 3e 1c 08 3a 3e 80 cc 81 3e
       0.79336315 0.15452944 0.18167156 0.25351334
0003f0 13 5d 2a 3f 6c de 77 3e 2c 25 03 3f c9 f6 9c 3e
       0.6654827 0.24205941 0.51228595 0.30657032

i_bias.weight f4 [11230, 1]
000000 c3 67 08 3b e1 e3 90 3e f0 9f b4 3e ab e3 87 3e
       0.00208138 0.28298858 0.35278273 0.26540884
000010 0b 98 80 3e 08 0b b1 3e 89 42 e3 3e 16 7c 2b 3e
       0.25116 0.3457873 0.443867 0.16746554
000020 f7 6a b1 3e 50 36 69 3e 27 8f 89 3e 05 6a 4b 3e
       0.3465192 0.22774625 0.2686703 0.19864662
000030 90 ac 98 3e dc 0a 52 3e f4 09 a0 3e 22 ae 71 3e
       0.29819155 0.20511955 0.31257594 0.23601583
000040 e0 cd 95 3e b1 32 d3 3e bc 2e 8d 3e 00 91 76 3e
       0.29258633 0.41249612 0.27574718 0.2407875
000050 fd dd 7b 3e f4 9e 84 3e f4 74 61 3e 73 28 f7 3e
       0.245964 0.25902522 0.2201727 0.48273048
000060 3a 65 68 3e 28 c5 82 3e d5 45 75 3e 38 a2 b5 3e
       0.22694865 0.25541043 0.2395242 0.35475326
000070 89 b6 f8 3e bf 6f 86 3e b8 6a 9a 3e ee 7c 98 3e
       0.48576763 0.2625713 0.30159545 0.29782814
000080 4e 80 78 3e c2 2a 25 3e 8d b6 d5 3e 81 2c 3c 3e
       0.24267694 0.16129592 0.41740838 0.18376352
000090 76 07 38 3e 87 a2 56 3e 86 42 7a 3e 1d 39 4d 3e
       0.17971596 0.20960437 0.24439439 0.20041318
0000a0 27 4e 7f 3e 1a 71 2f 3f 22 85 25 3e 22 e3 53 3e
       0.24932157 0.68531954 0.16164067 0.20692113
0000b0 e6 a2 cb 3d a4 69 d0 3e 58 ea 18 3e d9 fd f1 3e
       0.0994318 0.40705597 0.14933145 0.47263983
0000c0 62 94 5b 3e 96 e7 07 3f a3 08 0e 3f 2a 5c 0d 3e
       0.21443322 0.5308775 0.5548193 0.13804689
0000d0 18 27 41 3e 06 37 8a 3e d8 61 70 3e 88 7e 05 3f
       0.1886257 0.26995105 0.23474824 0.52146196
0000e0 c5 49 75 3e b3 2a ca 3e cc 19 e8 3e 22 0f d5 3e
       0.23953922 0.39485702 0.4533218 0.41613108
0000f0 27 15 8c 3e bd 9d cb 3e 76 97 9b 3e 46 f0 c2 3e
       0.27359888 0.39768782 0.30388993 0.3807394
000100 68 23 97 3e d2 75 6c 3e 60 fe 98 3e aa 7c 4c 3f
       0.295192 0.2309182 0.29881573 0.7987772
000110 1b 8d 78 3e f1 c8 53 3e a3 1b 00 3e ea bf 97 3e
       0.24272577 0.20682122 0.12510543 0.29638606
000120 f5 d8 c0 3e 15 d4 a7 3e 07 fb 69 3e 91 16 8c 3e
       0.37665525 0.32778993 0.22849666 0.27360967
000130 e8 48 82 3e 18 ac 8a 3e d7 a5 97 3e 31 39 9f 3e
       0.25446248 0.27084422 0.29618713 0.3109832
000140 c3 29 69 3e 09 3e 49 3e 66 7e 92 3e 6f 2f 1c 3f
       0.22769837 0.19652571 0.2861206 0.6100988
000150 5f 7e ed 3e 4e 41 21 3e a4 26 53 3e 48 a6 8f 3e
       0.46385476 0.15747568 0.20620209 0.2805655
000160 01 3b 54 3e fe 84 97 3e 0d 66 b6 3e 7a fd 01 3f
       0.20725633 0.29593652 0.35624734 0.507774
000170 de 8a 85 3e e6 aa 3a 3e d1 f3 8d 3e 4b c8 2b 3e
       0.2608251 0.18229255 0.2772508 0.16775624
000180 1e 6d 7e 3e 9a 8c 86 3e 89 b9 b6 3e f0 48 03 3e
       0.24846312 0.26279145 0.35688427 0.12820792
000190 bb d1 76 3e 44 ad 46 3e 4c db a2 3e ce 2d 98 3e
       0.24103443 0.19402033 0.31807935 0.29722446
0001a0 8c 70 d2 3e da cd 73 3e 0f d4 0b 3f 63 07 25 3e
       0.4110149 0.23808995 0.5462045 0.16116099
0001b0 f4 0b 76 3e 73 7f d4 3e bc 29 3d 3e ad a9 c5 3e
       0.24027997 0.41503486 0.18472952 0.38606015
0001c0 70 5d 85 3e d8 22 bc 3e ac db 81 3e 78 b5 36 3e
       0.2604785 0.36745334 0.2536291 0.17842662
0001d0 62 d8 69 3e af 35 6a 3e 59 1a ba 3e 9d c8 f7 3d
       0.2283645 0.22872041 0.36348227 0.12098811
0001e0 c1 d4 39 3e 75 91 9d 3e fb be f1 3e 74 61 82 3e
       0.18147565 0.30775037 0.4721602 0.25464976
0001f0 37 f0 b9 3e 2c c2 88 3e 17 15 8b 3e 92 ba 8d 3e
       0.36316082 0.2671064 0.27164528 0.27681404
000200 45 5a 19 3e 75 28 22 3e a5 ab 46 3e b4 b8 20 3e
       0.14975841 0.15835746 0.19401415 0.15695459
000210 2d ca 46 3e 41 f5 97 3e 31 b3 e1 3d 57 ac 51 3f
       0.19413061 0.296793 0.11020506 0.81903595
000220 f3 1f ac 3e 78 81 0c 3e d0 c2 8d 3e a9 fb 73 3e
       0.33618125 0.13721263 0.27687693 0.2382647
000230 1b 99 8c 3e ce 62 57 3e ec 2c 71 3e 70 8c 51 3e
       0.2746056 0.21033785 0.23552293 0.20463729
000240 81 a8 6c 3e c5 86 45 3e d7 56 34 3e 20 f7 63 3e
       0.23111154 0.19289692 0.17611252 0.2226224
000250 16 d0 28 3e e0 81 57 3e 8c f5 95 3e b3 76 85 3e
       0.16485628 0.21045637 0.292889 0.26067123
000260 a0 f3 8e 3e d0 60 0c 3e 2e a0 3d 3e 46 e0 35 3e
       0.27920246 0.13708806 0.18518135 0.17761335
000270 04 68 5d 3e 32 3e 77 3e 02 5f 1d 3e 6e e6 33 3e
       0.2162171 0.2414482 0.15368274 0.1756837
000280 2e bb 33 3e 55 4c f9 3e 91 29 ee 3e 4a 05 a5 3e
       0.17551872 0.4869105 0.46516088 0.32230598
000290 71 6d f7 3d f5 43 4a 3e 8e 6c 88 3e 6b 11 75 3e
       0.12081421 0.19752486 0.2664532 0.23932426
0002a0 36 1d b4 3e 32 43 62 3e 77 c7 6f 3e 0d 28 2b 3e
       0.35178536 0.22095945 0.23415934 0.16714497
0002b0 a1 48 03 3e 14 91 05 3e b7 d8 82 3e 87 4b 80 3e
       0.12820674 0.13043624 0.25555965 0.25057623
0002c0 33 f5 43 3e 29 e0 0c 3f 48 ea ba 3e 71 c7 68 3e
       0.19136505 0.5502954 0.36506867 0.22732331
0002d0 1a b7 db 3e 3a 91 96 3e d5 77 7d 3e 7f bd a8 3e
       0.42913133 0.29407674 0.24752744 0.32957074
0002e0 7e ab 04 3e 56 94 8d 3e a9 8f ba 3e db 7a 1d 3e
       0.12956044 0.27652234 0.3643773 0.15378897
0002f0 aa cb 4b 3e cb 63 8b 3e 14 4e a6 3e 13 41 b7 3e
       0.1990191 0.27224573 0.32481444 0.35791835
000300 db 2f c4 3e 05 a2 20 3e 46 bb 90 3e 85 be 31 3e
       0.3831776 0.15686806 0.28267878 0.17357834
000310 77 81 86 3e 05 6c 05 3f 37 64 18 3e d4 ac 45 3f
       0.2627065 0.5211795 0.14881979 0.7721684
000320 59 50 a0 3e 34 3d 1d 3e f3 02 5b 3e 21 f2 11 3f
       0.313113 0.15355378 0.21387844 0.57010084
000330 bb 93 90 3e c4 d1 f4 3d 95 12 ac 3e d6 a7 6f 3e
       0.2823771 0.11954072 0.33607927 0.23403868
000340 ba bd 75 3e d2 29 01 3f ea eb f4 3e 57 98 90 3e
       0.23998156 0.5045444 0.47836238 0.28241226
000350 dd 70 4c 3e c4 00 91 3e 39 4a 05 3f 84 0b 45 3e
       0.19964929 0.28320897 0.5206638 0.19242674
000360 02 60 1b 3f 0f d4 d7 3e 31 1b 8f 3e df 6c 66 3f
       0.6069337 0.42153975 0.27950433 0.90009874
000370 32 8c 95 3e 73 1a df 3e c5 2e ca 3e 05 89 ad 3e
       0.29208523 0.43574867 0.39488807 0.338936
000380 b0 3d 59 3e 0a 7a 76 3e 45 e5 8d 3e 21 f9 99 3e
       0.21214938 0.24069992 0.2771398 0.30072883
000390 e7 95 28 3f b7 3e 5f 3e 80 1f 81 3e c3 d4 04 3f
       0.6585373 0.21801268 0.25219345 0.5188715
0003a0 24 c6 f9 3e a4 48 31 3e e7 f9 7a 3e 8a bb 48 3e
       0.48783982 0.17312866 0.24509393 0.1960279
0003b0 2a 17 36 3f f9 39 35 3f e0 78 73 3e 7e 94 3b 3e
       0.71129096 0.70791584 0.23776579 0.18318364
0003c0 c8 d3 8a 3e e7 4b cb 3e 90 42 f7 3e 5a cb 7d 3e
       0.271147 0.39706346 0.4829297 0.24784604
0003d0 f8 7f ae 3e 6f b3 af 3e e1 0e d8 3e 23 df a5 3e
       0.34082007 0.34316584 0.42198852 0.32396802
0003e0 69 b3 aa 3e 59 ba a5 3e 45 43 b0 3e c2 49 6f 3e
       0.33340004 0.32368734 0.34426323 0.2336798
0003f0 ba 27 94 3e 8b 36 83 3e 50 3c 80 3e 42 7c 1c 3e
       0.2893656 0.2562755 0.25046015 0.15281776

grad_avg f4 [2308, 5]
000000 00 00 00 00 00 00 00 00 00 00 00 00 00 00 00 00
       0.0 0.0 0.0 0.0
000010 00 00 00 00 16 67 1a ae ff a5 d8 2d de 3f 9a ae
       0.0 -3.5107105e-11 2.4630074e-11 -7.014454e-11
000020 e7 2b 1b ae a3 c5 7f 2d 1e d5 63 32 24 15 85 b2
       -3.5281913e-11 1.4538956e-11 1.3261596e-08 -1.5492851e-08
000030 fd 2e 83 b2 0e 72 59 32 30 4e 81 b2 e0 ae 05 36
       -1.5271775e-08 1.26569955e-08 -1.5053132e-08 1.9920335e-06
000040 37 88 dd b5 37 c4 05 b6 b4 84 c4 35 78 3a 06 b6
       -1.6505427e-06 -1.9932756e-06 1.464176e-06 -2.000159e-06
000050 3b d8 f3 34 76 32 f4 b4 21 f7 e9 b4 b8 24 03 35
       4.5419605e-07 -4.5485257e-07 -4.3579442e-07 4.8854736e-07
000060 92 ac cf b4 19 bb 16 32 f2 84 3b b2 ca 8c 29 b2
       -3.8682316e-07 8.77369e-09 -1.0915061e-08 -9.869106e-09
000070 13 80 5f 30 19 63 28 b2 fa 0c 2d 35 02 f3 3f 35
       8.130893e-10 -9.801419e-09 6.4466406e-07 7.150667e-07
000080 e9 be b5 b4 c3 b2 2e b5 38 b7 33 35 76 30 56 b6
       -3.3852783e-07 -6.5080184e-07 6.6949315e-07 -3.1916693e-06
000090 b4 eb 38 b6 1f 37 6e b6 5a fa 68 b5 3c ef 1e b6
       -2.7555334e-06 -3.5496848e-06 -8.6791044e-07 -2.3683087e-06
0000a0 b6 1c 95 2d a3 c1 86 2d e7 bb 11 2d 16 da 99 ac
       1.6952089e-11 1.5320028e-11 8.2840184e-12 -4.372734e-12
0000b0 0e 68 b6 ad 29 f5 88 32 a0 a4 0f 32 d7 9b a8 b2
       -2.0737214e-11 1.594397e-08 8.361127e-09 -1.9628642e-08
0000c0 f5 84 4d 32 9f 9f 18 32 01 e5 89 b5 21 0c f8 b5
       1.1962801e-08 8.883858e-09 -1.0273944e-06 -1.848097e-06
0000d0 08 13 fb b5 7d 80 cf 35 85 98 8e b5 39 9b 9e a9
       -1.8706496e-06 1.5460097e-06 -1.0624213e-06 -7.0435364e-14
0000e0 6c aa 6a 2a 11 60 08 2a 57 04 2d 2a b2 6d 4b 2a
       2.0842502e-13 1.2112556e-13 1.5366992e-13 1.806808e-13
0000f0 92 c5 ed 34 80 cf 06 b5 dc fb e4 b4 02 99 07 35
       4.428844e-07 -5.022084e-07 -4.265156e-07 5.0514075e-07
000100 d5 2a e6 b4 b9 4c 0c b5 b3 7a 29 b5 d2 ce 1a 35
       -4.2872003e-07 -5.226571e-07 -6.3135957e-07 5.7670434e-07
000110 8c e8 0e b5 af 03 e8 b4 b3 d7 b4 b5 4c 5f a5 35
       -5.323752e-07 -4.3216048e-07 -1.3473822e-06 1.2321193e-06
000120 6e 5c 42 35 fc ff a2 b5 fc 9d b3 35 ba c5 a7 b5
       7.2405135e-07 -1.2144442e-06 1.3382519e-06 -1.2500016e-06
000130 c0 54 c7 34 18 30 78 b5 85 bc 8d 35 e2 75 68 35
       3.7128302e-07 -9.2457185e-07 1.0560185e-06 8.6598277e-07
000140 ba f6 9c b0 9b ab 8a 30 35 3d 8b ac 78 a9 8f b0
       -1.1420618e-09 1.0089595e-09 -3.957413e-12 -1.0452785e-09
000150 78 72 3c b0 c5 10 8b b5 a0 fe 72 b5 b8 0b 6f b5
       -6.855667e-10 -1.0361188e-06 -9.0522553e-07 -8.905149e-07
000160 90 89 a0 35 52 01 a5 b5 9b 0b 13 b4 1f a7 84 b5
       1.1960965e-06 -1.2293842e-06 -1.3694664e-07 -9.883405e-07
000170 40 e0 0c 35 d1 1a 24 35 a0 f8 38 b5 38 40 87 23
       5.248039e-07 6.1133784e-07 -6.890714e-07 1.4663927e-17
000180 61 ba 8d a3 a6 2e 4b a3 3a c2 8b 23 c3 de 62 a3
       -1.5366185e-17 -1.101453e-17 1.5152668e-17 -1.2298656e-17
000190 82 ca 6f 31 c9 e9 67 31 a8 e8 54 31 77 bd 40 31
       3.489419e-09 3.3747816e-09 3.098231e-09 2.8047376e-09
0001a0 3d cc 3f b1 b5 1c b5 b2 20 55 ed b3 0c c6 a7 b3
       -2.7910254e-09 -2.1084228e-08 -1.1051657e-07 -7.812568e-08
0001b0 d7 d0 6a 33 0c b4 e7 b3 e6 0c 71 b3 9b 87 6c 33
       5.467231e-08 -1.0789526e-07 -5.6123916e-08 5.5071364e-08
0001c0 cf 0b 88 b3 b9 5b bc b2 92 f6 c6 ae 9f 58 a1 36
       -6.3351415e-08 -2.1927791e-08 -9.047797e-11 4.8084908e-06
0001d0 8f 5c cc b5 73 e6 3f b6 46 b5 0c 37 c2 0b d4 35
       -1.5226123e-06 -2.8595357e-06 8.386856e-06 1.5798653e-06
0001e0 38 5c a1 b6 a5 eb be 36 16 f2 b5 36 d2 9a af b6
       -4.8089096e-06 5.689874e-06 5.422403e-06 -5.23343e-06
0001f0 db fa 80 35 70 56 13 ab 32 e6 ca 2a ac c6 27 ab
       9.609752e-07 -5.2344847e-13 3.6042138e-13 -5.960603e-13
000200 a1 db 17 2b 52 85 ab 2a c5 07 c4 b4 3e 9a 1b b5
       5.3950773e-13 3.0468212e-13 -3.6513498e-07 -5.796645e-07
000210 21 dd 1f b5 6e fd 0a 35 d3 29 ae b4 3b a9 45 36
       -5.95539e-07 5.1777795e-07 -3.2440457e-07 2.9453793e-06
000220 1b 31 54 b6 29 49 f5 35 39 35 44 b6 ac 46 4c b5
       -3.1619045e-06 1.8275215e-06 -2.9237256e-06 -7.6098763e-07
000230 87 31 85 36 aa 65 4e 36 2c e0 a7 36 a3 ee 6a 36
       3.9694746e-06 3.0755568e-06 5.003085e-06 3.5007622e-06
000240 c0 d7 76 36 22 cf 1b 22 d5 fd bf a2 49 34 a8 a2
       3.678244e-06 2.1116072e-18 -5.203941e-18 -4.559185e-18
000250 ac 8d c8 22 6e 80 9b a2 01 9f a3 ab c1 fb fc 2b
       5.436011e-18 -4.2148814e-18 -1.1625979e-12 1.7975553e-12
000260 86 bf 29 ac 10 1a 28 ac e7 68 09 2c 8f 48 a7 8f
       -2.4122661e-12 -2.3888704e-12 1.9527103e-12 -1.649542e-29
000270 89 6f ac 8f c6 5e 3d 8f d1 e2 8f 8f a1 ea aa 0f
       -1.7003471e-29 -9.336672e-30 -1.4188255e-29 1.685367e-29
000280 00 85 77 b3 fc 23 f0 b2 6f ba c8 b3 fa a6 b6 33
       -5.7630132e-08 -2.7956041e-08 -9.347138e-08 8.505408e-08
000290 da 57 6e b3 4a 68 35 b5 1c 20 2f b5 d7 aa 3b 35
       -5.5493594e-08 -6.7579515e-07 -6.5239306e-07 6.9911533e-07
0002a0 21 d4 3a b5 14 54 1a b5 aa 75 ca 35 f6 5d 0e b6
       -6.959909e-07 -5.749182e-07 1.5084418e-06 -2.1214341e-06
0002b0 05 52 07 b6 7e c8 0e 36 34 30 f6 b5 49 8f 57 2c
       -2.016431e-06 2.127635e-06 -1.8342457e-06 3.0632877e-12
0002c0 04 c4 fb ab f9 22 71 ac 4e f7 68 2c fc 71 3e ac
       -1.7889028e-12 -3.4267574e-12 3.3106465e-12 -2.7063898e-12
0002d0 16 a1 ed 34 7d 5c f9 b4 03 fb b3 b4 01 17 f6 34
       4.4261895e-07 -4.6447158e-07 -3.3523983e-07 4.5837808e-07
0002e0 10 1c c8 b4 4e 2f ad 0c 1d f6 cf 8c a6 b4 df 8c
       -3.727332e-07 2.668334e-31 -3.2041524e-31 -3.4467314e-31
0002f0 0e 63 cd 0c 65 ac ae 8c 23 ea a6 31 3d 1f fa b1
       3.1644867e-31 -2.69127e-31 4.857854e-09 -7.279509e-09
000300 39 a7 b8 b1 d8 c5 f2 31 a0 46 bc b1 f1 ba 1c 33
       -5.374116e-09 7.065619e-09 -5.4795493e-09 3.6491603e-08
000310 6e ae 29 b3 81 12 21 b3 5f 38 22 33 3a 85 1b b3
       -3.950702e-08 -3.7502563e-08 3.7769833e-08 -3.620992e-08
000320 48 1f ea ae 19 24 ba af 6c 86 cb af 91 64 c8 ae
       -1.0646645e-10 -3.3858852e-10 -3.7020997e-10 -9.112811e-11
000330 5b 12 27 2f 80 af 1d b3 07 ff f9 b3 3f b7 08 b4
       1.5195083e-10 -3.6714027e-08 -1.1641355e-07 -1.2732652e-07
000340 5c 89 06 b3 9c ba 60 33 0a 98 d8 35 2d 66 04 b6
       -3.1324234e-08 5.2323784e-08 1.6137503e-06 -1.9729007e-06
000350 9c 09 06 b6 6b 80 da 35 cd 7d c1 b5 8d b5 34 35
       -1.997315e-06 1.627964e-06 -1.4416233e-06 6.7319417e-07
000360 84 b1 3d b5 0b 5f 62 b5 c7 0c 73 35 11 8c 2a 35
       -7.0666306e-07 -8.4329866e-07 9.054315e-07 6.353376e-07
000370 6a b1 af 35 c9 a4 12 b6 2c 8c 17 b6 df ac 1d 36
       1.309015e-06 -2.1851613e-06 -2.2582344e-06 2.3495447e-06
000380 49 1c 00 b6 90 2c 86 34 79 b3 76 b4 35 5f c2 33
       -1.908995e-06 2.4991868e-07 -2.2975827e-07 9.051147e-08
000390 a5 df 42 34 c7 e7 81 b4 40 82 a1 35 47 94 9e b5
       1.814902e-07 -2.4196763e-07 1.2033343e-06 -1.1815072e-06
0003a0 65 4b bb 35 71 c5 35 b5 8c 31 cc 33 a7 28 04 37
       1.3954528e-06 -6.771507e-07 9.508503e-08 7.877278e-06
0003b0 0c 21 0e b7 24 bc 07 b7 8e ec ee 36 81 07 09 b7
       -8.471554e-06 -8.090432e-06 7.1204913e-06 -8.1675835e-06
0003c0 54 e2 f7 36 32 15 bd b6 03 32 e4 36 cb 2b 06 37
       7.3875217e-06 -5.6351064e-06 6.8007516e-06 7.997219e-06
0003d0 ad 12 f5 b6 3d 71 5f b6 e9 e4 a7 b6 a4 44 2f b6
       -7.303743e-06 -3.3295503e-06 -5.0036365e-06 -2.6116986e-06
0003e0 08 8a d5 b5 0d f1 51 36 8b a3 03 36 78 67 1a 35
       -1.5909909e-06 3.1283737e-06 1.9615716e-06 5.752004e-07
0003f0 50 19 bf b5 c8 0f 43 36 ac e2 f5 35 9b bb bb b6
       -1.4237976e-06 2.906645e-06 1.8319893e-06 -5.5948744e-06

sqr_avg f4 [2308, 5]
000000 00 00 00 00 00 00 00 00 00 00 00 00 00 00 00 00
       0.0 0.0 0.0 0.0
000010 00 00 00 00 09 60 9f 2d a5 d9 1c 2d 8d 1f 9f 2e
       0.0 1.8118855e-11 8.9159e-12 7.2360874e-11
000020 12 f8 a0 2d 81 78 5a 2c 1e 99 a4 2e 5d a9 e0 2e
       1.830006e-11 3.1046556e-12 7.4850556e-11 1.02164256e-10
000030 8f 4b da 2e d7 ee 95 2e f3 1a d4 2e cd ab a8 2f
       9.926914e-11 6.818162e-11 9.645431e-11 3.0681094e-10
000040 80 bc 65 2f 01 85 a3 2f 18 ff 2f 2f 80 fc a6 2f
       2.0894397e-10 2.9744032e-10 1.6006785e-10 3.0374636e-10
000050 4b 49 9f 2d 16 2e 9e 2d 45 db 87 2d 5f 0e b5 2d
       1.8108756e-11 1.7982987e-11 1.5445098e-11 2.05837e-11
000060 34 f2 3c 2d 67 46 22 2e 88 37 7a 2e 8a 79 4b 2e
       1.0740343e-11 3.6897065e-11 5.689274e-11 4.6264804e-11
000070 d7 81 c0 2a 85 24 4a 2e 39 bf 0f 2e f3 72 a5 2d
       3.4196146e-13 4.596192e-11 3.2684275e-11 1.8809376e-11
000080 b4 1c 9d 2d b3 5a 82 2d 28 a6 9f 2d 24 ad 57 2e
       1.786158e-11 1.4819567e-11 1.8149995e-11 4.903912e-11
000090 80 c2 20 2e 55 63 85 2e de 2b 7f 2c 31 81 ed 2d
       3.655254e-11 6.065785e-11 3.626203e-12 2.7001153e-11
0000a0 a2 08 4a 2d 3f 01 25 2d c4 fb 40 2c fd 14 57 2b
       1.14842875e-11 9.379441e-12 2.74246e-12 7.641247e-13
0000b0 0f 2a 97 2d 73 bd 5e 2f 17 8d c8 2e 16 2f ad 2f
       1.718539e-11 2.0258088e-10 9.1200096e-11 3.1501973e-10
0000c0 77 b6 23 2f 0a e4 ea 2e 32 58 04 2e 5d 88 48 2e
       1.4889588e-10 1.0681596e-10 3.009166e-11 4.559585e-11
0000d0 7a 96 ff 2d 20 d4 db 2d 50 02 e0 2d 0c f7 a7 2c
       2.9056969e-11 2.499162e-11 2.5466879e-11 4.773853e-12
0000e0 ff 0b 29 2e be b1 63 2d 2c 5d bd 2d d9 26 ff 2d
       3.8436806e-11 1.2942923e-11 2.1528189e-11 2.9007395e-11
0000f0 29 41 26 2e bb 7e 48 2e 04 26 15 2e 7f 21 4d 2e
       3.7801904e-11 4.5587294e-11 3.3912442e-11 4.6641354e-11
000100 db 47 1d 2e f8 5c 6e 2f cd ef ad 2f a9 1d 91 2f
       3.5761488e-11 2.1679003e-10 3.1638905e-10 2.639642e-10
000110 32 50 77 2f af f0 22 2f 53 e9 29 2e 68 1d da 2d
       2.249301e-10 1.4819322e-10 3.8633385e-11 2.479679e-11
000120 f8 1e ba 2d bf ef e7 2d 6b 3e 08 2e 89 a3 c2 2f
       2.1159505e-11 2.6368128e-11 3.0978258e-11 3.5404593e-10
000130 05 07 2a 2e 9b dc 97 2f 9f d6 a7 2f dd e1 50 2f
       3.865976e-11 2.762349e-10 3.052962e-10 1.8997733e-10
000140 30 1b 82 2e b2 14 4b 2e 98 7b 4c 26 82 f7 59 2e
       5.916545e-11 4.6175237e-11 7.094422e-16 4.955992e-11
000150 82 7b bb 2d fc 24 0c 30 7b ef d5 2f 5d 09 cf 2f
       2.1314287e-11 5.098426e-10 3.8914635e-10 3.7659734e-10
000160 48 c4 3a 30 f7 4e 45 30 a3 15 e1 2c ff be 9c 2d
       6.794534e-10 7.17804e-10 6.3972868e-12 1.7819966e-11
000170 f4 d0 35 2d db 70 18 2d 2d ce 62 2d 74 b4 c8 2c
       1.0335056e-11 8.665259e-12 1.2892393e-11 5.704376e-12
000180 f2 63 dc 2c 6e 76 62 2c 9b 4e d6 2c e9 2c 8d 2c
       6.2638722e-12 3.2182273e-12 6.0909728e-12 4.012447e-12
000190 84 8b 90 2e 80 c9 8b 2e 77 d7 6c 2e 67 d3 42 2e
       6.573145e-11 6.356782e-11 5.385156e-11 4.4298256e-11
0001a0 1c 90 40 2e d1 28 13 2e ad dd 1a 2f 23 53 1f 2f
       4.378374e-11 3.3460183e-11 1.4084973e-10 1.4490502e-10
0001b0 74 82 04 2e 38 ba 53 2f 3c 9c 13 2e e6 1f 0e 2e
       3.012919e-11 1.9256496e-10 3.3562694e-11 3.2315393e-11
0001c0 25 17 3c 2e 3d 2a b4 2c b8 b9 c8 24 b2 df 35 2f
       4.2766807e-11 5.120597e-12 8.7050794e-17 1.6541327e-10
0001d0 8c 7c b9 2f 2e 09 2b 30 dc 28 27 30 9a 29 53 30
       3.37398e-10 6.222248e-10 6.081231e-10 7.682047e-10
0001e0 bb e1 01 30 8c d8 35 30 8c 25 25 30 47 d5 19 30
       4.725071e-10 6.615515e-10 6.008001e-10 5.596416e-10
0001f0 16 cb a5 2d e3 5b 92 2d 71 b4 0a 2d 2d d0 bd 2d
       1.8848516e-11 1.6639084e-11 7.884458e-12 2.1579261e-11
000200 c9 7b 9b 2d 05 31 c6 2c e0 56 a8 2f eb 0c 53 30
       1.7676431e-11 5.6329407e-12 3.062075e-10 7.677971e-10
000210 ac 87 5e 30 14 13 29 30 61 ad 86 2f c1 9f 9b 2e
       8.095593e-10 6.1508953e-10 2.449765e-10 7.076962e-11
000220 d8 ba b8 2e bf 1d 12 2e 0a 3a 9c 2e 2c 35 97 2d
       8.4005414e-11 3.3222976e-11 7.1043685e-11 1.7190326e-11
000230 b3 96 88 2f 86 aa 20 2f e7 e7 c2 2f ba ab 53 2f
       2.4845334e-10 1.4612497e-10 3.545317e-10 1.9251348e-10
000240 f6 29 62 2f 33 39 1e 2c 04 6d 70 2d 96 86 38 2d
       2.0569488e-10 2.2484902e-12 1.3666627e-11 1.0489073e-11
000250 10 2d 83 2d eb b0 1d 2d ec db 8e 2c 53 6c 29 2d
       1.4912988e-11 8.9637004e-12 4.060299e-12 9.630591e-12
000260 ce 0c 99 2d 7d 80 95 2d b1 ad 47 2d ba 43 b8 29
       1.7399773e-11 1.6996399e-11 1.1350408e-11 8.18299e-14
000270 d0 c7 c3 29 ef 12 ec 28 1d 52 88 29 7b 5c c0 29
       8.6944015e-14 2.6209475e-14 6.0538576e-14 8.5425556e-14
000280 6f 98 11 2e 38 dd 10 2d 16 e9 af 2e 31 ac 8f 2e
       3.310457e-11 8.234573e-12 7.999483e-11 6.5334745e-11
000290 e8 3b fa 2d 23 49 18 2e fb ba 17 2e 12 43 1f 2e
       2.8448313e-11 3.4625757e-11 3.4499497e-11 3.6211985e-11
0002a0 d0 5f 29 2e 8d 29 e9 2d 65 75 a6 2d 78 9e 24 2e
       3.851125e-11 2.6507485e-11 1.8924149e-11 3.743003e-11
0002b0 d6 b9 14 2e 2d 95 25 2e 28 21 f6 2d d3 cc 48 2b
       3.381636e-11 3.764915e-11 2.7981686e-11 7.1338524e-13
0002c0 64 f4 88 2a 8e 3f 7b 2b 1f 87 6a 2b 58 bb 1c 2b
       2.4328033e-13 8.9261313e-13 8.332102e-13 5.5682325e-13
0002d0 0e 7b 4d 2e 47 a0 80 2e 37 fb 53 2e 98 f1 84 2e
       4.6720898e-11 5.849237e-11 4.819897e-11 6.045581e-11
0002e0 a2 9c 49 2e 21 38 52 29 77 36 97 29 2f 10 af 29
       4.5841227e-11 4.667805e-14 6.715195e-14 7.7743686e-14
0002f0 25 7d 93 29 0d 11 56 29 4d be cf 2e 9f 3e 69 2f
       6.5498205e-14 4.7532335e-14 9.4470744e-11 2.1213474e-10
000300 f5 37 fe 2e da be 5b 2f fe 28 04 2f 36 85 0a 2e
       1.1560523e-10 1.9985738e-10 1.2019893e-10 3.1495882e-11
000310 5a 1d 15 2e c5 17 11 2e e4 7b 0a 2e 3e 56 0b 2e
       3.3904747e-11 3.2990295e-11 3.1487604e-11 3.168154e-11
000320 5e b4 50 2d c0 31 04 2f 5d 0f 1e 2f e5 bb 18 2d
       1.1863481e-11 1.2023005e-10 1.4375474e-10 8.681921e-12
000330 1e b2 d4 2d 96 bd 06 2f 81 e1 2a 30 9c 42 3e 30
       2.418071e-11 1.2254583e-10 6.21661e-10 6.9216255e-10
000340 9d b0 82 2e 68 82 11 2f 4a 6c 9b 2e e4 25 d9 2e
       5.9430884e-11 1.3234003e-10 7.06782e-11 9.874748e-11
000350 0f 1c ea 2e 17 68 91 2e 7e 51 3f 2e 7f 20 04 2f
       1.0646072e-10 6.612327e-11 4.350075e-11 1.2016875e-10
000360 52 98 11 2f fd 5b 4f 2f bf 0c 6f 2f ca 5c eb 2e
       1.3241788e-10 1.8859221e-10 2.1741452e-10 1.07030454e-10
000370 a5 e9 76 2f eb 09 2c 30 dc bc 37 30 0b e6 46 30
       2.2456577e-10 6.258733e-10 6.68434e-10 7.235889e-10
000380 f3 4c 03 30 48 cf 8f 2c c4 42 8d 2c 32 ba c6 2b
       4.7766874e-10 4.0873173e-12 4.0148735e-12 1.4120426e-12
000390 75 38 b4 2b 70 00 a5 2c a6 43 a4 2f b6 c7 9d 2f
       1.2805439e-12 4.6896306e-12 2.9879493e-10 2.8700037e-10
0003a0 3a e0 b4 2f 07 42 bd 2e f2 83 b4 2d 71 71 c4 2f
       3.2901132e-10 8.606454e-11 2.0522226e-11 3.5732797e-10
0003b0 17 34 e3 2f 1c 38 cf 2f 7d 82 a0 2f d6 30 d3 2f
       4.1328072e-10 3.769295e-10 2.9196548e-10 3.8415376e-10
0003c0 92 b6 b4 2f 43 86 57 2f ce 18 9c 2f ae 51 d4 2f
       3.2871533e-10 1.9601835e-10 2.839386e-10 3.8620612e-10
0003d0 f2 26 b3 2f 8e 00 c5 2e f9 71 5e 2f db 66 72 2e
       3.2587583e-10 8.958621e-11 2.0231274e-10 5.5115783e-11
0003e0 ae ec b3 2d e9 e9 ad 2e d9 75 0d 2f 42 61 7d 2d
       2.045505e-11 7.90868e-11 1.2865743e-10 1.44029805e-11
0003f0 a8 74 7b 2e a9 c4 88 2f c9 84 ed 2e 97 69 af 2f
       5.7174404e-11 2.487799e-10 1.08010996e-10 3.190734e-10

grad_avg f4 [11230, 5]
000000 00 00 00 00 00 00 00 00 00 00 00 00 00 00 00 00
       0.0 0.0 0.0 0.0
000010 00 00 00 00 b1 e3 09 b6 ed 04 6f b6 82 8c 23 36
       0.0 -2.0547125e-06 -3.5616642e-06 2.437068e-06
000020 a4 fa 4f b6 ef eb 6e 36 0a 8a 8c 2f 91 c2 a6 ae
       -3.0991296e-06 3.5602095e-06 2.5563934e-10 -7.583368e-11
000030 c6 75 8c af 57 49 81 ae b2 78 04 2f 1f 83 0c 1c
       -2.5549535e-10 -5.8792686e-11 1.204821e-10 4.6491584e-22
000040 2c d6 13 9d 31 23 dd 1c c9 a1 23 1d df 6a 11 9d
       -1.9566012e-21 1.463365e-21 2.1656511e-21 -1.9245841e-21
000050 f3 d9 74 2c 7f f8 7e ad 16 e0 3e 2d 54 05 8d 2d
       3.4795472e-12 -1.4493406e-11 1.0850007e-11 1.603221e-11
000060 02 d6 7a ad 33 0d d0 25 d7 e5 72 a6 b8 f4 73 a6
       -1.4258374e-11 3.6091192e-16 -8.4272107e-16 -8.4639217e-16
000070 15 31 b8 a4 d8 07 81 a6 18 ed 32 af ca e8 54 2f
       -7.988043e-17 -8.953299e-16 -1.6273238e-10 1.9363991e-10
000080 4b 37 12 af 58 00 53 af 3b 4b 50 2f 76 13 94 13
       -1.3298267e-10 -1.919046e-10 1.8944217e-10 3.7379642e-27
000090 76 5e 9d 93 da 2f ad 13 a2 9f a3 93 94 7f 8d 13
       -3.9725518e-27 4.3718525e-27 -4.1304395e-27 3.5719206e-27
0000a0 8c bd aa 24 39 df c9 a3 12 9d aa a4 db ec 9c a3
       7.404685e-17 -2.1887002e-17 -7.3991835e-17 -1.7013866e-17
0000b0 6d bf 20 24 09 00 00 00 09 00 00 80 09 00 00 00
       3.4856613e-17 1.3e-44 -1.3e-44 1.3e-44
0000c0 09 00 00 80 09 00 00 00 c1 78 e2 35 32 d8 ec b5
       -1.3e-44 1.3e-44 1.6873456e-06 -1.7646291e-06
0000d0 df 41 f0 35 2b a4 20 b5 d9 12 f3 35 6c 26 b8 26
       1.7900564e-06 -5.984354e-07 1.8110396e-06 1.2777979e-15
0000e0 f8 38 93 a6 53 90 85 26 79 0f 93 a6 3d 24 99 a6
       -1.0215615e-15 9.267848e-16 -1.0204368e-15 -1.062633e-15
0000f0 91 4b 19 36 73 27 f5 b5 ae 5e de 35 48 d5 f4 b5
       2.2842762e-06 -1.8265404e-06 1.6567844e-06 -1.824149e-06
000100 a0 01 ff b5 d4 08 b3 1e 28 14 8f 9e 17 d5 81 1e
       -1.8999453e-06 1.8956013e-20 -1.514905e-20 1.3746538e-20
000110 e2 ea 8e 9e 8e d5 94 9e cd 65 45 36 8b d7 1d b6
       -1.513198e-20 -1.5758434e-20 2.9414543e-06 -2.3520286e-06
000120 24 2c 0f 36 a6 a2 1d b6 73 2f 24 b6 77 41 62 2e
       2.1334354e-06 -2.3489497e-06 -2.4465523e-06 5.1444595e-11
000130 48 e8 34 ae 95 18 24 2e f8 ac 34 ae 30 2e 3c ae
       -4.113357e-11 3.7311116e-11 -4.108089e-11 -4.2787274e-11
000140 82 c1 1c 34 32 b0 fa b3 d5 63 e3 33 39 5c fa b3
       1.459903e-07 -1.1673582e-07 1.05886706e-07 -1.16583074e-07
000150 aa 61 02 b4 00 a3 b2 a1 a0 0a 82 a1 62 0c 6c a1
       -1.2142723e-07 -1.2104895e-18 -8.811955e-19 -7.99763e-19
000160 c3 38 48 21 16 1d 03 a1 9a 70 59 32 f0 dd 2d b2
       6.783776e-19 -4.442302e-19 1.2656665e-08 -1.0120388e-08
000170 db b5 1d 32 f3 a3 2d b2 c9 da 34 b2 03 9a bf 23
       9.179952e-09 -1.0107203e-08 -1.0527125e-08 2.0773488e-17
000180 33 29 99 a3 77 f0 8a 23 04 01 99 a3 54 51 9f a3
       -1.6605742e-17 1.506383e-17 -1.6588723e-17 -1.7273258e-17
000190 57 62 3e 25 2f 33 18 a5 98 15 0a 25 bc 0b 18 a5
       1.6513192e-16 -1.320124e-16 1.1976908e-16 -1.3187874e-16
0001a0 5c 51 1e a5 31 85 1e 33 4e 82 fd b2 84 f3 e5 32
       -1.3731881e-16 3.690838e-08 -2.9512332e-08 2.6769847e-08
0001b0 cf 2d fd b2 4a d9 03 b3 12 70 75 2e b2 3e 44 ae
       -2.9473908e-08 -3.0698438e-08 5.580609e-11 -4.4620925e-11
0001c0 3b 02 32 2e 65 fe 43 ae 76 22 4c ae 5b 93 b2 27
       4.0474495e-11 -4.4563814e-11 -4.6414837e-11 4.9564688e-15
0001d0 61 bb cb a7 d7 6a 73 a7 03 ea 9f 27 8a 19 93 a7
       -5.6546975e-15 -3.3780942e-15 4.438508e-15 -4.0828386e-15
0001e0 df f0 8b 22 00 01 84 a2 e2 f0 ab a2 5e a9 b2 a1
       3.7931058e-18 -3.577973e-18 -4.6604687e-18 -1.210658e-18
0001f0 11 39 74 a2 83 a0 2c 37 3f 4f 29 37 b6 92 37 b7
       -3.3098377e-18 1.0289371e-05 1.0091636e-05 -1.0941809e-05
000200 bd b2 3b b7 d2 8d e5 36 66 75 8b 32 45 c7 88 32
       -1.1187684e-05 6.841242e-06 1.6235116e-08 1.5923101e-08
000210 48 4d 94 b2 6b a2 97 b2 e0 71 39 32 59 6f 80 31
       -1.7264611e-08 -1.7652573e-08 1.07943094e-08 3.737949e-09
000220 fd d0 de 31 cb 43 24 b1 6e ad 70 b1 a5 f1 ca b1
       6.4848096e-09 -2.3903677e-09 -3.502318e-09 -5.9064456e-09
000230 06 64 a8 a4 20 8b d5 a4 d9 97 d4 a4 ff e6 c8 24
       -7.302783e-17 -9.260971e-17 -9.2197584e-17 8.7127496e-17
000240 19 67 cd a4 ea 83 0e 36 cb 21 94 36 45 10 8e 36
       -8.907923e-17 2.1236433e-06 4.4146777e-06 4.233824e-06
000250 a5 6b fe 35 84 a1 6f 36 c2 3f b6 34 d2 6f 3d 35
       1.8955803e-06 3.570779e-06 3.3946532e-07 7.0570707e-07
000260 02 ad 35 35 69 ad a2 34 42 39 19 35 0b 57 ae 2a
       6.7679514e-07 3.0301024e-07 5.708026e-07 3.0969007e-13
000270 e6 67 35 2b c4 f7 2d 2b 56 93 9b 2a 12 ae 12 2b
       6.4448306e-13 6.180579e-13 2.7635766e-13 5.211119e-13
000280 c7 11 ab 96 f8 e1 97 96 39 89 8a 96 90 ae 9a 16
       -2.763776e-25 -2.4537972e-25 -2.2381702e-25 2.4990206e-25
000290 50 b5 6d 96 01 eb 85 98 81 cc 6d 98 61 e6 58 98
       -1.920192e-25 -3.4616988e-24 -3.073478e-24 -2.8033657e-24
0002a0 70 2f 72 18 52 15 3a 98 76 4d 63 97 6e cc 17 17
       3.1301717e-24 -2.40507e-24 -7.3445425e-25 4.904876e-25
0002b0 8b 39 30 17 13 4b 32 17 69 05 2e 97 02 e3 2b b0
       5.6941297e-25 5.760966e-25 -5.622926e-25 -6.2532035e-10
0002c0 17 a3 18 b0 e9 3c 0b b0 76 77 1b 30 e5 ee ee af
       -5.552904e-10 -5.0654464e-10 5.6558436e-10 -4.3461693e-10
0002d0 f4 0e 73 35 53 5a 42 b5 44 4a 30 35 36 19 42 b5
       9.0546314e-07 -7.240207e-07 6.567318e-07 -7.230732e-07
0002e0 e1 29 4a b5 2e 4e d9 2e 37 c0 ad ae e0 9a 9d 2e
       -7.5311806e-07 9.881905e-11 -7.9012734e-11 7.167045e-11
0002f0 50 87 ad ae 7d bc b4 ae 01 5e 95 32 f1 de 6e b2
       -7.8911655e-11 -8.2189346e-11 1.7388631e-08 -1.3904114e-08
000300 7d ac 58 32 4f 8f 6e b2 9b 78 78 b2 20 9a 48 16
       1.2612074e-08 -1.3886008e-08 -1.4462922e-08 1.6204505e-25
000310 27 39 20 96 40 6f 11 16 bf 11 20 96 20 af 26 96
       -1.2942731e-25 1.1748111e-25 -1.2930297e-25 -1.3464633e-25
000320 47 19 46 b2 f8 ff d8 32 0c 0f 09 b2 75 8d 21 33
       -1.1530864e-08 2.526211e-08 -7.977871e-09 3.7614388e-08
000330 03 ab b5 b2 1d b9 16 33 f7 df 6d b3 2a 33 0b 33
       -2.114894e-08 3.5092956e-08 -5.5384557e-08 3.2409993e-08
000340 cd 7f 7e 33 97 8d e4 32 0c f6 9e 27 b0 8c a5 a8
       5.9255218e-08 2.6607081e-08 4.4120574e-15 -1.8379693e-14
000350 19 b3 77 28 37 23 b7 28 81 db a2 a8 86 c9 40 31
       1.375009e-14 2.0332353e-14 -1.8080808e-14 2.805423e-09
000360 cd 3c c5 30 c6 98 e7 2f 21 e9 ab b0 0c c8 f6 30
       1.4350917e-09 4.2127207e-10 -1.2508147e-09 1.7955712e-09
000370 a6 1d a2 1c b5 e4 cc 9c 69 90 cc 9c cb 60 d7 1c
       1.0727925e-21 -1.3558707e-21 -1.3536917e-21 1.4252527e-21
000380 c7 ee 90 9c f7 e8 c9 30 8b ad 6f 2f 09 67 e0 b0
       -9.590843e-22 1.4690887e-09 2.1798578e-10 -1.6327429e-09
000390 bc 9b b7 af be 57 ee b0 65 2c 8a 25 99 96 54 a5
       -3.3398162e-10 -1.7341717e-09 2.3969267e-16 -1.8439093e-16
0003a0 6c 9a ab a5 3a a7 6d 25 1f b0 81 a5 8a 96 37 b1
       -2.9768412e-16 2.0613132e-16 -2.2497277e-16 -2.6715576e-09
0003b0 13 13 29 b1 64 c9 23 31 b0 21 32 31 24 2a 1e 31
       -2.460358e-09 2.38341e-09 2.5921558e-09 2.301598e-09
0003c0 88 c4 9b 27 51 07 b0 a7 28 d6 a6 a7 3a 2e 4a a7
       4.323422e-15 -4.8857746e-15 -4.6306444e-15 -2.805819e-15
0003d0 a2 50 9d a7 83 2c 04 b5 39 4e 0f 35 3a 35 66 34
       -4.3663676e-15 -4.9238605e-07 5.338548e-07 2.1439783e-07
0003e0 23 2e b1 34 9c f1 fc 34 b0 d6 ad b5 b6 7a bc 35
       3.3002388e-07 4.7114452e-07 -1.2951987e-06 1.4042805e-06
0003f0 56 63 17 35 48 08 69 35 d4 56 a6 35 a9 1a 47 2c
       5.6396436e-07 8.6811315e-07 1.2393234e-06 2.82944e-12
